Superpixel_methods/SSN_cp/log/bset_model.pth (torch, 873395 bytes, 32 tensors)

scale1.0.0.weight f4 [64, 5, 3, 3]
000000 01 79 af 3c f6 ee ea 3d 09 4a c1 3d 67 5e d3 3d
       0.021420004 0.114713594 0.09437949 0.1032074
000010 72 90 97 3e ff a0 1e 3e 37 f5 2e bc b9 2f 0c 3e
       0.2960239 0.15491103 -0.010678581 0.1369008
000020 1f 4e b2 3d 77 c1 05 3e 08 3f ec 3d 14 01 9e 3d
       0.08706307 0.13062082 0.1153546 0.077150494
000030 de 2b ff 3d e6 29 c3 3d 65 bc 80 3d 6d c3 c4 3d
       0.12459539 0.09529476 0.062859334 0.09607587
000040 2c 34 8f 3d a5 fa e6 3c 56 cc 16 ba c3 c7 1c 3d
       0.06992373 0.028195689 -0.00057524943 0.038276445
000050 13 d4 13 3d 27 a0 89 bb d0 7a fd 3c b1 32 e6 3c
       0.03609092 -0.0042 0.03094235 0.028100343
000060 2b 82 12 bd 59 86 86 bb a0 ca 60 bc 97 fd 9e 3c
       -0.03576867 -0.004105371 -0.013720185 0.01940803
000070 5d 4c cd 3c d6 61 00 3d 7b bf 9d 3c 03 1f d6 3c
       0.025060827 0.031343304 0.019256344 0.026137834
000080 d3 1d fa 3c ff af 9e 3c eb 77 b9 3c e1 b2 e9 3c
       0.0305318 0.01937103 0.02264019 0.028527679
000090 4b c3 08 ba 22 6e 82 ba 92 6f 61 3b 06 01 f1 bb
       -0.0005217089 -0.0009951035 0.0034398776 -0.0073548583
0000a0 67 cb fe bb 05 a2 f4 37 54 cd cf bb e0 1a 98 bb
       -0.0077757123 2.9162513e-05 -0.0063416157 -0.0046418756
0000b0 06 87 a4 3a 8b 59 8e 3c 17 cc 7c 3d bd b9 12 3d
       0.0012552447 0.017376682 0.061718073 0.035821665
0000c0 b2 47 ec 3c b8 98 8e 3d d8 26 49 3d d0 48 e6 bc
       0.02884278 0.069627225 0.04910931 -0.028110892
0000d0 e2 f5 28 bc 34 e6 55 bc 82 32 ae 3d 55 19 8b 3d
       -0.010312529 -0.013055373 0.08505727 0.06791941
0000e0 c5 5f a6 3d 44 3f 14 3d e2 2f 77 3c 02 d4 0e 3d
       0.08123735 0.036193147 0.0150871 0.034870155
0000f0 12 8e 19 3d ce 4a b5 3c 8a 69 0c 3d e0 64 bf bd
       0.037489004 0.022130396 0.034280337 -0.09345412
000100 89 98 4e be d3 0d 99 3d 0a 74 c6 be 0d d0 07 bf
       -0.20175375 0.0747334 -0.38760406 -0.53051835
000110 c2 6c 08 be 98 2d 4c be b7 dc ac be d3 9d 5e bc
       -0.13322738 -0.19939268 -0.33762142 -0.013587433
000120 2c d7 93 3c 03 87 07 3d 8f ae 41 3c 47 fe 91 3c
       0.018046938 0.03308774 0.011821403 0.017821444
000130 42 31 0c 3d 12 ca 3f 3c 8f 02 4d 3c 16 8d e4 3c
       0.034226663 0.011705892 0.012512817 0.027899306
000140 27 f7 c0 3b f3 96 0e bc f5 03 18 bc eb af ed bc
       0.005888838 -0.008702981 -0.009278287 -0.029014548
000150 76 f8 81 3b ee b8 b1 3b be c7 84 bc e2 42 53 3b
       0.0039663864 0.0054236567 -0.016208526 0.003223591
000160 3c 3e 10 3b 7f ee a2 bc 8c 12 fb bd 11 2c e3 bd
       0.002200975 -0.019889114 -0.12259397 -0.110923894
000170 09 11 e7 bd aa 14 e1 39 27 f6 2f 3e 74 78 8b 3d
       -0.11282546 0.0004293074 0.17183743 0.06810084
000180 cc 6b 58 3d a4 d4 88 3e a9 ef 70 3e 3b df 8c 3c
       0.052837178 0.26724732 0.23528923 0.017196288
000190 b5 12 1f 3d aa 99 3e 3d 32 53 ea 3c c5 b2 10 3d
       0.0388362 0.046533264 0.028604124 0.035326738
0001a0 cc 69 7c 3d 12 b6 92 bb 10 07 c6 bb 2c 5d 6b 3c
       0.061624333 -0.004477271 -0.0060433224 0.014365476
0001b0 2b 18 41 bd c2 e6 b5 bc c7 d5 30 3d 16 a3 99 bd
       -0.04714219 -0.02220476 0.043172624 -0.07501809
0001c0 a1 71 66 bd a0 d4 97 3c bd 3c ae bd 5a e0 85 bd
       -0.05626071 0.018534005 -0.08507679 -0.06536932
0001d0 81 92 d0 3b 5d a1 19 bc 0e 3a c0 ba ef 3b 1b bc
       0.006365121 -0.009376851 -0.0014665739 -0.0094747385
0001e0 37 b5 32 bc 61 2d 84 bb 41 f1 1b bc b3 22 0a bc
       -0.010907463 -0.00403373 -0.009517969 -0.0084311245
0001f0 7b 9b 16 bb 55 50 ca bb 9f ee 9b 3c a0 1f 9d 3c
       -0.0022980857 -0.006174127 0.019034682 0.019180119
000200 c0 d0 7e 3b 60 c9 52 bb 3f de 81 bb b7 20 94 bc
       0.003888175 -0.0032163486 -0.0039632614 -0.018082006
000210 33 dc 17 bb d5 08 9a ba 15 7e 91 bc 4a 54 34 3d
       -0.002317202 -0.00117519 -0.017760316 0.044025697
000220 63 18 09 3d a1 25 ba bc 71 76 e2 3d 49 d9 e1 3d
       0.033470523 -0.022723021 0.11057747 0.11027772
000230 3b dd bd bc 06 89 b4 3d ae b6 94 3d 3b 23 9f bc
       -0.02317678 0.08815198 0.07261406 -0.019425979
000240 24 3a 6c be 01 c8 81 be 9b e6 3f be f7 99 73 be
       -0.23069054 -0.25347903 -0.18740313 -0.23789202
000250 fc e8 7f be 44 82 36 be 94 09 35 be ac 68 32 be
       -0.2499122 -0.1782313 -0.17679435 -0.17422742
000260 0b c1 eb bd f3 c5 e9 bc 29 76 36 bc 38 47 60 3d
       -0.115114294 -0.028536772 -0.01113657 0.05475542
000270 4c d6 80 bd d1 44 35 bd 84 83 c8 3c fe 4e 76 bd
       -0.06290874 -0.04425508 0.024476774 -0.060133927
000280 30 a6 48 bd 0e 16 98 3c 01 d8 df 3c bb b5 19 3d
       -0.048986614 0.018565204 0.027324678 0.037526827
000290 f9 58 e8 3c 66 16 e7 3c 1c a1 0d 3d 55 52 f9 3c
       0.028362738 0.028208923 0.034577474 0.030434767
0002a0 7a 00 2f 3c c5 96 9d 3c 71 c2 5b 3c 59 9f a3 ba
       0.010681266 0.019236932 0.013413058 -0.0012483402
0002b0 21 97 9b b9 14 88 83 bb 10 98 38 3b 16 1f 58 3b
       -0.00029676504 -0.0040140245 0.0028166808 0.0032977513
0002c0 9c 5d 7e bb fc 4a 07 bc 6d 6a a7 bb 4d 81 35 bc
       -0.003881312 -0.008257624 -0.0051091225 -0.011078191
0002d0 58 2c 16 3e ee 2e 8c bd e5 db 2b be 06 e3 c4 3d
       0.14665353 -0.06844889 -0.16783102 0.09613614
0002e0 95 7c 9d be fd e6 a3 be c6 e1 de 3d 4b 59 86 bd
       -0.3075911 -0.32012168 0.108829066 -0.0656
0002f0 c5 6d 26 be ea 33 33 3d 2a 03 5d 3d 96 4b 95 bc
       -0.16252811 0.04375068 0.053958096 -0.018224519
000300 cd ee 42 3d c9 d6 80 3d b7 6b 92 bc 6f cf f7 bb
       0.04759102 0.06290967 -0.017873628 -0.00756257
000310 be f9 33 3c 27 86 85 bd 1e b1 54 3d 0f 0d 91 3d
       0.010984836 -0.06519728 0.051926725 0.07082569
000320 f1 9c 93 3c f2 a9 7f 3d 4a 4e aa 3d ae 21 41 3c
       0.018019171 0.06241793 0.08315714 0.011787815
000330 be 0a 1b 3c f0 72 0e 3d 10 8f f1 bc b7 7e a1 bb
       0.00946301 0.03477758 -0.029487163 -0.0049284357
000340 ee 85 c9 3b c6 5c 1a 3c 1b ee 6a bb 3c d7 b5 3b
       0.006149999 0.009421533 -0.0035847488 0.0055493396
000350 b7 99 fe 3b b1 79 6d bc 0f 5f e1 bb a4 87 49 3a
       0.007769789 -0.0144943455 -0.006877787 0.00076877535
000360 76 62 51 3b 6b d1 28 3b 37 a3 c1 38 e4 93 06 b9
       0.0031949556 0.0025759588 9.233358e-05 -0.0001283433
000370 ca 8d f6 38 43 14 f3 ba 1a 94 47 bc 09 a1 3f bc
       0.00011756604 -0.0018545467 -0.012181306 -0.011696109
000380 97 23 5a bc c4 4a 16 bd b0 e1 5e bd 8a 96 00 be
       -0.013314149 -0.036692396 -0.05441445 -0.12557426
000390 6b df 33 3e 52 55 87 3e e4 bf 0b be 4d 25 67 3c
       0.17565696 0.26432282 -0.13647419 0.014108014
0003a0 e1 b8 29 3d 42 96 0f be c1 de 86 bc f6 ba 80 bc
       0.04143608 -0.14022163 -0.01646364 -0.01571415
0003b0 47 8b aa 3c fa f5 c5 bb 65 ac 9a bc 7d 10 16 3d
       0.020818366 -0.0060412856 -0.018881032 0.03663682
0003c0 cf e8 bf ba 99 73 22 bb 24 35 ef 3c 7c fb 1a 3c
       -0.0014641526 -0.002478814 0.029200144 0.009459373
0003d0 e9 18 6d bb 41 33 8c bc cf d2 98 3c 46 c0 65 bb
       -0.0036178178 -0.017114284 0.018655209 -0.003505723
0003e0 67 12 92 bb 17 bf fa 3c 37 b5 71 3b 75 2b e6 bb
       -0.00445776 0.030608697 0.0036881694 -0.0070242235
0003f0 68 b9 72 bc 2c 2e 83 bc d5 f5 cb 3a 95 f2 5b bc
       -0.014814712 -0.016013227 0.0015560935 -0.013424535

scale1.0.1.weight f4 [64]
000000 98 96 4f 3f 8b f5 69 3f 74 fa 41 3f ed b4 43 3f
       0.8108916 0.91390294 0.75772786 0.76447946
000010 fa 80 7a 3f ff ea 54 3f 7c 3e 8b 3f 79 b4 49 3f
       0.9785305 0.83171076 1.0878444 0.78791004
000020 dd bc 80 3f 63 9d b5 3f e8 af 66 3f a6 23 38 3f
       1.0057636 1.4188656 0.9011216 0.71929395
000030 a9 9c 91 3f a3 26 7c 3f 69 91 af 3f b9 e6 4c 3f
       1.1375934 0.98496455 1.3716251 0.80039555
000040 3b 89 58 3f 70 d1 9b 3f 0b ab 84 3f de 62 7b 3f
       0.845844 1.217329 1.0364698 0.98197734
000050 f2 e2 72 3f 35 68 74 3f cb 0c 81 3f 26 6a 36 3f
       0.9487754 0.9547151 1.0082029 0.7125572
000060 67 61 71 3f 68 44 67 3f 97 f4 6d 3f ac c2 6f 3f
       0.9428925 0.90338755 0.9295134 0.9365642
000070 5a 62 4b 3f 94 f9 50 3f 70 59 90 3f 0a 0a 48 3f
       0.7944695 0.81630826 1.1277294 0.7814032
000080 3c 28 8c 3f e5 1a 7b 3f ab 05 4e 3f 35 df 55 3f
       1.0949779 0.9808791 0.804774 0.8354371
000090 66 78 56 3f 30 a1 82 3f 77 6c b3 3f 22 8e 83 3f
       0.83777463 1.020544 1.4017476 1.027775
0000a0 c9 07 7e 3f 24 85 96 3f 0c 87 64 3f 60 3b 6c 3f
       0.9923063 1.1759381 0.89268565 0.922781
0000b0 1d c3 4e 3f d3 ac 6c 3f c0 03 5b 3f 31 8a 1e 3f
       0.8076647 0.9245121 0.855526 0.61929613
0000c0 7b 02 88 3f f6 7c 5a 3f b6 c9 47 3f 43 e8 6e 3f
       1.0625757 0.85346925 0.7804216 0.93323153
0000d0 a1 97 63 3f 5c 05 67 3f 92 8f 68 3f 03 97 4e 3f
       0.8890324 0.9024255 0.9084407 0.80699176
0000e0 46 08 6a 3f f6 f4 89 3f c6 8b 7a 3f b8 6d 7c 3f
       0.91418874 1.0777881 0.9786953 0.9860492
0000f0 73 ee 6b 3f 78 b1 61 3f 9a ce 6c 3f c4 21 86 3f
       0.9216072 0.8816142 0.9250275 1.0479054

scale1.0.1.bias f4 [64]
000000 0d c1 52 be 23 cf 11 3e c7 72 07 be ea 4b 92 bc
       -0.20581456 0.14239173 -0.13227378 -0.017858464
000010 ca 89 bc 3d b3 92 8a 3c 41 d1 7c 3d 69 93 93 bd
       0.09205969 0.016915655 0.061722998 -0.07205851
000020 e6 55 b1 3d 9d f8 86 3f d9 e5 20 be 1c d3 16 be
       0.08658962 1.0544621 -0.1571268 -0.1472897
000030 ab 6c 9d 3e 25 55 ce 3c af de 52 3f 86 1b 85 be
       0.3074697 0.025187084 0.8237104 -0.2599756
000040 af e0 00 bd 67 3d 39 3f e7 cf da 3d 29 bd a5 3e
       -0.031464275 0.7235932 0.106841855 0.3237088
000050 98 06 66 3e 80 95 76 3c 09 8b 37 bd d9 b3 79 be
       0.22463453 0.015050292 -0.04481033 -0.24385013
000060 49 aa 45 3e 40 66 b5 3d 62 c6 f8 3c 5c 89 57 3e
       0.1930324 0.08857393 0.030368034 0.21048492
000070 60 57 c5 bd 28 6e d9 3b ff 11 05 3f 5b 92 87 bd
       -0.09635806 0.006635446 0.51980585 -0.06619712
000080 12 21 a0 bc 20 c5 cb bd 82 a0 50 3e 63 31 a8 3d
       -0.01954702 -0.09949708 0.20373729 0.08212545
000090 d1 70 cd 3b 6e 2f 49 3e 85 89 67 3f 8d 39 89 3d
       0.0062695523 0.19646999 0.90444213 0.0670043
0000a0 22 1a ad 3b 8f 1d d1 3e 87 09 f0 3d 57 cf 8e 3e
       0.0052826563 0.40842864 0.11720567 0.27892563
0000b0 07 f8 87 bc f6 a9 d2 3d 6f d4 ed bc 35 80 8a be
       -0.01659776 0.10286324 -0.02903196 -0.2705094
0000c0 2f 6e f2 3e f1 9d b0 3c fe f4 f4 bd 80 8a 6a bd
       0.47349688 0.021559687 -0.11960791 -0.05726099
0000d0 4e 61 89 3c 2b 38 91 3c b1 7d 68 3d 5a 37 24 3d
       0.016770031 0.017726978 0.056760494 0.04009185
0000e0 fb 1d 20 bd 6d d9 89 3e ed a0 d9 bc 63 df 2a bd
       -0.03909109 0.26923695 -0.026565993 -0.041716944
0000f0 c7 62 82 3e ed c5 c4 3c 19 76 81 3d 0e 84 f5 3e
       0.25465986 0.02402016 0.063213535 0.47952312

scale1.0.1.running_mean f4 [64]
000000 b7 31 5e 41 8f de c6 bf a8 bc 5f 40 72 3d f6 40
       13.887137 -1.553667 3.4958897 7.6950006
000010 3e 88 04 c1 f1 3e 08 c0 42 ae e6 3f a4 0a dd 40
       -8.283262 -2.1288416 1.8021929 6.907549
000020 9c 90 23 c0 bf 8c 0f bf e8 89 f9 40 99 59 18 c1
       -2.5557013 -0.56074136 7.7980843 -9.521874
000030 dd 5d 46 c0 1d cd c3 c0 aa 5d e1 bd b4 5e 83 41
       -3.099479 -6.1187882 -0.11004193 16.421242
000040 39 b7 65 41 36 80 09 3f 1d 78 55 c0 51 07 db 3f
       14.357232 0.5371126 -3.3354561 1.7111608
000050 84 2f ec c0 b7 71 21 c1 2b a7 8c c0 99 a2 b2 40
       -7.3808002 -10.090262 -4.3954062 5.5823483
000060 f6 fc eb c0 89 81 47 be 95 a3 fd 40 db 61 21 40
       -7.374629 -0.19483007 7.9262185 2.5215976
000070 d0 9c e1 40 84 dd 78 40 0f ae e4 bf 48 32 8e 40
       7.050392 3.8885202 -1.7865618 4.443638
000080 30 df 51 c1 60 8c b6 c0 21 5a f9 40 45 49 e9 40
       -13.116989 -5.7046356 7.792252 7.290194
000090 a5 65 03 41 9e 32 59 40 9f c8 c3 3e dd b8 af c0
       8.212316 3.3937144 0.38239 -5.4913163
0000a0 f3 08 13 40 35 17 8c bf 73 c0 c5 40 17 01 a8 3f
       2.2974212 -1.0944582 6.1797423 1.3125333
0000b0 01 cd 4e c1 de 87 b8 bf b8 fb 90 bf 69 97 df bf
       -12.92505 -1.4416463 -1.1326818 -1.7468082
0000c0 0f 06 18 bf f9 92 b5 40 a9 3a 7f c0 c4 79 35 3e
       -0.59384245 5.674191 -3.9879553 0.17722231
0000d0 ea bb 91 40 f2 cc 11 40 e2 5e 30 c1 e1 c5 1d c1
       4.5541887 2.2781339 -11.023165 -9.86081
0000e0 7f 8a 8c 40 27 80 f6 bf 3e 28 11 c1 de c6 03 c1
       4.3919063 -1.9257859 -9.072325 -8.236052
0000f0 b9 89 34 3f ae 04 b4 c0 2b 72 2d c1 66 ef e3 3d
       0.7052265 -5.6255713 -10.840373 0.11129646

scale1.0.1.running_var f4 [64]
000000 78 ac 10 42 2c 8c 72 42 d3 52 02 41 4a 15 11 42
       36.168427 60.636887 8.145221 36.27079
000010 0b 8e 90 41 bf 17 bb 3f 06 5b 11 42 b2 c3 f5 41
       18.069357 1.4616622 36.33889 30.720554
000020 6b 1f df 41 19 c3 44 3f db 2f a2 41 ca a6 08 42
       27.89034 0.76860195 20.273367 34.16288
000030 4c 1d 39 40 29 a6 18 42 04 44 35 3f 2c 20 72 42
       2.8924131 38.162266 0.7080691 60.531418
000040 75 cc 08 42 db 88 3d 3f 5c dc 30 41 9a dc b4 3f
       34.199665 0.7403695 11.053799 1.4129822
000050 e2 95 14 42 fe 9d d6 41 37 36 6d 41 85 2b d8 41
       37.14637 26.827145 14.825736 27.02125
000060 a9 0e 80 41 a2 5b 13 42 ec 92 4d 41 85 67 eb 3f
       16.007158 36.839485 12.84837 1.8390967
000070 bf 93 67 42 7f 2a 29 40 60 a1 85 3f ca a2 0d 41
       57.894283 2.6432188 1.0439873 8.852243
000080 eb e7 31 42 a1 08 87 41 69 d3 c2 41 66 bb a8 41
       44.476482 16.879213 24.353228 21.091503
000090 16 64 5f 41 f9 48 de 3f f6 e1 49 3f 18 c1 98 41
       13.961935 1.736602 0.78860414 19.094284
0000a0 8f 39 f8 41 ae c6 9a 3f a4 d6 39 41 e3 c5 84 3f
       31.028105 1.2091882 11.6149025 1.037289
0000b0 a4 a2 35 42 1d 06 ba 41 10 fc 0b 42 bc 8a 9b 41
       45.40883 23.252985 34.996155 19.442741
0000c0 a8 e5 2b 3f 1d 9d c3 41 ce 07 09 42 ab 68 6e 41
       0.671473 24.451715 34.25762 14.900554
0000d0 ad e5 1c 42 b9 63 ad 41 f2 7e d9 41 64 b9 89 42
       39.224293 21.673693 27.186985 68.86209
0000e0 d3 3b 12 42 8b c5 67 42 de 1b 30 42 6f 67 c7 41
       36.558422 57.942913 44.027214 24.925505
0000f0 8a f6 60 40 e8 aa 0a 42 05 c6 cd 41 98 41 a3 3f
       3.5150476 34.6669 25.72169 1.2754393

scale1.1.0.weight f4 [64, 64, 3, 3]
000000 2b 56 69 bd d7 e7 99 bd 1e 24 a3 bd ef 30 3d 3c
       -0.05696694 -0.07514923 -0.07965873 0.011547311
000010 d2 57 0a 3a 84 83 86 bc 9e b8 90 3c e4 72 ea 3c
       0.00052773685 -0.016420133 0.017666157 0.028619237
000020 d6 37 2d 3d 95 db b6 bc e7 ea 05 bd b2 08 43 bc
       0.042289577 -0.022321502 -0.032694723 -0.011903929
000030 63 40 97 bc 83 ad 01 bd ef 7d cd bc 39 b3 e7 ba
       -0.01846332 -0.031659614 -0.025084464 -0.0017677314
000040 ef 74 71 bc 33 d2 34 bc b6 2c 89 3c 8e 10 41 bc
       -0.014737352 -0.0110364435 0.016744953 -0.011783732
000050 9c f3 51 bd a0 f6 b5 3c b6 df 1b 3d 0f f1 81 3c
       -0.051257715 0.022212327 0.038055144 0.015862016
000060 69 48 e3 3b 8a b7 7b 3d 6c f3 96 3d 1c 9b 1d b9
       0.006936122 0.061454333 0.07370648 -0.0001503047
000070 ea b9 94 bc 5a f9 4a bc 98 43 b5 3c 2a 4a a5 3c
       -0.018155057 -0.012388552 0.022126958 0.020176966
000080 46 30 ce 3c db 37 02 3d 45 c7 da 3c e9 53 63 3d
       0.025169503 0.03179155 0.026706347 0.055499945
000090 26 6c f4 3b 56 60 25 3d 76 81 2f 3d ab a5 52 bd
       0.0074591814 0.040375076 0.042848073 -0.051427525
0000a0 d7 01 27 bd 0b cc 99 bc b9 de 9f bc c2 29 4e bd
       -0.04077324 -0.018774053 -0.019515382 -0.050332792
0000b0 c4 f9 0e bd 08 92 ed bc dc 0c 5c bd 63 ad 87 bd
       -0.034906164 -0.029000297 -0.0537232 -0.06624868
0000c0 80 01 61 3d 35 05 e4 3d a4 18 12 3d a2 bc ca bc
       0.05493307 0.11133806 0.03566803 -0.02474815
0000d0 4c a8 3d bc a5 53 66 3d 65 65 47 bd 12 fd 64 bd
       -0.01157577 0.056232113 -0.04868068 -0.05590541
0000e0 fe cb 37 bd ff 91 ef bc 74 95 e6 bc 3a 4a 00 bd
       -0.044872276 -0.029244421 -0.028147437 -0.031320788
0000f0 21 96 0f bd a8 f5 0b bd d9 95 0f bd 5f e1 77 bd
       -0.035055283 -0.034169823 -0.035055015 -0.060517665
000100 16 87 aa bd e3 65 ae bd 8b 33 b8 3b db 2b bd bc
       -0.08326547 -0.08515527 0.005621379 -0.023092201
000110 31 6c 4e bd 5c aa e2 3c 90 1d b0 3c 62 f0 12 3c
       -0.050396148 0.027669124 0.021498471 0.008968445
000120 26 bd 32 bc 5a 3c 9c bb b4 47 ce 3c f8 10 3b bc
       -0.010909354 -0.0047679367 0.025180675 -0.01141762
000130 77 0d 34 bc 61 61 41 3c 0c b6 05 3c 33 53 af ba
       -0.010989538 0.011803002 0.008161079 -0.0013376236
000140 40 89 e2 3b 6e 49 86 bd 97 73 2d 3c a3 77 5d 3d
       0.006913334 -0.06556974 0.010586641 0.054069173
000150 b9 88 46 be c8 2d ad be 06 5b 3b be 67 b9 57 3e
       -0.19388093 -0.3382399 -0.18296441 0.21066819
000160 6a 43 3f 3e a8 e2 ae bb 38 0c cc bd 32 2f 08 be
       0.1867806 -0.005337078 -0.09963268 -0.13299254
000170 2d 31 03 be d8 53 66 bc e5 60 87 bc ff 22 82 bd
       -0.12811728 -0.014058076 -0.016525695 -0.06354331
000180 0b f8 e6 3b 73 6d 0b 3c 8c 25 1d 3c 62 8d 8c bb
       0.007048612 0.008509981 0.009591471 -0.004289315
000190 c7 c7 cd bc 20 20 67 bc ba ef 35 3c 5b 70 0c bb
       -0.025119675 -0.01410678 0.011104519 -0.0021429274
0001a0 e9 13 15 bb 3e c7 4a 3c f2 68 8a 3b 7f c2 63 3b
       -0.0022747463 0.012376605 0.0042239362 0.003475338
0001b0 3d 64 e4 bc 75 13 5b bc d4 2c 87 3d 76 fb bb bd
       -0.027879829 -0.013371338 0.06600347 -0.09178822
0001c0 d6 25 3e be cf 37 bf bd d4 46 a1 3d be a1 78 3c
       -0.18569121 -0.093368165 0.078748375 0.015175281
0001d0 8a 33 05 bd 0c 55 45 3d 8f 53 4e 3d 62 65 80 3d
       -0.032519855 0.04817681 0.050372656 0.06269337
0001e0 7b 82 1c 3c 10 df be 3b 98 75 b9 3c 04 19 a1 3b
       0.009552593 0.005824931 0.02263908 0.004916312
0001f0 36 80 83 bc fc 6e 89 bb ac 40 ad 3d e4 d5 65 3e
       -0.016052347 -0.0041941386 0.08459601 0.22444874
000200 d5 e1 43 3e 05 aa 3e be 7b f1 28 be 59 3b 90 3d
       0.19129117 -0.18619545 -0.16498367 0.0704257
000210 11 b7 29 3c 48 cd d4 bd d2 47 19 3d 5c 5e 7d bd
       0.010358588 -0.10390717 0.03742201 -0.061857566
000220 12 0f 97 bd 82 1d ba bd ca b4 51 bb ec 9e f2 bb
       -0.07375921 -0.090876594 -0.0031998628 -0.007404199
000230 2c 1d ef bc da d1 e2 3c dd 2c fb 3c 05 05 c7 3c
       -0.029188715 0.027687956 0.03066104 0.024294386
000240 72 10 4e bc 82 ad e1 bc c5 73 f3 bc f0 d7 7e 3c
       -0.012577163 -0.027548555 -0.02971829 0.015554413
000250 39 36 a9 3c 4a 04 1f 3c c4 50 72 3c 7e 3d fe 3c
       0.020655738 0.009705612 0.014789764 0.031035181
000260 a8 e3 50 3d 54 d8 18 bd 65 9c 04 3d 14 b7 a8 3d
       0.05099836 -0.03731568 0.032375712 0.082380444
000270 70 c0 1a be 76 05 83 be 87 96 8a bd cc f4 07 3e
       -0.15112472 -0.25590104 -0.06766992 0.13276976
000280 36 3b 9e 3d a1 ee a4 bc 48 03 24 3d b0 a9 29 3d
       0.07726137 -0.020133318 0.04004219 0.041421592
000290 f0 ac a3 3d 5f 9f 93 bd e0 23 f4 bd 08 56 2d bd
       0.079919696 -0.07208132 -0.11920905 -0.042318374
0002a0 6f 8d 2e 3d 1a 28 b2 bc 77 c5 39 bc f7 1d b2 bd
       0.04261535 -0.021747638 -0.011338583 -0.086971216
0002b0 9d 3d 17 be 34 fb bb bd e5 82 c9 3d 18 6b e4 3d
       -0.14769597 -0.091787726 0.09839419 0.11153239
0002c0 bb 09 53 3c 09 b4 03 bd cf b9 b1 bc 3f a3 82 3c
       0.012880738 -0.032154117 -0.021695046 0.015946982
0002d0 3b a0 38 3c 9a 50 e1 3c 37 fd 39 3d 96 62 2e bc
       0.011268671 0.027504254 0.0454075 -0.010643622
0002e0 1c fa 74 bc bc 21 67 3c fc d5 49 bc 4f 01 0c bd
       -0.014952209 0.014107164 -0.012319084 -0.034180935
0002f0 8f cf 72 bc 55 49 44 3d a4 06 5c 3d a2 d5 90 3d
       -0.014819994 0.047921497 0.05371727 0.07071997
000300 5f cb d7 bc 4c c8 fd bc c6 61 c0 3c 9a 92 e6 bc
       -0.026342092 -0.030979298 0.023484122 -0.028146077
000310 0a da 76 bd 85 fb a9 bc 8d 17 40 3c 9e 7d 22 3c
       -0.060266532 -0.020749817 0.011724365 0.009917645
000320 20 c6 65 3d 64 9a 7b bd 70 b4 ed bd bf 5e 53 bd
       0.05609715 -0.061426535 -0.11606681 -0.05160403
000330 29 f5 ac 3c 1c b2 f9 bc 18 ac 2a bd 03 90 38 bc
       0.021112995 -0.030480437 -0.041668028 -0.011264804
000340 12 21 dd bc 10 ff a0 bc cc 01 04 bb 46 90 34 bc
       -0.026993308 -0.019652873 -0.0020142673 -0.011020726
000350 ca d1 28 bc 34 ed 40 3a bd 27 6e 3b 4e 0c 58 3c
       -0.010303924 0.0007359565 0.0036339604 0.013186527
000360 fa c6 19 3d af 16 48 3d d9 4b b7 3d 52 81 67 bd
       0.037543274 0.048849758 0.08950014 -0.056519814
000370 6d d0 c1 bd 29 72 91 bc 8d 49 25 3d be f3 b8 ba
       -0.09463582 -0.017754631 0.040353347 -0.0014110727
000380 77 91 9a bb c5 dc 10 bc 19 f3 7a bc 32 f0 49 3a
       -0.004717048 -0.008841698 -0.015316748 0.00077033334
000390 9a bf 02 bc 2d a2 99 bb e0 f1 02 3b d0 a5 14 3b
       -0.007980252 -0.0046885223 0.0019980595 0.002268184
0003a0 4a a1 39 3c d9 20 aa 3c a1 60 06 bc 57 ca 75 bd
       0.011329958 0.020767616 -0.008201749 -0.06000742
0003b0 45 9e 5d bd 4f 6f 53 3d 97 a5 39 3d 3d f7 c9 3c
       -0.054106016 0.051619824 0.045323934 0.024654025
0003c0 bc 11 b8 3a 60 43 4c 3d 95 99 a6 3d c6 cf ce bd
       0.0014043371 0.04986894 0.08134762 -0.100982234
0003d0 ca 98 2f be d6 3b 02 be bc a4 ea 3d 8f 28 b8 3d
       -0.17148128 -0.12718138 0.11457202 0.08992111
0003e0 f4 6b c5 bc e1 3f f8 bb 52 66 64 bc 92 54 5b bc
       -0.024099328 -0.0075759743 -0.013940411 -0.013386862
0003f0 b6 e2 17 bd 86 c2 f7 bc 29 1d 29 bc fe ca 53 bc
       -0.037081443 -0.030244123 -0.010321894 -0.012926815

scale1.1.1.weight f4 [64]
000000 5a 59 83 3f dd 69 5b 3f 0f 5a 6d 3f 80 64 77 3f
       1.0261643 0.8570841 0.92715544 0.96637726
000010 ac 7b 76 3f a9 48 83 3f bc f9 73 3f 82 50 67 3f
       0.9628246 1.0256549 0.9530294 0.9035722
000020 f9 f3 71 3f 7b f2 63 3f f2 41 5f 3f 5f 50 66 3f
       0.945129 0.8904187 0.8721 0.89966387
000030 d5 62 69 3f d3 7c 5d 3f c7 cd 81 3f cd eb 69 3f
       0.9116643 0.8651859 1.0140923 0.9137543
000040 13 78 61 3f 0f 6c 32 3f 9d f3 70 3f 6b b1 77 3f
       0.88073844 0.69696134 0.94121724 0.96755093
000050 1c 50 64 3f e5 25 9e 3f be 27 6a 3f a1 81 9d 3f
       0.8918474 1.2355314 0.9146689 1.2305185
000060 b8 bc 6b 3f 64 8d 3b 3f 7d 15 60 3f 38 00 7d 3f
       0.92084837 0.7326262 0.8753279 0.9882846
000070 76 28 8e 3f b2 a1 6a 3f 27 ee 46 3f b3 97 8d 3f
       1.1106098 0.9165298 0.7770714 1.106192
000080 99 cd 5d 3f d8 5a 4b 3f 4a ee 7c 3f a8 6b 66 3f
       0.8664184 0.7943549 0.988011 0.9000802
000090 24 a2 9c 3f fc bc 63 3f df 52 70 3f e6 3c 54 3f
       1.2236981 0.8896024 0.9387645 0.82905424
0000a0 05 91 3e 3f b1 9a 3b 3f e7 4b 4e 3f 77 b7 87 3f
       0.7444003 0.73282915 0.8058457 1.0602864
0000b0 44 2e 8e 3f 80 26 90 3f 56 ad 90 3f 0f aa 6e 3f
       1.1107869 1.1261749 1.1302898 0.9322824
0000c0 24 43 41 3f d7 5b 60 3f be 77 64 3f 59 82 7a 3f
       0.75493073 0.87640136 0.8924521 0.97855145
0000d0 58 35 5f 3f 9b 5f 6d 3f 5e 20 61 3f 4e 48 70 3f
       0.8719077 0.9272401 0.87940013 0.9386033
0000e0 f8 17 5a 3f 88 d2 61 3f 4f ff 6a 3f e8 b8 4e 3f
       0.85192823 0.8821187 0.9179582 0.80750895
0000f0 2a 74 6f 3f 62 35 53 3f 56 a3 75 3f 96 d9 53 3f
       0.9353663 0.8250333 0.95952356 0.82753885

scale1.1.1.bias f4 [64]
000000 40 b1 46 3e 51 ec 00 3e ca a1 98 3d e5 97 9f 3d
       0.19403553 0.12590148 0.07452734 0.077926435
000010 db 81 23 bb 6f 74 43 3d 19 6a df 3c 20 42 b8 3d
       -0.0024949226 0.04771846 0.027272271 0.08996987
000020 c4 76 da 3d ee fd 89 3b 5e 49 20 3d b8 0d 24 3e
       0.10667184 0.004211179 0.03913247 0.16020858
000030 9f ca 49 3d 85 fb 80 3c 50 41 a1 3e d1 79 11 3e
       0.0492655 0.015744934 0.31495142 0.14206626
000040 83 55 a0 3c fb 57 f8 bd 8e 87 00 3a d2 4f 01 be
       0.019572025 -0.12126156 0.0004903012 -0.12628105
000050 c5 87 80 3d 65 dd 28 3e 7a 6c ae bd 7c 38 97 3e
       0.06275896 0.16490705 -0.08516784 0.29535282
000060 65 a7 43 3e 4e 3c 80 bd c5 05 7b bd 26 9f 77 3e
       0.19106825 -0.06261502 -0.0612848 0.24181804
000070 8c 33 b7 3d 05 ae d5 3d 7a 1d 95 bd 15 f0 0f 3e
       0.08945379 0.10433582 -0.07281013 0.14056428
000080 68 90 49 3e 78 c9 0d 3e b4 07 90 3e 72 40 d5 3e
       0.19683993 0.13846385 0.28130877 0.4165073
000090 15 f0 8d 3d bd 2d 54 3e 64 42 2a 3e 94 37 94 bd
       0.06930558 0.20720573 0.16626889 -0.07237163
0000a0 cd 3c 29 3d f3 c2 b2 bd 73 0a c3 3d 13 8b ba 3e
       0.04131775 -0.0872859 0.095234774 0.3643423
0000b0 dd e4 89 3e 39 5e 3d 3e 82 47 38 3e ad d0 0c 3d
       0.2693242 0.18492974 0.17996028 0.034378696
0000c0 37 04 77 bd 07 2d 2d 3e ea 9e b8 3d 6d 18 96 bc
       -0.060306754 0.16911708 0.090146855 -0.018322194
0000d0 5d 2b c2 bc 07 be 1a bc 4c 63 8a 3e e7 6b 02 3e
       -0.023702318 -0.00944472 0.27028883 0.12736474
0000e0 5b 10 da bb ce b4 cb 3d d3 ab 34 3e c7 ed 37 bd
       -0.0066547818 0.09946595 0.1764367 -0.044904497
0000f0 d0 0a 66 3d 26 74 d2 3d 8f ea 51 bd 05 46 0a 3d
       0.056162655 0.1027606 -0.051249083 0.033758182

scale1.1.1.running_mean f4 [64]
000000 6d 44 b2 bf a6 e1 ee c0 5d cd ce 3e 14 20 c7 3e
       -1.3927132 -7.465045 0.40391055 0.3889166
000010 18 b6 66 bf 4c 5c 16 c0 1b 88 a7 3f d9 87 21 c1
       -0.90121603 -2.3493834 1.3088411 -10.095666
000020 a1 d1 dd 3f 5c 75 53 3f 0a 8d b6 c0 30 50 b3 c0
       1.7329599 0.8260095 -5.7047167 -5.6035385
000030 1b b1 88 3f bd 60 bf c0 10 72 af be 60 75 a4 c0
       1.0679048 -5.980559 -0.3426671 -5.139328
000040 8b a4 88 bf 55 74 a0 c0 cd 1b 7e 3f c8 67 12 41
       -1.0675215 -5.0142007 0.9926117 9.150337
000050 e6 50 d9 3f 53 c9 b3 be b1 69 55 40 73 07 4e 3e
       1.6977813 -0.35114536 3.334576 0.20120029
000060 ec f4 06 c1 4c 4e 22 c1 ad 0b f0 40 10 6f 49 c0
       -8.434795 -10.144115 7.5014253 -3.1474037
000070 6f 1b dc be 6c 18 07 c1 aa ee f5 3f fd 2e d9 3e
       -0.4298968 -8.443462 1.921346 0.42418662
000080 5e 9c e7 c0 87 36 d9 c0 94 30 fe c0 f4 0f ea c0
       -7.237838 -6.787906 -7.94343 -7.3144474
000090 87 97 04 3f be f1 de c0 28 f8 f1 c0 ea df ad 40
       0.5179371 -6.9670095 -7.5615425 5.4335833
0000a0 8e e7 cb bf 6c 10 eb bf c7 f1 10 c1 cf 64 97 bf
       -1.593004 -1.8364387 -9.059028 -1.1827639
0000b0 ae f7 8d 3f c7 d8 7c 3e 47 58 9e be 93 be b3 3f
       1.1091211 0.24692069 -0.30926725 1.4042534
0000c0 4b 04 22 c1 50 58 8c c0 a7 9e b4 c0 91 9c 0b c0
       -10.126048 -4.3857803 -5.6443667 -2.181431
0000d0 f9 19 52 be 1c c2 0c bf 5b 0e 22 c1 f5 9a 01 bf
       -0.2051772 -0.5498369 -10.128505 -0.5062707
0000e0 48 b2 a2 c0 fa aa c3 c0 d9 08 c0 c0 34 0f 98 c0
       -5.084263 -6.114621 -6.00108 -4.751856
0000f0 8f 76 4a 3f 52 39 ae c0 e2 a5 5a 40 de 7b ab bf
       0.79087156 -5.444497 3.4163747 -1.3397176

scale1.1.1.running_var f4 [64]
000000 2a 69 a5 40 d9 b6 42 42 ef 0e b3 40 eb 74 ea 41
       5.1690874 48.678562 5.595573 29.307089
000010 1c 5d 14 42 fc 18 50 40 5e 79 16 42 dd 1c 2f 42
       37.090927 3.251525 37.618523 43.778187
000020 ba 67 1d 42 5e 1c b4 41 32 65 26 42 93 4a 4a 42
       39.351295 22.513851 41.598824 50.572826
000030 ec 45 3a 41 a2 89 47 42 bb df 99 40 8e 25 b6 41
       11.642071 49.884407 4.808561 22.768337
000040 ff 13 d3 41 fa 94 37 42 34 da 09 42 98 08 02 42
       26.384764 45.895485 34.46309 32.508392
000050 4a c0 1a 42 e8 a5 f0 40 ac e1 c4 41 e7 cc f3 40
       38.687782 7.520252 24.610191 7.6187625
000060 ac 45 99 41 97 16 fe 41 03 42 b1 41 08 cf 54 41
       19.15902 31.76103 22.157232 13.300545
000070 53 c2 bd 40 2c d4 14 42 12 82 20 42 77 48 cb 40
       5.929971 37.2072 40.12702 6.352596
000080 f3 de c4 41 b0 c1 0e 42 0f ae b5 41 7d 34 ab 41
       24.608862 35.689148 22.70999 21.400629
000090 c5 0f cd 40 bd 5f 9d 41 5d e2 90 41 b2 d4 0f 42
       6.408175 19.671747 18.110529 35.95771
0000a0 d7 28 fd 41 3e 4a 37 42 55 ce 5e 41 b1 05 e1 40
       31.644941 45.822502 13.925374 7.0319448
0000b0 6a 9a f7 40 b6 20 75 40 8d b0 de 40 e1 da 9b 41
       7.7375994 3.8301215 6.9590516 19.481874
0000c0 d0 55 1d 42 87 b1 23 42 33 a2 91 41 37 29 fe 40
       39.3338 40.923367 18.204199 7.942531
0000d0 9e f6 3d 42 ba e6 90 41 6e 52 99 41 90 2b 0c 42
       47.490837 18.11266 19.165249 35.04254
0000e0 2d cc 2e 41 23 ab db 41 48 c7 c8 41 b6 e6 8d 41
       10.924848 27.458563 25.097305 17.737652
0000f0 39 02 28 42 17 a0 5d 41 6f 82 0b 42 fb 66 10 42
       42.00217 13.851584 34.877377 36.100567

scale2.1.0.weight f4 [64, 64, 3, 3]
000000 71 20 5c bd 35 96 ce bc 46 22 0b 3c 54 90 00 bc
       -0.053741876 -0.025218109 0.008492058 -0.0078469105
000010 bb 57 2d 3d 87 b0 a8 3d 44 2b 1f be 64 29 df bd
       0.042319994 0.08236795 -0.15543848 -0.108965665
000020 13 3a a1 bd e8 44 f8 3b 96 70 3c 3b 00 94 ae 3b
       -0.07872405 0.0075765736 0.002875363 0.0053277016
000030 fb 65 92 bd 8c 8b e5 bd f1 fb d4 bd 84 68 38 bd
       -0.071483575 -0.11208257 -0.103996165 -0.04502155
000040 ba 8e c5 bd 66 3d d5 bd de 12 ad 3d a7 96 c3 3d
       -0.096463636 -0.104121014 0.08450864 0.09550219
000050 7f 92 9c 3c ed ed 5c bd 57 12 30 bd 3c 26 d8 bd
       0.019112824 -0.05393784 -0.04298624 -0.10554168
000060 ab a5 e3 bd be c0 7c bd 77 24 dc bd 3e f0 1c 3d
       -0.11115583 -0.06170725 -0.107491426 0.03831505
000070 a0 f7 2e 3d 55 b8 2b 3d 53 df 36 3d 69 a8 ab 3c
       0.042716622 0.04192384 0.044646572 0.020954328
000080 77 28 9a 3b a4 1f d6 3c 50 8e 2d bc 73 9d 21 bd
       0.004704531 0.026138134 -0.010593012 -0.039456796
000090 57 91 91 bd a0 cf 0d bd c6 ff 0a bd bc 73 9b bd
       -0.071077995 -0.034621835 -0.03393533 -0.07590434
0000a0 71 c7 c1 bd 54 8c c6 bd 9f 01 b1 bc 35 b2 24 bd
       -0.094618686 -0.09694734 -0.021607218 -0.040209014
0000b0 45 a2 8b bd 8a 6d a5 3d 57 2f f9 3d 40 5c c2 3d
       -0.0681806 0.080775335 0.121672325 0.094902515
0000c0 f8 c8 15 bd bd 73 c6 bc 70 3e f6 bc 17 eb e2 bc
       -0.03656861 -0.02422511 -0.03005907 -0.02769999
0000d0 93 5b bc 3c e2 ef 62 bc 6f ce 72 3d 21 2c 9e 3c
       0.022992885 -0.013851138 0.0592789 0.019308152
0000e0 75 3e 08 bc e3 1e 48 3d fb 0e a9 bc 8a 75 2d bd
       -0.008315672 0.04885758 -0.020637026 -0.042348422
0000f0 b6 bc ca 3b fa 3d 72 bd 5f 4c 8d bd d1 2a a6 3c
       0.006187047 -0.059141137 -0.06899332 0.020284088
000100 fd 37 9f 3c d5 af 7d bb 79 77 df ba 99 dc 89 bc
       0.019435877 -0.003870954 -0.0017049155 -0.016828822
000110 48 18 16 bd 81 8e 21 bd 5a 0c 28 bd 79 64 92 bd
       -0.03664425 -0.039442543 -0.041027404 -0.0714807
000120 57 02 40 bc e6 36 a3 bc 91 e3 51 bd 06 47 6f 3c
       -0.011719308 -0.019923639 -0.051242415 0.014604336
000130 4f 85 62 3a 38 77 c1 bc 69 26 a6 3c d2 b8 00 3c
       0.00086410803 -0.023616418 0.020281987 0.007856565
000140 32 88 c8 bc 49 ff 16 bd e1 a0 0d bd aa 1a b5 bd
       -0.024479005 -0.036864553 -0.034577254 -0.088429764
000150 48 70 59 bb a2 c2 99 bc cc 3e 92 bd 11 39 4d bc
       -0.0033178497 -0.018769566 -0.07140884 -0.012525813
000160 40 55 bd bc 6c b8 96 bd 54 86 50 3b c5 3b e8 39
       -0.02311194 -0.073593944 0.0031818347 0.0004429502
000170 2a 18 1a bd 92 92 1a bd af 04 45 bd 07 ff be bd
       -0.0376207 -0.037737437 -0.04810017 -0.09325986
000180 c3 5b 97 bd f4 49 97 bd 59 fb f3 bd e7 9f 4d bb
       -0.07390549 -0.07387152 -0.11913175 -0.0031375827
000190 cb c2 8e 3c d1 7e f1 3c bf 26 92 bd eb 57 08 be
       0.017426869 0.029479416 -0.071362965 -0.13314788
0001a0 bc 9c d2 bd 13 bc 23 3d 73 83 41 bd 65 69 81 bd
       -0.10283801 0.039974283 -0.0472445 -0.063189305
0001b0 06 3a 97 3c 8e 5f 49 3d f8 32 c3 3c bf 37 e0 bc
       0.018460285 0.049163394 0.023828015 -0.027370332
0001c0 ed 8a 7b 39 2a 03 2d bc c7 d7 2f bd 58 92 64 bc
       0.00023988979 -0.010559836 -0.04293039 -0.013950907
0001d0 08 54 4a bd 19 94 8b bc 59 84 16 3b 0b 1c 6d bc
       -0.049396545 -0.017038392 0.002296707 -0.014472018
0001e0 f4 4e cf 3c e8 a4 19 3d e5 e6 0b 3d 92 39 08 bd
       0.025306202 0.037510782 0.034155745 -0.03325803
0001f0 fb 8d 7a 3b 14 aa cc 3b 65 17 8e bd ae dc b5 3b
       0.00382316 0.006245861 -0.06938056 0.0055499887
000200 93 fb 2e 3d 74 d0 be bc 64 54 ce ba 62 8f d3 bb
       0.04272039 -0.023292758 -0.0015741703 -0.0064563015
000210 8a 5b db 3d 56 7e f8 3d 8f 3b 7c bc 7a 40 2a 3d
       0.10710819 0.12133472 -0.015395059 0.041565396
000220 91 36 25 3d 98 63 8e 3d 06 7e 9f 3c b1 e8 41 bd
       0.04033524 0.0695259 0.019469272 -0.047341052
000230 51 54 b4 bc b1 70 bd 3d e7 7e ad 3c d0 ca e3 3b
       -0.022012861 0.0925001 0.021178676 0.0069516674
000240 84 64 49 bd 40 9a 48 3c 9d 62 8c 3c 0e 47 ac bd
       -0.049168125 0.012243807 0.017136866 -0.0841199
000250 f4 40 49 bd 91 60 12 bd d8 f3 68 bd 9c b7 72 bd
       -0.04913421 -0.035736624 -0.056873173 -0.059257135
000260 ed 46 8c bd 31 ce d7 3a 96 ad 35 bb e2 7c ad bc
       -0.068494655 0.0016464648 -0.0027721873 -0.021177713
000270 bb a2 1d 3d 1c ae b4 3c 75 14 c0 3c ad b3 82 3c
       0.03848527 0.022055678 0.023447255 0.015954817
000280 2c 7f 44 ba 87 3e 58 3c ce bf 1f 3d 43 74 18 3d
       -0.0007495757 0.013198501 0.03900128 0.03722025
000290 f1 db df 3c 29 24 00 bc b4 42 53 bc fd f9 f6 bb
       0.027326556 -0.007821121 -0.012894321 -0.007537125
0002a0 37 03 6f bd 64 22 51 bd e2 3c 37 bd b8 ac 05 bd
       -0.058352675 -0.051058188 -0.044735797 -0.03263542
0002b0 a7 eb d1 3b 6a b6 ea 3c 88 ce ed bc 47 5f 69 bc
       0.006406266 0.028651435 -0.029029146 -0.014243907
0002c0 19 25 8d 3b 8b c5 cc 3c 84 0e ea 3b 72 6d 3f 3b
       0.004307401 0.02499654 0.0071428437 0.0029209522
0002d0 a6 f7 49 3c 2f 64 f6 bb 90 54 21 bd e1 20 7e bc
       0.01232711 -0.007519267 -0.039387286 -0.015510769
0002e0 a3 3e 2c bd 43 ba 82 bd 33 11 3b bd a1 0e 88 bd
       -0.042051923 -0.06383183 -0.0456707 -0.06643415
0002f0 e7 d8 a4 bd b2 1b 87 3d 84 b7 c7 3d 03 9f 76 bc
       -0.08049183 0.06597079 0.097518 -0.01505256
000300 43 fc c9 bd bb cd 06 be 58 b7 2f be 32 a3 f9 bd
       -0.09862568 -0.13164417 -0.17159784 -0.1218933
000310 f1 e8 5e be 79 66 88 be 62 2b 53 3d 0e 69 80 3d
       -0.21768548 -0.2664068 0.051555045 0.062700376
000320 0a c9 ec 3c cc fc b1 3c 2e 33 08 3d c2 fa 09 3d
       0.028904457 0.021726988 0.033251934 0.033686407
000330 37 3d d7 bb cc be 68 3c b4 6d 38 3c ea 69 78 3c
       -0.0065685767 0.014205646 0.011256624 0.015161971
000340 7e 0c 97 3b c1 31 5a bc b4 67 2e bd 67 c2 ab bb
       0.0046096435 -0.013317526 -0.042579368 -0.0052416804
000350 fe 43 4c 3c 0f fb 48 be a9 7d 44 be a2 7f d4 bd
       0.0124673825 -0.19627021 -0.1918856 -0.103759065
000360 ea f2 a5 bc 0b 3c cf 3c cb 15 f4 bc 3c b7 cf 3d
       -0.020257432 0.025297185 -0.029795548 0.10142371
000370 77 c4 fb 3d 4d 72 96 3d 31 25 71 3d 16 e2 a8 3d
       0.12293332 0.0734602 0.05887336 0.082462475
000380 5f 55 36 3d ce 4c 71 bd 2c ca 6f bd c3 90 a3 bd
       0.04451501 -0.058911137 -0.058542415 -0.079865955
000390 17 f9 86 3a cb 70 38 ba 6e 1c 10 bc 74 df 5a bc
       0.0010297623 -0.00070358504 -0.008795841 -0.013358939
0003a0 fb 48 d0 bb 59 55 e4 3a 63 e6 08 bd 00 8d b6 bb
       -0.006356356 0.0017420455 -0.03342284 -0.0055710077
0003b0 d8 1e e6 bc d6 9e bf bc b3 77 b5 ba 80 c5 de 3b
       -0.02809088 -0.023391169 -0.0013844877 0.006798446
0003c0 69 66 30 bd 76 4f ae bb 72 18 2e bb 73 33 c5 bd
       -0.043066416 -0.005319531 -0.0026564864 -0.09628954
0003d0 7b d5 6c bd 8c 4b 97 3b 86 bf 3b bd 12 6f 31 be
       -0.05782078 0.00461716 -0.045836948 -0.17327526
0003e0 6c 97 0e be d7 34 ba 3d e5 fd a9 3c 24 02 d8 bd
       -0.1392495 0.0909211 0.02075095 -0.10547283
0003f0 72 6e 14 bc 52 70 37 bc 8a d9 87 3c ff e8 80 bc
       -0.009059535 -0.011196213 0.016583223 -0.015736101

scale2.1.1.weight f4 [64]
000000 cf fa 73 3f 5d d0 84 3f 25 27 83 3f 5c 58 81 3f
       0.9530458 1.0376087 1.0246321 1.010509
000010 bd c1 8b 3f e4 e8 8b 3f ea 86 80 3f 0f f2 93 3f
       1.0918499 1.0930448 1.0041173 1.1558245
000020 ad 72 7a 3f 05 f0 9c 3f 7d 5b 8d 3f 84 94 8f 3f
       0.9783123 1.2260748 1.1043545 1.1217198
000030 69 b0 4d 3f de 5a 86 3f 22 cd 8a 3f fe 63 79 3f
       0.80347306 1.049648 1.0843852 0.974182
000040 80 1d 99 3f a9 9a 96 3f 53 50 73 3f 19 73 83 3f
       1.1962128 1.1765949 0.9504444 1.02695
000050 83 c6 7b 3f bb ec 87 3f 0e ec 5b 3f 47 0c 69 3f
       0.9834978 1.061912 0.85907066 0.9103436
000060 63 aa 6a 3f c4 6c 50 3f 63 33 52 3f 0b d6 95 3f
       0.9166624 0.81415963 0.8210966 1.1705946
000070 5d 10 87 3f 1b 91 94 3f e8 f9 78 3f 51 b8 95 3f
       1.0551869 1.1606783 0.97256327 1.1696874
000080 c7 71 62 3f 2b e7 90 3f 10 06 81 3f 77 a0 80 3f
       0.8845486 1.1320547 1.0079975 1.004897
000090 59 4f 92 3f 15 88 7e 3f 8b 48 66 3f c5 6c 6e 3f
       1.1430465 0.99426395 0.8995444 0.9313472
0000a0 89 36 6e 3f f5 72 58 3f 87 2d 85 3f dc b3 7b 3f
       0.93051964 0.8455041 1.0404519 0.9832132
0000b0 0e 1d 59 3f 76 0e 69 3f 91 50 87 3f 84 85 92 3f
       0.8480996 0.9103769 1.0571462 1.1446996
0000c0 74 68 96 3f 34 96 51 3f 31 f6 7a 3f d0 ec 88 3f
       1.1750627 0.81869817 0.9803191 1.069727
0000d0 89 4d 77 3f 22 f4 8b 3f 96 b5 7c 3f 14 28 70 3f
       0.96602684 1.0933878 0.9871458 0.93811154
0000e0 0b 2c 87 3f d6 c8 6b 3f 0f 72 84 3f 8f b6 84 3f
       1.0560316 0.92103326 1.0347308 1.0368212
0000f0 51 fd 82 3f 42 2f 91 3f 0f d0 76 3f 73 7a 5e 3f
       1.0233556 1.1342547 0.9641122 0.8690559

scale2.1.1.bias f4 [64]
000000 c1 79 0b be ab 5b 92 bd f9 6d 70 3e 9b fc df 3d
       -0.13620664 -0.071463905 0.23479451 0.109368525
000010 a7 78 42 3e fb f4 41 bd 41 58 04 3e 94 4a 90 3e
       0.18991338 -0.047352772 0.12924291 0.281819
000020 e6 5d b0 bc 4a c6 fe bc fd e6 a0 bd e6 6f 8c bd
       -0.02152915 -0.031100411 -0.078565575 -0.068572804
000030 ec 2b 17 be e2 65 02 3e 3b 84 8a 3d 20 46 2c bd
       -0.14762849 0.12734178 0.06763502 -0.042059064
000040 4d a9 95 bc 08 7d 4c 3d 90 8c a7 bd 4f 0a fe 3c
       -0.018269205 0.049923927 -0.08181107 0.031010775
000050 c9 05 00 3e d3 1d 11 3e a3 34 98 bd 0f 65 a5 bd
       0.12502207 0.14171533 -0.07431915 -0.08075916
000060 12 5c 49 3d c2 f3 03 be 26 9b 2e be 93 d6 57 3d
       0.04916007 -0.12885955 -0.17051372 0.05269487
000070 51 9a 12 3e d0 ca 9a bd 8e 22 bd 3d 0a 2e 54 3c
       0.1431668 -0.07558215 0.092351064 0.01295043
000080 02 26 ee 3d e1 f2 92 3d 86 8d f3 3d e4 3a fe 3d
       0.11628343 0.07175232 0.11892228 0.12413576
000090 71 59 8a 3d 6a c6 c6 3c 78 d7 2d be f5 56 ca bc
       0.06755341 0.024264533 -0.16976726 -0.024699667
0000a0 57 c1 9e 3d ac 14 ab 3c d9 55 a7 3d 07 f1 04 3d
       0.077517204 0.02088388 0.08170671 0.032456424
0000b0 83 35 69 bd 63 21 c0 bc 6c e4 90 3d 24 03 57 bd
       -0.0569358 -0.02345342 0.07074818 -0.05249323
0000c0 43 74 36 3d db 5d ca bd 83 13 d3 3c f0 86 ea bc
       0.04454447 -0.09881183 0.02576614 -0.028628796
0000d0 d3 71 5d bc aa 10 4b 3d 3f da 73 3d 3a 15 da bd
       -0.013515907 0.04957644 0.059534308 -0.1064858
0000e0 6c 07 92 3e d6 3a ac bd 34 6c 52 bd f0 7b 9a bd
       0.28521287 -0.084096596 -0.05137272 -0.075431705
0000f0 e7 24 2a bc 54 5e bb 3d 29 d8 eb bb c5 2c 25 3c
       -0.010384775 0.09148851 -0.007197399 0.010081475

scale2.1.1.running_mean f4 [64]
000000 c7 81 ea c0 a8 d1 12 c1 c6 82 bb bf 2d 1b 08 c1
       -7.328342 -9.176186 -1.4649284 -8.506635
000010 9b 06 dc c0 df 60 03 c1 04 7f b8 c0 98 62 8f c0
       -6.8758063 -8.21115 -5.765505 -4.4807854
000020 26 41 02 c0 2b 60 08 c0 39 d4 0b c1 4c 09 fb c0
       -2.0352263 -2.1308696 -8.739312 -7.844885
000030 d1 fd 28 3e 42 d7 a4 c0 18 c5 db bf 09 5b 8e c0
       0.16503073 -5.1512766 -1.7169523 -4.4486127
000040 e8 a7 42 c0 04 c3 8d c0 ac 8e 98 c0 98 37 a7 c0
       -3.0414982 -4.4300556 -4.767416 -5.2255363
000050 d4 0d da c0 d6 28 2f bf e6 9a fe 40 93 4a 0c 40
       -6.814188 -0.68421686 7.9564085 2.1920516
000060 4d bb ec bf 88 84 4d bf 81 ed 46 bf e4 f9 f4 bf
       -1.849466 -0.8028035 -0.7770615 -1.913876
000070 95 c2 08 c1 e1 a9 f9 c0 d0 9d 2a c0 13 15 46 c0
       -8.547505 -7.801987 -2.665882 -3.0950363
000080 5d 72 a9 40 6c 93 8a c0 c2 38 1e c0 5e 71 a4 c0
       5.2952104 -4.330496 -2.4722142 -5.138839
000090 c3 cc 66 c0 9c e5 b2 3f 50 f0 c1 3f 7d 03 7d 40
       -3.6062477 1.3976321 1.5151463 3.953338
0000a0 25 50 6e 3f 15 d0 fe 3f c5 a6 38 c0 50 45 06 c1
       0.9309104 1.9907252 -2.8851788 -8.391922
0000b0 0d 26 11 3f da 21 1b 41 9a 24 93 c0 4f cb 35 c1
       0.56698686 9.695765 -4.598218 -11.362136
0000c0 ed e7 d9 c0 86 93 09 c0 39 97 04 3f c4 a0 45 40
       -6.8095613 -2.149629 0.5179325 3.0879374
0000d0 9e 44 79 3e 02 b1 84 c0 c0 65 1f c1 68 91 ac c0
       0.24342582 -4.1466074 -9.962341 -5.39275
0000e0 ef 22 b7 c0 56 8b 95 40 ad 12 a2 3f e6 25 1c c1
       -5.7230144 4.673259 1.2661949 -9.759253
0000f0 04 ac 00 c1 83 8e 14 c0 0d a7 97 40 4f 35 75 40
       -8.041996 -2.3211982 4.739142 3.8313787

scale2.1.1.running_var f4 [64]
000000 f0 a6 7c 41 22 36 0d 42 8b b4 8a 40 19 a2 6c 41
       15.790756 35.302864 4.334539 14.789575
000010 6d cb 1a 41 da be 3f 41 9b 63 4f 41 ab 30 fa 40
       9.6746645 11.984095 12.961818 7.818441
000020 ec b4 0d 41 f8 c3 c6 40 c9 7b ed 41 16 a1 cf 41
       8.85667 6.211422 29.685442 25.953655
000030 43 bd 9c 41 06 41 78 41 54 1c aa 40 d3 ef 25 41
       19.592413 15.515875 5.315958 10.371051
000040 12 7f 0c 41 b9 3d f2 40 11 90 3a 41 45 d8 32 41
       8.781023 7.5700345 11.660172 11.1778
000050 4f e7 20 41 ae 57 d3 40 22 19 40 41 31 d7 b2 40
       10.056472 6.604453 12.006136 5.5887685
000060 28 e2 11 41 b7 8c 25 41 8a d3 87 41 87 29 c1 40
       9.117714 10.346854 16.97829 6.0363193
000070 de 87 a9 40 a9 b8 17 42 45 40 c8 40 d3 04 1e 41
       5.2978354 37.930332 6.2578454 9.876178
000080 44 09 8e 40 35 e0 04 41 ec bf ed 40 07 87 64 41
       4.438631 8.304738 7.429678 14.282966
000090 ee cb 38 41 8d ac ba 40 12 94 9c 40 86 be 90 41
       11.5497875 5.8335633 4.893075 18.093029
0000a0 10 45 24 41 3d 98 06 40 dd 7c db 40 be d4 90 41
       10.266861 2.103042 6.858992 18.103878
0000b0 1c 2f 01 41 0a c5 8d 41 bd 79 9a 41 c1 42 2e 42
       8.074001 17.72121 19.309443 43.56519
0000c0 d0 83 07 41 93 ad 46 42 76 80 c9 40 38 e6 83 40
       8.469681 49.669506 6.2969313 4.121853
0000d0 e1 62 10 41 97 f2 3c 41 36 22 c5 41 85 c0 89 41
       9.02414 11.809226 24.641705 17.219004
0000e0 04 5d 8f 40 ec 8d 98 40 11 87 ba 40 f1 3b ad 41
       4.4801044 4.7673244 5.8289876 21.654268
0000f0 94 26 af 41 1a 5c d4 40 e6 0e 3c 41 77 ad 80 41
       21.893837 6.636243 11.753637 16.0847

scale2.2.0.weight f4 [64, 64, 3, 3]
000000 f6 4b 30 3d d6 8d 1c bd ed e9 3d bb 48 12 9a 3d
       0.043041192 -0.038221203 -0.0028978542 0.07523018
000010 f9 82 0c 38 f2 0b e7 bb b1 3a 79 3d 1e 58 29 3b
       3.350058e-05 -0.0070509845 0.060846988 0.0025839875
000020 1a 25 93 bc 48 43 4a 3d 08 0d b7 3c 8c 5a fa bc
       -0.017962027 0.04938057 0.022345081 -0.030560754
000030 43 55 94 3d f4 90 cd 3c 28 c9 43 bd 7d 04 d8 3d
       0.07242825 0.025093533 -0.04779926 0.10547731
000040 b4 ea 88 3d 10 99 d0 bc a4 ff 0e 3c e3 3c d2 bc
       0.06685391 -0.02546361 0.008727942 -0.025663799
000050 d7 dc bc bd 24 ce 82 3d 48 d8 8a 3d ca 0c 83 bc
       -0.09221809 0.063869745 0.067795336 -0.01599731
000060 49 7c f2 3d c3 80 14 3e 71 7f 49 3d bd f5 92 3b
       0.11840112 0.14502244 0.049193803 0.0044848607
000070 76 21 de bc 68 5b bb bc a3 ac e4 3c 3c 90 ed bc
       -0.027115565 -0.022870734 0.02791435 -0.02899944
000080 32 d2 c0 bb f6 ef b1 3c 12 db 16 bd 5e cf 11 bd
       -0.0058844322 0.021720868 -0.036830015 -0.03559815
000090 1a c1 89 bd 6b 7b 02 bd 1a 4e ac bd 3f ac 9d bd
       -0.06726284 -0.03185598 -0.08413334 -0.07698869
0000a0 f6 79 94 bc 09 92 60 bd da f4 f2 bd 09 45 db bd
       -0.018124562 -0.05482677 -0.11863108 -0.10706527
0000b0 18 13 20 be 3d ba 37 bd 96 13 d2 bd 12 15 c0 3c
       -0.15632284 -0.044855345 -0.10257642 0.023447547
0000c0 93 4a 03 bd f9 7b 3a bd cb 37 c7 3c d4 5c e6 bb
       -0.03205354 -0.045528386 0.024318596 -0.007030109
0000d0 fc aa 33 bc a4 5b 47 3d eb 94 af 3c 62 26 36 bd
       -0.010966059 0.04867138 0.021433314 -0.0444702
0000e0 40 17 85 bd 1e cd 9f 39 fd 5f 45 bc 9f 0a 85 bd
       -0.06498575 0.00030479667 -0.012046811 -0.064961664
0000f0 23 eb 85 3c 5c 08 2d 3d 0f ee 13 bd d6 0e da bb
       0.016347473 0.0422443 -0.036115702 -0.0066546006
000100 4b e6 a8 3b a2 d0 1a bd 5b dc e9 3c 19 4e a1 3d
       0.005154406 -0.037796624 0.028547456 0.07876224
000110 0e a1 4b 3d b0 57 8e bc 7c a5 33 3c bf e3 02 3d
       0.04971414 -0.017375797 0.0109647475 0.031955477
000120 cc 37 82 bd 0d ea 56 bd 16 9c 99 3c 6a cf c7 bc
       -0.06358299 -0.052469302 0.018751185 -0.024390895
000130 41 8e e6 bc a9 83 08 3d 38 2a 05 3c 5c fd 03 bd
       -0.028144004 0.033328686 0.0081277415 -0.032224044
000140 83 70 3f bc 7e 53 bb 3d 90 6d 9d 3d 15 7b c1 bd
       -0.01168454 0.09146784 0.07686913 -0.09447304
000150 e5 b2 4d 3d ad ea c9 3b bd 57 c8 bd 5a fc 4e 3d
       0.050219435 0.0061620087 -0.0978236 0.05053363
000160 74 f8 46 bc 6c 3a ac bd 1e d9 ac bd 4c e9 28 be
       -0.012144197 -0.084095806 -0.08439849 -0.16495246
000170 46 ab bc 3c d5 07 85 bd cb a3 dd bd 26 a3 08 3d
       0.023030888 -0.064956345 -0.10822257 0.033358715
000180 13 85 19 bd 13 a7 c1 bd 60 45 45 3d 3a bb ae bc
       -0.037480425 -0.09455695 0.048161864 -0.021329511
000190 73 5f ca bd c2 7f 5b bd b5 49 3e 3c 06 b9 8c bd
       -0.09881487 -0.053588636 0.011614253 -0.06871228
0001a0 70 12 3c bd 9d 9d 07 3d af 3c 96 bc 7f 9e bb bc
       -0.04591602 0.033109296 -0.018339483 -0.022902725
0001b0 87 87 20 bd 94 19 b7 bb 62 f6 4e bd 36 9d ec bc
       -0.03919175 -0.005587766 -0.050527938 -0.028883558
0001c0 44 75 47 3c d0 a5 40 bc ce 0f 33 3c ea 0c 41 3d
       0.012173954 -0.011758283 0.010929061 0.047131456
0001d0 3f 40 47 3c b4 bb 15 bb af c6 d6 bc 71 6f 9b bd
       0.012161314 -0.0022847475 -0.026217787 -0.07589615
0001e0 b0 15 ed 3c 6c 0f 5b bc 75 85 3e bd 8f e9 b3 3c
       0.028941005 -0.013370376 -0.046513993 0.021961955
0001f0 2f 36 1a 3c 61 dd 18 bc 8d d2 e1 bd 9e db 12 be
       0.009412332 -0.009330125 -0.110264875 -0.1434159
000200 9b fb 7d bd 69 42 c9 bd eb 15 04 be b0 a8 1b bd
       -0.062007528 -0.0982712 -0.12898986 -0.03800267
000210 38 fa b7 bd 7f 63 0f be 6b e9 86 bd 9a 1c c4 3d
       -0.08983272 -0.14002798 -0.0658749 0.09575768
000220 71 bc 01 3d e0 5a c8 3a 0c a7 db 3d a7 7f 46 3d
       0.031673852 0.0015285872 0.10725221 0.048461583
000230 dc d0 d7 3b bb 84 8f 3d af 72 0a bd 37 fb b5 bd
       0.0065861773 0.07007738 -0.033800777 -0.08885806
000240 fc b7 2f bd bd 04 93 bd ef 39 0f bd cf 94 1e 3c
       -0.04290007 -0.07178638 -0.03496736 0.009679033
000250 18 89 de bc 56 4c 93 3c 40 d5 f2 3c 1e df f6 bc
       -0.02716498 0.017980736 0.029642701 -0.030135687
000260 a1 43 9f bd 81 d5 56 3d 5c 19 45 bb df 9a ec bc
       -0.07776571 0.052449707 -0.003007493 -0.028882442
000270 94 84 c8 3b c3 97 4c bd 71 15 6b bd 63 40 03 bc
       0.00611932 -0.04994942 -0.057393495 -0.008010956
000280 f4 c7 54 bd 24 fa 4a bd 96 cb 14 39 80 04 4c bd
       -0.051948503 -0.04955496 0.00014190222 -0.04980898
000290 6d 41 34 bd 76 a2 8e 3d c0 bc 70 3c 23 ff 92 bb
       -0.044007707 0.06964581 0.014693439 -0.004485981
0002a0 c4 93 c0 3d 08 44 b6 3c a1 f0 fd bc 29 7c 1c bc
       0.09403184 0.022249237 -0.03099853 -0.009551086
0002b0 81 3b 23 38 61 9e 9e bd 50 ad 0c bd 3b 27 27 bc
       3.8917646e-05 -0.07745052 -0.03434497 -0.010202224
0002c0 d0 8b 8f bd e4 7a 35 bd af dd e5 bc 11 95 d1 bd
       -0.07009089 -0.04430665 -0.028059809 -0.1023351
0002d0 16 8d b0 b9 e9 7f b5 bd 4b 5b ab bd d0 e3 5d 3c
       -0.00033674453 -0.088622876 -0.08367022 0.013543084
0002e0 39 03 cb bd 3a ae e6 bd e3 fc 26 3d 13 66 aa bd
       -0.09912724 -0.112637 0.040768515 -0.0832025
0002f0 ed 66 dd bd 52 6a 2a 3d e7 dc 05 3e 77 cf a4 3c
       -0.10810647 0.0416053 0.13072549 0.020118458
000300 fe b2 8c 3b a8 c9 a9 3d f2 ce 3f bd 6b 58 0d 3d
       0.0042937985 0.08290416 -0.046828218 0.03450815
000310 32 2e c0 3d 56 db 1c 3a 3f 0a ce bc 1a 9e b8 bc
       0.09383811 0.00059836113 -0.02515137 -0.022536326
000320 c5 a7 83 3c 6c 76 a2 bd bf e8 51 bd 4c 0b 1e 3d
       0.01607121 -0.079327434 -0.051247355 0.038584992
000330 42 7f bd bd 49 47 42 bd 1f 15 50 3d b5 71 c0 bd
       -0.09252788 -0.047431264 0.050801393 -0.09396688
000340 58 ce cc bd 46 56 fa bc f1 31 0b be 86 21 bb bd
       -0.100002944 -0.030558717 -0.1359327 -0.091372535
000350 33 72 97 3d d0 0c d5 bd a2 6b 54 bd 7e b9 0e 3e
       0.07394829 -0.104028344 -0.05186046 0.13937947
000360 ad 9e 2d 3b 40 27 14 bd 5b 9d 51 bc cb ea 61 3d
       0.0026492283 -0.036170244 -0.012793864 0.055155557
000370 a5 82 d5 3c f9 43 33 3d 4e 2c 3a 3c 22 79 2d bd
       0.026063273 0.043765996 0.011363102 -0.04235185
000380 22 a1 a6 bd 4a 63 70 3d cf ca 3b bc 0f 0f bd bd
       -0.081362024 0.05868844 -0.011461928 -0.09231388
000390 bc b0 9d 3d 73 1c b3 3c 35 51 22 bd b4 7d 04 3e
       0.07699725 0.021864152 -0.039628226 0.12938577
0003a0 0c e4 a9 3d 49 45 03 bc 91 c9 0c bd 40 e4 52 bc
       0.082954496 -0.008012124 -0.034371916 -0.012871802
0003b0 72 78 02 3d 2f 0c bc bc da e9 a9 ba 15 3d 37 3d
       0.031853147 -0.022955028 -0.001296337 0.044735987
0003c0 43 d4 98 3b 63 51 c9 3b fa 4c 15 3d 86 03 9a 3c
       0.0046639754 0.0061437353 0.036450364 0.018800508
0003d0 aa 07 d8 bd cf 6a 20 be e8 c4 a1 3c 66 af f0 bb
       -0.10548337 -0.15665744 0.019747213 -0.007345128
0003e0 40 dc 8b bd cb 77 c9 3c a7 f0 6f bc 1b 47 af bd
       -0.06829119 0.024593255 -0.014644778 -0.08558484
0003f0 aa e9 f3 3d 8b a9 3a 3d 6f 31 d0 bc 30 71 a1 3d
       0.11909802 0.045571845 -0.025414197 0.07882917

scale2.2.1.weight f4 [64]
000000 be db 7e 3f 6f e1 5f 3f 24 16 7e 3f 24 e2 72 3f
       0.9955405 0.8745336 0.99252534 0.94876313
000010 45 ee 5a 3f 54 e9 78 3f 05 45 94 3f 35 7d 6f 3f
       0.8551982 0.9723103 1.1583563 0.93550426
000020 7f 0d aa 3f 26 a6 79 3f 08 7a 7a 3f c3 b8 6e 3f
       1.3285369 0.9751915 0.97842455 0.93250674
000030 91 77 61 3f 97 dc 7d 3f 82 b9 5b 3f b9 96 8a 3f
       0.8807307 0.9916472 0.8582994 1.0827247
000040 da cb 7c 3f 4b 0d 71 3f d7 7a 7e 3f 0d df 8a 3f
       0.9874855 0.9416091 0.9940619 1.084932
000050 a7 c7 5c 3f 8d 4f 6f 3f 78 b8 5e 3f 2a aa 62 3f
       0.86242145 0.9348076 0.87000227 0.885409
000060 e7 89 74 3f 04 b1 79 3f 1d 52 91 3f ad b8 69 3f
       0.9552292 0.9753573 1.1353184 0.9129742
000070 fc c7 7e 3f c6 ca 61 3f 13 a9 51 3f 76 ee 57 3f
       0.995239 0.8820003 0.8189861 0.8434824
000080 37 ee 85 3f 47 98 70 3f 62 1d 65 3f 37 c8 88 3f
       1.0463322 0.93982357 0.8949796 1.0686101
000090 97 d0 85 3f e2 93 64 3f da 25 66 3f 9f 0f 5f 3f
       1.0454282 0.8928815 0.89901507 0.8713321
0000a0 89 db 64 3f df 29 73 3f f4 e1 91 3f e0 99 8d 3f
       0.89397484 0.94985765 1.139708 1.1062584
0000b0 cd df 85 3f bc 24 75 3f 0b e2 5a 3f 89 47 6c 3f
       1.0458924 0.9575918 0.85501164 0.92296654
0000c0 a4 e3 89 3f ff 6f 63 3f cd 70 82 3f 64 b5 8c 3f
       1.0772595 0.8884277 1.0190674 1.0992856
0000d0 ee 68 72 3f 63 aa 65 3f 07 cc 65 3f 75 89 67 3f
       0.9469136 0.89713115 0.89764446 0.9044412
0000e0 52 86 76 3f 03 de 98 3f 75 4f 8d 3f 60 b2 5e 3f
       0.96298707 1.1942753 1.1039873 0.8699093
0000f0 1b d4 88 3f f0 0d 5a 3f 2b 68 8c 3f 67 dc 9e 3f
       1.068973 0.85177517 1.096929 1.2411011
