Superpixel_methods/SSN_cp/log/model1661392438.pth (torch, 873395 bytes, 32 tensors)

scale1.0.0.weight f4 [64, 5, 3, 3]
00000000: 93d7 ba3c 9902 ec3d 6a57 b83d 9d3e d63d
00000010: 2631 993e a54e 1d3e 6314 57bc 4df7 093e
00000020: 6bba ab3d 8354 0b3e d25f f83d b9b4 a93d
00000030: bc3a 083e d557 d43d 4049 8e3d 8d05 d93d
00000040: 90e2 a33d 57f7 173d fd61 23bb 2522 193d
00000050: b016 0e3d eda4 e8bb 6424 eb3c bf28 cc3c
00000060: 3a5d 27bd 561e 1abc 9dc4 a4bc 1fd0 893c
00000070: 19b0 aa3c 7a6d df3c 1397 883c e47c b33c
00000080: 51c4 d83c 55cc 8c3c cc14 9a3c d1a4 cb3c
00000090: 3460 8d3b 2bce 7b3b 11fb 083c 0c0c 1ebb
000000a0: 2a65 39bb 98f3 a53b 8913 85ba 68cc 343a
000000b0: 66f0 da3b b349 0e3c 915c 5d3d 3d0a e73c
000000c0: 028a a23c 15a1 7d3d 3ec7 2a3d 4b15 1dbd
000000d0: 0779 9cbc 7457 b0bc 4722 ba3d 6308 973d
000000e0: 4551 b03d 9ae3 433d 0d16 d73c e934 373d
000000f0: eb44 5a3d 8f91 173d 954d 433d 2db8 b2bd
00000100: 61f5 46be 2281 b93d 23ff cabe f61c 0bbf
00000110: c78d 0bbe 2ee4 50be 195b b1be 8886 78bc
00000120: 6896 4e3c ece9 e43c e7e7 cf3b 8fb9 4a3c
00000130: c847 ee3c 3e4c cc3b 5ce0 be3b 36cb ac3c
00000140: d503 b3ba 2b3e 77bc 53af 80bc 0957 15bd
00000150: 2df2 6bbb abd9 0fbb 32ac cabc eac6 7bbb
00000160: c121 a1bb 72b8 e3bc 077c 05be a9ad f5bd
00000170: 6854 f0bd 68e5 d8bb d667 2a3e 2ec5 8a3d
00000180: 1dab 4e3d 4c4e 883e b327 743e b421 e33c
00000190: 732c 583d 3656 803d 8e9d 1b3d 28a2 483d
000001a0: f3d0 a03d baf8 203b 3792 a73b fe87 f43c
000001b0: 737e 25bd 2dc6 6fbc 5c1b 583d 85e1 8ebd
000001c0: 1e24 4ebd c0bd d63c 5f4e a0bd c52b 6cbd
000001d0: 4de0 813c de39 96bb bc22 293c 38cb c43a
000001e0: 2d50 c8bb c381 fe3b 25be bf3a 0af9 69bb
000001f0: 78a2 1c3c 9197 9f3b f1a0 993c 9eb1 9a3c
00000200: 1220 4f3b a718 97bb 2c75 b0bb de3c a3bc
00000210: b430 73bb a125 2abb 79a1 a0bc eb34 113d
00000220: 7094 b73c e1c5 02bd 21d0 de3d 6871 da3d
00000230: 1cbe f7bc b4f6 b93d db56 923d ee3a cabc
00000240: 4a26 77be ca38 8abe 076a 4fbe f946 77be
00000250: 718c 84be 06a9 3ebe 4ca8 31be 2362 31be
00000260: 02cd e7bd c428 fcbc fe18 74bc c2af 4d3d
00000270: dcd0 7ebd 6820 3cbd eba4 b13c e5c3 67bd
00000280: 864f 46bd 815f 933c 8cdc d13c 8df9 113d
00000290: aefa d83c af27 d93c cdea 053d cdfb e93c
000002a0: 11b6 153c 2e68 8f3c 600d 403c 3f2b b83b
000002b0: af71 d73b 5673 5a3b 7531 173c 2f0d 1f3c
000002c0: 06b9 443b a9bb 95ba 794e 033b 101f 64bb
000002d0: 1738 173e 39d5 8ebd e1b5 31be 1eeb c73d
000002e0: 8d5d 9ebe 2b3d a8be 2805 e13d 4bb2 8cbd
000002f0: 0ed4 30be d409 f73c 0751 1a3d 0a7a 1abd
00000300: 07a7 0f3d b409 403d ecf8 19bd 0f41 9bbc
00000310: 8df2 8abb b560 acbd 1fd3 403d 9f0d 883d
00000320: 9070 5d3c 9ddc 823d b714 ac3d aa68 273c
00000330: d7c7 663c 9e8a 1d3d 39b7 e8bc 4d82 adbb
00000340: 6e86 f33b 134d 263c a00b 82bb 8799 df3b
00000350: 0107 0b3c 24a1 86bc 3807 e9bb 570e f738
00000360: e8ee 86bb 786b 9bbb 1ce1 e8bb 7d52 a7bb
00000370: 5408 9fbb f736 d7bb d73f 9cbc e63f 98bc
00000380: be2c a3bc b433 1bbd a8e0 6bbd 9007 05be
00000390: 3190 353e db6c 873e 3b3a 12be 1c4c 843c
000003a0: 19bc 283d a523 15be 1686 16bb d11a 13bc
000003b0: eeac e53c 285a f13b 88c3 43bc 3ea6 373d
000003c0: e32b 433c bd0a b43b 453f 1f3d 51f6 7e3c
000003d0: b8e1 293b 172b 10bc 1f6b c93c 181f 003b
000003e0: 2b90 6f3b 0c5c 173d 9362 0b3c 84c8 4eba
000003f0: 1059 bdbb 8ccf 46bc b6ae af3b 78c0 8fbb
0.022807872 0.11523933 0.09001048 0.10461161 0.2992031 0.15362032 -0.013127419 0.13473244
0.08385166 0.13606457 0.12127651 0.08286423 0.13303655 0.10368315 0.06947565 0.10596762
0.08002198 0.037101116 -0.0024930232 0.03738608 0.034689605 -0.007099739 0.028703876 0.024921773
-0.040860392 -0.009406647 -0.020113284 0.016822873 0.020835923 0.027273882 0.0166736 0.021910138
0.026460798 0.017187277 0.018808745 0.024858864 0.004314447 0.0038422446 0.00836064 -0.0024116067
-0.0028289058 0.005064439 -0.0010152917 0.0006896914 0.0066814898 0.008684563 0.054043356 0.028203124
0.019841198 0.061921198 0.04169392 -0.038350385 -0.01910068 -0.021526076 0.09088569 0.073746465
0.08609251 0.04782448 0.026255632 0.044728193 0.05328838 0.03700405 0.04768141 -0.08726535
-0.19429542 0.09057833 -0.3964778 -0.54341066 -0.13628303 -0.20399544 -0.34639814 -0.0151687935
0.012609102 0.027943574 0.0063447836 0.012373342 0.029086962 0.0062346747 0.0058250856 0.021092992
-0.0013657758 -0.015090506 -0.015708601 -0.036459956 -0.0036002502 -0.0021949809 -0.024740312 -0.0038418123
-0.004917354 -0.027797911 -0.13035594 -0.11996014 -0.11734849 -0.006619144 0.16641173 0.0677589
0.050456155 0.26622236 0.23843269 0.027726032 0.052776765 0.062664434 0.037992053 0.04898277
0.07852354 0.0024562315 0.0051138657 0.029850002 -0.040403794 -0.014634651 0.052760467 -0.06976608
-0.050327413 0.026213527 -0.07827448 -0.05765893 0.015854025 -0.004584535 0.010323223 0.0015014177
-0.0061130733 0.0077669336 0.0014628811 -0.0035701417 0.00956022 0.004870363 0.0187535 0.018883523
0.0031604809 -0.004611093 -0.0053850617 -0.019926485 -0.0037107887 -0.002596237 -0.019608246 0.035450857
0.022409648 -0.031926993 0.10879541 0.10666162 -0.030242018 0.09080258 0.071454726 -0.024686303
-0.241357 -0.26996452 -0.2025529 -0.24148168 -0.25888398 -0.18619165 -0.17349356 -0.17322592
-0.11318399 -0.030781157 -0.014898537 0.050216444 -0.062210903 -0.045929343 0.021685084 -0.056583304
-0.048415683 0.017989876 0.02561786 0.03563838 0.02648672 0.02650818 0.032694627 0.02856245
0.009137646 0.017505731 0.011721939 0.0056203897 0.0065748314 0.0033332906 0.0092281 0.009707733
0.003001751 -0.0011423725 0.0020035787 -0.0034808554 0.1476749 -0.06974263 -0.17354538 0.09761642
-0.3093075 -0.32859167 0.109873116 -0.06869944 -0.17268392 0.030156054 0.03767493 -0.03771404
0.0350714 0.046884254 -0.037590906 -0.01895192 -0.00424034 -0.08416883 0.04707634 0.06643223
0.0135156065 0.06389735 0.084023885 0.010217825 0.0140857315 0.038462274 -0.02840768 -0.005295074
0.0074317968 0.010150212 -0.003968671 0.006823722 0.008485557 -0.01643426 -0.0071114562 0.00011780549
-0.0041178353 -0.004743036 -0.0071069133 -0.005106269 -0.0048532877 -0.0065678316 -0.01907341 -0.018585157
-0.019918796 -0.037891105 -0.057587296 -0.12991166 0.17730786 0.26450238 -0.14280026 0.016149573
0.04119501 -0.14564379 -0.0022968105 -0.0089785615 0.02803656 0.007365484 -0.011948474 0.044836275
0.011912319 0.005494444 0.038878698 0.015561656 0.0025921892 -0.008799336 0.024587212 0.0019549783
0.0036554437 0.036953017 0.008507389 -0.00078881555 -0.0057784393 -0.012134444 0.0053614033 -0.0043869577

scale1.0.1.weight f4 [64]
00000000: f7bd 503f af29 6c3f eaf0 3e3f db73 423f
00000010: 13d6 793f d077 553f 58ba 8b3f 0b50 443f
00000020: 2b93 823f 0667 b63f 1e79 673f a409 383f
00000030: 96ae 923f 2133 7a3f 8f81 b13f a353 4c3f
00000040: d961 573f f730 9f3f 7725 853f 1d84 783f
00000050: 7fe3 743f 3d78 713f ebc4 803f 853e 363f
00000060: f969 713f 1c89 653f 986c 6d3f a32a 693f
00000070: a3de 4b3f a054 4b3f ec07 903f 784f 483f
00000080: 6b27 8c3f 9477 793f 91c4 4d3f aa38 523f
00000090: 1685 533f c2f4 813f 59e6 b33f 2bd7 843f
000000a0: cf3d 7d3f 9d9f 963f dbc9 633f f76c 6c3f
000000b0: 9b29 4b3f ef6a 6a3f a16f 5a3f 4c86 1d3f
000000c0: 930c 883f 6456 573f 447e 453f 8262 6f3f
000000d0: ca4d 623f 83d8 633f 5280 683f 1af7 4e3f
000000e0: 55c0 673f e0d1 893f 021a 7b3f 2aa6 7b3f
000000f0: 2eb2 6a3f c529 633f d9ee 6a3f ff42 863f
0.81539863 0.92251104 0.74586356 0.7595803 0.97592276 0.83385944 1.0916243 0.76684636
1.0201162 1.425019 0.90419185 0.7188971 1.1459529 0.97734267 1.3867663 0.7981512
0.8413368 1.2436818 1.0402058 0.9707659 0.9565963 0.94324094 1.0060095 0.7118915
0.94302326 0.8966234 0.92743826 0.91080683 0.7963659 0.79426 1.1252418 0.7824626
1.094953 0.97448087 0.8037806 0.8211771 0.8262495 1.0152819 1.4054672 1.0378164
0.9892244 1.176746 0.8897988 0.9235377 0.7936036 0.9156942 0.8532658 0.61533046
1.0628837 0.84116197 0.7714579 0.93509686 0.88399947 0.89002246 0.908208 0.808458
0.9052785 1.0767174 0.9808656 0.9830042 0.9167813 0.8873561 0.917707 1.0489196

scale1.0.1.bias f4 [64]
00000000: b892 4ebe 65a2 1c3e 221a 10be 250b e2bb
00000010: 8b5d bd3d 663b 653c 2883 8e3d bedf b1bd
00000020: 280e cf3d 30fc 8a3f c459 2abe 80e1 1abe
00000030: e36e a63e 9e60 143b e2dd 533f 10d7 85be
00000040: eff6 ecbc 6c1d 403f 1315 db3d a350 a33e
00000050: 9113 5c3e 068d 413c d88d 47bd cf60 75be
00000060: 0e7e 473e 3f63 a93d 102c e13c 170a 683e
00000070: 71a5 d1bd ac3f 023a 5594 083f a160 9cbd
00000080: 32aa bdbc e6f3 d3bd af03 483e fc94 933d
00000090: 561b c7bc 460e 463e d30d 6d3f bfab b03d
000000a0: 3daf 9d3b 0a1f df3e 8aa3 ef3d 9334 923e
000000b0: ad20 f0bc 62ed ca3d e288 1fbd 7907 8bbe
000000c0: 3844 013f 536b 983c df6a 16be caae 66bd
000000d0: e218 833c 6bea cc3c 18b9 723d e52c 373d
000000e0: 9a1c 43bd 4f88 913e 028e 00bd 266d 8bbd
000000f0: 4cab 823e d503 143c 8cad 563d ebcc 013f
-0.20173156 0.15296324 -0.14072469 -0.006898301 0.092463575 0.0139912125 0.0695861 -0.086852536
0.10110122 1.0858212 -0.16635805 -0.15125084 0.32506475 0.0022640596 0.8276044 -0.26140642
-0.02892634 0.75044894 0.10697379 0.31897458 0.21491839 0.011813408 -0.048719257 -0.23962711
0.1948168 0.08270883 0.027486831 0.22660099 -0.102366336 0.00049685943 0.53351337 -0.07635618
-0.023152445 -0.10349254 0.19532655 0.07206151 -0.024305027 0.19341382 0.9259922 0.08626508
0.00481215 0.43578368 0.117011145 0.28555736 -0.029312456 0.099085584 -0.0389489 -0.2715414
0.5049472 0.018605864 -0.14689206 -0.056319036 0.016003076 0.025014123 0.05925855 0.04472055
-0.0476347 0.28424308 -0.03138543 -0.06807928 0.25521314 0.009034117 0.0524116 0.50703305

scale1.0.1.running_mean f4 [64]
00000000: bb9a 5f41 5df5 89c0 b558 8440 026f f440
00000010: be29 13c1 0835 1b3e 28aa 5a40 31f6 ea40
00000020: c14b 54c0 c996 d3bd f9b1 1c41 9368 17c1
00000030: 32b6 e1be eb82 c3c0 3f7f a4be 603c 8041
00000040: 6dde 5141 22f0 b2bd 31df 7fc0 cb45 d93e
00000050: a15e 02c1 486c 06c1 fb86 91c0 fd54 dc40
00000060: 4e45 2cc1 8cc2 07bf 5e72 dc40 ab13 5040
00000070: 1c9d ba40 6667 1040 227d 40bf 7475 1740
00000080: 90a4 39c1 d981 ccc0 6bf1 0041 e8dc 0741
00000090: d5b1 0141 acc7 833f 4f11 8cbe 7696 ddc0
000000a0: 6ee3 aa40 b8fc 37bf 1786 aa40 5cc7 473f
000000b0: 2395 76c1 7d12 61bf 9055 6cc0 d712 0ac0
000000c0: aef1 943e e9f0 273f 331b 67c0 7c37 eabf
000000d0: 5f5d c340 2f1c a140 e04e 45c1 29a2 32c1
000000e0: be81 8040 a15a 6ec0 47e0 1cc1 ea41 ffc0
000000f0: 97c9 d33e d4f0 c1c0 cf3c 47c1 bdc2 7a3f
13.975276 -4.3112016 4.1358285 7.6385508 -9.197691 0.15156949 3.4166355 7.3425527
-3.3171237 -0.10331494 9.79345 -9.463031 -0.44084316 -6.109731 -0.3212833 16.02948
13.116803 -0.08737208 -3.9979975 0.4243606 -8.148103 -8.401436 -4.547727 6.8853745
-10.76692 -0.5303123 6.888961 3.2512004 5.8316784 2.256311 -0.7519094 2.3665438
-11.602676 -6.3908505 8.05894 8.491432 8.105916 1.029531 -0.27356955 -6.924617
5.3402624 -0.71869993 5.3288684 0.78038573 -15.41141 -0.87918836 -3.6927223 -2.1574
0.29090637 0.65601975 -3.611035 -1.8298182 6.105148 5.0346904 -12.331757 -11.16459
4.0158377 -3.7242815 -9.804755 -7.976796 0.41364738 -6.060648 -12.452346 0.979534

scale1.0.1.running_var f4 [64]
00000000: 99b0 1e42 02b9 9742 71e8 fb40 157c fe41
00000010: 5162 a541 3127 903f 9b2c 3c42 c650 1742
00000020: c323 d341 72e7 443f ea80 d541 1b2e f441
00000030: ba09 2540 8088 3142 b2cd 393f 945d 7142
00000040: e7ad 2542 3629 2c3f 61a7 5241 b545 a83f
00000050: 239a 3742 f008 e441 e6de 8b41 22bf c341
00000060: 6169 9841 594c 0342 4b3f 2e41 7aee 4f40
00000070: 95ac 8342 acbd 4a40 0a82 453f 4fc1 0341
00000080: a918 5242 128e 9e41 a60f df41 a498 e041
00000090: a7a2 6641 224a b93f dd0c 513f 1ce7 a341
000000a0: 64c5 1f42 4336 dd3f 1248 1a41 0d95 a13f
000000b0: 92ca 5842 7cbb c041 b8e1 0f42 cdcb cd41
000000c0: 4fc3 183f 9a71 ee41 2b3f 1042 4888 7541
000000d0: 3f34 1742 7aab a341 e2d7 0542 57b2 9942
000000e0: 3bb1 0442 28f9 5242 fa22 6342 2488 c541
000000f0: 88df 3240 14c1 2642 7cb4 eb41 f94b 7d3f
39.67246 75.86134 7.872124 31.810587 20.673006 1.126196 47.04356 37.82888
26.392462 0.7691566 26.687946 30.522512 2.5787187 44.3833 0.7257949 60.341385
41.419827 0.6725038 13.165864 1.3146273 45.900524 28.504364 17.483837 24.468327
19.051455 32.82456 10.890452 3.2489305 65.837074 3.1678267 0.7715155 8.2346945
52.524082 19.81937 27.88264 28.074532 14.41471 1.4475749 0.8166025 20.487846
39.942764 1.7282184 9.642595 1.2623612 54.197823 24.091545 35.97043 25.724512
0.5967302 29.80547 36.061687 15.345772 37.80102 20.458729 33.460823 76.84832
33.173077 52.743317 56.784157 24.691475 2.7948933 41.688553 29.463127 0.9894405

scale1.1.0.weight f4 [64, 64, 3, 3]
00000000: 50aa 53bd 259c 91bd a312 97bd bed5 a13c
00000010: f758 0e3c a902 d8bb e73e f23c be88 273d
00000020: 794e 623d 4466 e6bc 5830 2abd 4ef4 a8bc
00000030: 2997 bcbc 3dfe 1fbd 4b07 06bd b148 cbbb
00000040: 5f39 b7bc 0e42 95bc 3fd3 fb3c e404 d4bb
00000050: 6f83 39bd be91 153d c71e 3f3d 216e bc3c
00000060: 09cd b13c fac9 903d 8a5f a93d b42f 833b
00000070: 59d8 75bc eb59 4cbc f44b d43c 1c0c b93c
00000080: e2eb c53c 74df 123d 9570 ee3c be98 5c3d
00000090: 7893 6b3c 2835 3e3d 9155 443d c332 3abd
000000a0: 6d05 12bd c550 6fbc 1735 6dbc 21ee 3cbd
000000b0: d12e 00bd 953e afbc 1e14 2dbd 38a9 90bd
000000c0: 5fd1 733d 7ebc fb3d a8bd fc3c f0ad cdbc
000000d0: 911e b5ba ec89 603d b9e5 e3bc 085b 15bd
000000e0: 988b dbbc 80dd 04bc dbe3 07bc c228 43bc
000000f0: 8a7e 76bc 9a71 78bc 4ed7 80bc 359a 71bd
00000100: 3f04 b1bd b442 afbd cfbe 223c 1408 b6bc
00000110: 6cb9 44bd 4b69 0e3d 7d36 cf3c dda0 583c
00000120: 6a8f 35bc 2bb3 86bb c4f1 d23c 65e8 80bc
00000130: 3205 6bbc 56d4 1e3c dc67 e03a 8acb f4bb
00000140: d6b6 f53a 0cc5 6cbd 7da2 b73c fce9 9a3d
00000150: 715d 4abe 31ef b2be 3e3f 34be de0b 5f3e
00000160: 9ec9 443e 3274 5b3c 258a c3bd 5e53 04be
00000170: 5e14 01be 0bd7 00bc 7ab3 20bc 9890 70bd
00000180: 15c4 693c 987c 963c 41dc a23c 6620 46bc
00000190: c51d 0ebd e608 cbbc fc35 8c3b d4fd 37bc
000001a0: 979f 51bc 6919 b23b 4be5 b0bb 2a1b 02bc
000001b0: 0290 e2bc fa9b 1ebc 58a8 973d 6009 c9bd
000001c0: 2e6c 45be cc04 cabd 3708 993d 9512 3a3c
000001d0: b538 0ebd 06af 483d fa00 4e3d d006 843d
000001e0: 5604 4a3c 157d 083c a892 e13c 45cc 2e3c
000001f0: 8c46 2bbc 096b 693b 8548 bd3d af13 713e
00000200: f12c 453e a4e6 3abe c67a 20be fadd ae3d
00000210: 9dce 9d3c 2883 c7bd 3bd7 5b3d db74 7fbd
00000220: d693 9bbd 7fd8 bebd 4912 e0ba 57e0 efbb
00000230: 0528 f6bc 90ad 013d 5fa8 0c3d 7cf0 db3c
00000240: 620d c6bb 5010 a3bc f3fc aebc b249 cd3c
00000250: defd 033d 0eaf aa3c 73cf e03c 8dab 3b3d
00000260: 41c2 833d 2d3e f0bc 3275 4d3d 555e cd3d
00000270: bfc9 26be 8662 8bbe 2b06 82bd acbe 0d3e
00000280: 6e95 aa3d 8595 0ebc 8498 4e3d fc67 593d
00000290: 0d96 b73d 7b41 81bd dd84 dcbd 7182 f7bc
000002a0: 4afa 503d 4ae8 33bc 0cdb f338 892b a4bd
000002b0: ed6c 16be 72ac bdbd c002 db3d c064 f13d
000002c0: b134 7e3c 6990 ccbc 0ef3 55bc 9714 ba3c
000002d0: 6373 4739 7f58 8a3c 069a 1d3d 1d9f b2bc
000002e0: 2ead d3bc f5e7 f03b c494 d4bc 3621 40bd
000002f0: 9cee bebc 814c 4b3d 6d43 613d 7a07 903d
00000300: 1767 c5bc 3d53 eabc 6649 ce3c b54e c3bc
00000310: 69b3 64bd f076 8abc 8b9f e63c ac79 c13c
00000320: 0652 8e3d 4005 48bd 0003 d8bd 2e16 24bd
00000330: f709 f73c 560b b8bc 31a1 05bd 72f9 f13a
00000340: fb26 66bc 3118 cdbb 05f3 ee3b f36a 30bb
00000350: f609 d2ba 1d9c 193c 8d20 403c 1278 ae3c
00000360: 653a 213d 077a 493d b439 bb3d 73c2 63bd
00000370: 94a3 c2bd 8a8c 80bc 40ca 213d e58c 48bb
00000380: bab3 3bbb 0e6a 25bc e0ef a0bc c15e 98bb
00000390: c844 44bc 9902 46bc 841b a7bb 69fb 86bb
000003a0: 2edf ca3a c66c 2c3c d5e7 f1ba caae 74bd
000003b0: 2599 64bd 644a 723d 558a 493d 07d6 c73c
000003c0: 06c2 b33b 22f4 513d 69a8 a43d 2816 c7bd
000003d0: eca8 35be ca5f 07be 04c2 f23d 10e6 b43d
000003e0: 95bf f4bc d2cb 80bb 2865 6abc de04 6bbc
000003f0: 2405 00bd 2eb0 c2bc 5431 99bb d960 f8bb
-0.051676095 -0.0710986 -0.073766015 0.01975524 0.008688203 -0.006592114 0.02957101 0.040901892
0.05525062 -0.028124936 -0.04155001 -0.020624306 -0.023021298 -0.03906082 -0.0327218 -0.006203734
-0.022366224 -0.018219974 0.030740378 -0.0064703096 -0.04529136 0.036515944 0.04666021 0.023001732
0.021704214 0.07069774 0.08270176 0.0040034894 -0.015005195 -0.01247261 0.025915124 0.022588782
0.02416033 0.035857633 0.029106418 0.053856604 0.014378421 0.046437413 0.047933165 -0.045458566
-0.035649706 -0.014606659 -0.01447799 -0.046125535 -0.031294648 -0.021392146 -0.042255513 -0.07063526
0.059525844 0.122918114 0.030852154 -0.025107354 -0.0013818314 0.054819033 -0.027819501 -0.036463767
-0.026799962 -0.00810945 -0.008294071 -0.011911573 -0.015044818 -0.0151638035 -0.015727665 -0.058984954
-0.08643388 -0.085576445 0.009933188 -0.022220649 -0.048028395 0.034768384 0.025294537 0.013221947
-0.011081556 -0.004110714 0.025750048 -0.015735814 -0.0143445 0.0096941795 0.0017120796 -0.007470553
0.0018746506 -0.057805106 0.022416348 0.0756416 -0.19762208 -0.34948114 -0.1760225 0.2178187
0.19217536 0.013394402 -0.09547833 -0.12922427 -0.12605426 -0.00786377 -0.009808416 -0.058731645
0.014267941 0.018369958 0.019880416 -0.012092685 -0.03469636 -0.024784517 0.0042788964 -0.011229951
-0.012794397 0.005435158 -0.0053984276 -0.007941047 -0.027656559 -0.009680742 0.07405156 -0.09816241
-0.19279549 -0.09864196 0.0747227 0.011356969 -0.03472205 0.04899504 0.0502939 0.06446612
0.012330135 0.008330603 0.027535751 0.010668819 -0.010453831 0.0035616776 0.09242348 0.23542665
0.19255425 -0.18252045 -0.15671834 0.085384324 0.01926356 -0.09741813 0.053672057 -0.0623673
-0.07596557 -0.09318637 -0.0017095293 -0.0073204446 -0.03004838 0.031659663 0.03434026 0.02684807
-0.006044076 -0.01990524 -0.02136085 0.025059555 0.03222453 0.020835426 0.02744267 0.0458179
0.06433535 -0.029326523 0.050160594 0.10027758 -0.16287898 -0.27223605 -0.06348833 0.13842267
0.08329283 -0.00870264 0.05043842 0.053077683 0.08964167 -0.063113175 -0.10767529 -0.030213566
0.051019944 -0.010980675 0.000116279436 -0.08016116 -0.1468999 -0.09261407 0.10693884 0.11786795
0.015515492 -0.024971204 -0.013058437 0.022714896 0.00019021104 0.016887901 0.038476966 -0.021804387
-0.025839414 0.00735187 -0.025949843 -0.046906672 -0.023307137 0.049633507 0.054995943 0.07032676
-0.024097009 -0.028604144 0.025181483 -0.023841241 -0.05583516 -0.016902417 0.028152248 0.023617588
0.069492385 -0.04883313 -0.10547447 -0.040060215 0.030156119 -0.022466343 -0.032624427 0.0018461181
-0.01404738 -0.0062589874 0.007292154 -0.0026919215 -0.0016024697 0.009375599 0.011726511 0.021297488
0.03936233 0.04918864 0.091418654 -0.055605363 -0.09503856 -0.015692014 0.03949952 -0.0030601558
-0.002864106 -0.010096086 -0.019645631 -0.0046499674 -0.011979289 -0.01208558 -0.0050997157 -0.004119326
0.001547789 0.0105239805 -0.0018455932 -0.059737004 -0.055810113 0.059152976 0.04920419 0.024394048
0.005485776 0.051258214 0.08039934 -0.09721023 -0.1774022 -0.13220134 0.11853412 0.088329434
-0.02987651 -0.0039305473 -0.014306344 -0.014344422 -0.031254902 -0.02376565 -0.00467507 -0.0075799045

scale1.1.1.weight f4 [64]
00000000: 898c 823f d7bb 5a3f 19f1 6d3f d818 773f
00000010: a46e 753f 42ed 823f e737 763f 39b3 683f
00000020: 4d17 733f 62d1 633f 4d8b 5f3f 59b8 643f
00000030: d219 693f daa7 603f 5d84 823f 8801 6b3f
00000040: 9a4a 5f3f e13e 303f 4b57 753f b339 753f
00000050: 4ba6 643f 1068 9d3f 6b80 693f c68e 9c3f
00000060: a94a 6c3f 7172 373f a9d1 5f3f 836c 7e3f
00000070: 70f2 8e3f 7277 683f 6e19 473f c814 8d3f
00000080: 402a 613f 2b5e 493f ac45 783f 6ca1 673f
00000090: adae 9c3f 4e72 603f 27c5 703f 203d 523f
000000a0: 3a48 413f 80f2 3a3f 9af9 503f 5c7c 873f
000000b0: 49b8 8d3f 821d 8f3f 120a 903f a8b2 6f3f
000000c0: a6ae 403f cb65 5f3f f90c 633f bc93 7b3f
000000d0: 7774 5d3f e399 693f 806e 623f 6f94 6e3f
000000e0: d8c9 563f 3c63 5e3f a566 6a3f c9aa 523f
000000f0: 2c11 713f 9012 523f 1469 743f 9390 513f
1.0199138 0.8544287 0.9294601 0.96522284 0.9587195 1.0228655 0.9617905 0.9089847
0.9495743 0.8899137 0.8732193 0.8934379 0.91055024 0.8775612 1.0196644 0.9179921
0.8722321 0.68845946 0.95836323 0.9579117 0.8931624 1.2297382 0.91211575 1.2231071
0.9230142 0.71659 0.8742929 0.99384326 1.1167736 0.9080726 0.7777318 1.1021967
0.87955093 0.78659314 0.9698131 0.90480685 1.2240807 0.87674415 0.9405083 0.8212452
0.75500834 0.73026276 0.8163086 1.0584826 1.1071864 1.118088 1.1253073 0.9363198
0.7526649 0.872647 0.8869167 0.982723 0.86505836 0.9125044 0.8844986 0.9319524
0.8390174 0.8687017 0.91562873 0.8229185 0.9416683 0.82059574 0.95472836 0.8186123

scale1.1.1.bias f4 [64]
00000000: 69d5 4a3e 07b0 fe3d f7f4 873d 2173 9b3d
00000010: 6314 163c eeb6 593d 2b72 d43c 264b b93d
00000020: b9a1 d93d df5c 623a 93a2 1d3d 3135 213e
00000030: bec9 743d 96b8 b53c 89e1 a23e 19a9 083e
00000040: 762e e93c 4f2a f8bd 671c 193c a4bd 14be
00000050: 2f2d 663d 36c2 2b3e 44de a4bd 4bca 9a3e
00000060: 2b09 473e 8727 64bd 8708 9abd df12 7e3e
00000070: 68e2 a63d bd1f f13d fa89 82bd 16b4 173e
00000080: 4682 573e 45a2 003e 61a0 923e 8015 d73e
00000090: 2076 8e3d 90c3 613e 91f2 413e 3c2f 9fbd
000000a0: 16e3 673d 7cb0 b7bd ab6e f53d c92f c03e
000000b0: 440e 8d3e 93e9 473e 7c84 483e 979b 343d
000000c0: 0341 7bbd 45a5 2d3e ee0f 9e3d 2b06 97bc
000000d0: 4ec2 08bd 8390 bebb e081 913e 68a6 f93d
000000e0: a9cc c0bc ed0c c33d 86be 3c3e ea9f 3abd
000000f0: de90 6b3d 4d20 b73d 45fc 60bd fb74 c53c
0.19807972 0.12435918 0.0663852 0.075903185 0.009160134 0.05315297 0.025933346 0.090475366
0.10626549 0.00086350547 0.03848512 0.15742947 0.05976271 0.022182744 0.31812695 0.13345756
0.028464537 -0.12117445 0.009345151 -0.14525467 0.056195434 0.16773304 -0.08050206 0.30232462
0.19437091 -0.05570176 -0.07521158 0.24811886 0.08148652 0.11773632 -0.06373973 0.14814791
0.21045789 0.12561901 0.28637984 0.4200859 0.06956124 0.22047257 0.18940188 -0.07772681
0.05661305 -0.089692086 0.11983999 0.37536457 0.27549946 0.19522695 0.19581789 0.044093695
-0.061341297 0.16957577 0.07717882 -0.018435558 -0.03338843 -0.005815567 0.284194 0.121899426
-0.02353509 0.0952395 0.18432054 -0.045562662 0.057511203 0.08941708 -0.054928083 0.024103632

scale1.1.1.running_mean f4 [64]
00000000: 0a8e 41bf 48bf e9c0 29a9 193f e037 653f
00000010: 0125 d0be 7e83 03c0 b5c1 903f d596 1bc1
00000020: 5e8c 0440 aba5 d93e 0086 c4c0 d001 b3c0
00000030: 35da 5a3f d914 d0c0 4e3a 223e 5716 9fc0
00000040: 2293 f0bf fd98 88c0 4a7f 0040 1526 0e41
00000050: e271 0b40 04cf 2abd 6328 5c40 bbc7 e03e
00000060: d2bc f6c0 1d2c 25c1 f0ee ea40 1ed2 1ec0
00000070: 41db 53be 9a9a 1cc1 7a6a b03f 1e27 483f
00000080: 7bce ebc0 5de3 d5c0 5242 eac0 1ea5 d4c0
00000090: 9591 243f 103d ddc0 98e9 d5c0 8ab1 af40
000000a0: 1e73 bdbf 6ad1 24c0 aaea 11c1 b0cf 1abf
000000b0: b074 913f 0cd9 e03e c689 f83c b1e8 cb3f
000000c0: 8e18 1fc1 acd9 8dc0 4bcd a7c0 0250 01c0
000000d0: e790 8b3d f568 cabf b9e7 16c1 cbe0 13bf
000000e0: 8d4b 87c0 22f6 c4c0 ea58 d8c0 7782 85c0
000000f0: 548a 213f 425b a3c0 61c1 8340 25eb 27c0
-0.7560736 -7.3046 0.6002374 0.89538383 -0.40653232 -2.0549006 1.1309115 -9.724324
2.0710673 0.42509207 -6.1413574 -5.5939713 0.8548921 -6.502545 0.15842554 -4.971477
-1.8794901 -4.2686753 2.007769 8.884297 2.1788259 -0.04170133 3.439965 0.43902382
-7.7105494 -10.32327 7.341667 -2.4815745 -0.20689107 -9.7877445 1.3782494 0.7818469
-7.368955 -6.6840043 -7.3205957 -6.645156 0.6428464 -6.913704 -6.684765 5.4904222
-1.4800756 -2.5752816 -9.119791 -0.60473156 1.1363735 0.43915594 0.030339133 1.5930387
-9.943495 -4.4328213 -5.24381 -2.0205083 0.06814747 -1.581328 -9.431573 -0.5776488
-4.2279725 -6.1550455 -6.760854 -4.172176 0.63101697 -5.10489 4.117356 -2.623727

scale1.1.1.running_var f4 [64]
00000000: 0cb8 b940 1cf5 3b42 01c8 b340 607c 0a42
00000010: 5556 2442 10ad 6040 f11a 1942 bb48 2442
00000020: 0e79 2a42 5ce4 b741 a2a5 2f42 c7d1 3c42
00000030: 398e 4a41 b39b 2542 8c8f be40 b066 8f41
00000040: fe7d e141 a1d9 1842 42c1 0d42 4742 f641
00000050: 8b91 0742 da6e 0b41 e62d ec41 f5a8 0641
00000060: 4cef 8241 2779 1942 d3b3 cd41 939f 2841
00000070: cd2d ea40 756e 1d42 85ea 2542 10d6 de40
00000080: 5aab ab41 d82a 0142 2d1c 9541 f9ac 9341
00000090: 480a ec40 342a ba41 1d9a 7341 edc8 2442
000000a0: 6bc2 c941 cdd7 2e42 555e 9f41 a41e e140
000000b0: b57b 0f41 e846 8d40 1ed8 d940 a69c 9d41
000000c0: e65c 0242 c8cd 1742 92be b341 c71e 1441
000000d0: d010 2142 73d7 9841 9a04 a841 f468 1142
000000e0: b72f 8041 1389 fb41 c5b2 9b41 c0e1 9841
000000f0: 4512 3942 eaf2 6c41 2eb6 0a42 df12 1a42
5.8037167 46.989365 5.6181645 34.62146 41.08431 3.510563 38.27631 41.071026
42.618217 22.986504 43.91175 47.20486 12.659722 41.40205 5.955023 17.92514
28.18652 38.21253 35.43873 30.782362 33.89213 8.714563 29.522411 8.416249
16.366844 38.368313 25.712805 10.538959 7.318091 39.35787 41.479023 6.9636307
21.458668 32.29184 18.638758 18.45946 7.376255 23.270607 15.225125 41.196217
25.21993 43.710743 19.92106 7.0349903 8.967702 4.4149055 6.8076315 19.701488
32.59072 37.95096 22.468052 9.257514 40.26642 19.1052 21.002247 36.352493
16.023298 31.44193 19.46229 19.11023 46.26784 14.809305 34.67791 38.51843

scale2.1.0.weight f4 [64, 64, 3, 3]
00000000: 0295 77bd 61ab ecbc c18f 233c 46f1 253c
00000010: 272e 853d e95c d43d 2676 0ebe 81b2 a0bd
00000020: 8c4a 47bd 16ee 16bc b553 0dbc 3ea8 b3bb
00000030: 0562 b6bd 999f 01be 85a5 ebbd 24cf 5abd
00000040: 6bca d8bd c9ea e8bd 9690 a83d 1344 bb3d
00000050: 6826 5f3c b7a4 8fbd 4339 77bd 0ad5 f3bd
00000060: 69cb 06be 74a7 a7bd 1b25 00be 376f 1e3d
00000070: 9dd5 433d 6687 593d 42e7 423d a9db cd3c
00000080: bd58 3a3c 7ca1 f73c 919e f9bb 0d9d 14bd
00000090: 1def b0bd c914 46bd ad53 4abd 9b4f b1bd
000000a0: a8cc e2bd 47c3 e1bd fc82 bebc fcab 41bd
000000b0: 07bc 96bd e546 9b3d fba6 003e 51de d53d
000000c0: 7e64 4bbd 63b2 efbc b9e7 00bd 317c 09bd
000000d0: 320d 853c 3506 90bc 8911 8f3d 662c 173d
000000e0: 1403 4d3c 5227 703d 59a1 b3bb 86da cabc
000000f0: ebb0 953c a9e4 31bd a3e8 54bd c07b 103c
00000100: e0b5 4c3c 09a0 55bc 5194 33bc 446a aabc
00000110: fa31 2cbd 0404 45bd da99 36bd 8add 9cbd
00000120: bf45 8cbc 81e4 d1bc a015 71bd 6432 453c
00000130: 4b0b 13ba 4ed8 dcbc 9091 8d3c 5afa 0b3c
00000140: 34be c8bc 6087 49bd 257d 2dbd e930 c8bd
00000150: 6b82 49bc 020c c6bc 4875 9fbd 31fd a8bc
00000160: 7792 e5bc 485b a1bd b64b 043c 20e5 9f3a
00000170: e58a 1ebd 246c 14bd 904a 4dbd 483b c3bd
00000180: 38b9 8cbd b92c 94bd 0730 f2bd 9240 02bc
00000190: 6da2 4c3c 6b90 b93c 0a3c 9bbd fdf3 0ebe
000001a0: 8fc9 dfbd 28a3 223d 09bc 52bd 8ad6 8abd
000001b0: ba71 a83c e6cb 6e3d 3ab3 d03c 7791 cdbc
000001c0: 55ee 0d3c b590 08bc 3c19 22bd bf3f acbb
000001d0: aa9f 3cbd 3113 d2bc 9892 17bb 2c75 9bbc
000001e0: 8379 b83c 954e 1e3d 84d9 163d 52c4 21bd
000001f0: 36ca 343b de75 d63b d002 b5bd 2eaa 8fbb
00000200: 3065 ec3c c159 c9bc a732 fabb 2de9 94bc
00000210: 68d9 f43d bcb3 063e b6ba 73bc 9277 273d
00000220: d2d5 283d 1283 953d f7e1 b03c 3e22 3cbd
00000230: b4df 9cbc 0818 c53d bf5f b63c 722e 043c
00000240: 5592 68bd 858b 92ba 2419 963b fc70 bebd
00000250: b408 82bd 170c 46bd 8d97 7cbd e551 95bd
00000260: 4030 9fbd e80f 703c 29bf 7c3c bc9b 08bc
00000270: e67a 523d 146f 243d 66bd 163d ee20 f73c
00000280: b644 a33c 7732 dd3c 2ff8 1c3d 2f03 223d
00000290: d335 eb3c 0020 22bc 8c7d 42bc ad57 ddbb
000002a0: 818a 83bd a493 5dbd e8ff 45bd eddc 32bd
000002b0: 5c76 bfbb 4e17 7c3c c04a 2fbd a6a1 f9bc
000002c0: f733 3bbc 9668 543c eb08 c9bb 1acd 21bc
000002d0: a9c2 d13c 5910 023c a3e0 d4bc c4f3 77bb
000002e0: 2c70 f6bc 933c 5bbd e8b6 1bbd eb6b 74bd
000002f0: 46d4 9abd 6281 9a3d 751c df3d 8c6a cfba
00000300: 08a7 afbd ad9b f9bd efa1 26be ec3d f9bd
00000310: feaf 50be 89cc 83be 87cc 693d 4d0d 8f3d
00000320: caa4 fc3c a862 d73c fe6c 263d 0a10 1a3d
00000330: ab5d fabb 6e44 853c d220 293c 84cd 873c
00000340: 0040 153c d1f9 26bc 75e6 12bd 3e46 243c
00000350: 884a cb3c 1624 48be 1301 3abe e87d b9bd
00000360: 38ba bbbc 2270 ec3c 0218 dcbc 0b0e d33d
00000370: 7f7d 083e 7a48 a73d 3203 813d d221 c53d
00000380: e033 653d 1f96 60bd ae7f 69bd ed74 a6bd
00000390: 5af3 093c b915 9b3b d0f1 99bb eda3 9ebb
000003a0: 03bd 723a 9bb1 d63b b4fe e9bc 67fd 0a3b
000003b0: 6b0f bfbc 0af2 8fbc 1c4b fb3b 2adc 5f3c
000003c0: dd30 25bd 62a5 133b 38e5 783b bb50 f1bd
000003d0: c3ab 85bd 9405 3dba 392d 6abd 7990 36be
000003e0: dafc 0ebe 1bfe bc3d 0e42 e53c 6a5a dcbd
000003f0: 421e 56bc 9981 8dbc bee3 ab3c dc92 c7bb
-0.06044484 -0.028890314 0.009983004 0.010128325 0.065029435 0.10369284 -0.13912258 -0.07846547
-0.048655078 -0.009212038 -0.008625914 -0.0054827025 -0.089054145 -0.12658538 -0.1150618 -0.0534202
-0.10585483 -0.11372907 0.082307026 0.091438435 0.013619997 -0.07013839 -0.060357343 -0.11905868
-0.13163532 -0.08186236 -0.12514155 0.03868028 0.04781114 0.05310764 0.047583826 0.025129156
0.011373696 0.030228369 -0.0076177795 -0.036282588 -0.08639357 -0.048359666 -0.049396206 -0.08657762
-0.11074191 -0.11023574 -0.023255818 -0.047283158 -0.07360082 0.075818814 0.12563698 0.10442794
-0.049656384 -0.029259866 -0.031470988 -0.033565704 0.016241644 -0.017581085 0.069857664 0.036907576
0.012512941 0.05863125 -0.0054818806 -0.024762403 0.018272838 -0.043430958 -0.051979672 0.008818567
0.012494534 -0.013038644 -0.010960654 -0.020802625 -0.04203985 -0.048099533 -0.044580318 -0.07659443
-0.017123101 -0.025621654 -0.058858514 0.01203594 -0.0005609288 -0.02695861 0.017281324 0.008543575
-0.024504758 -0.04920137 -0.042355675 -0.09774954 -0.0122991605 -0.024175648 -0.077860415 -0.020628544
-0.028023941 -0.07878739 0.0080746915 0.0012199022 -0.03870668 -0.036235943 -0.050119936 -0.095327914
-0.06871265 -0.07235093 -0.11825567 -0.007949965 0.012489897 0.022651872 -0.07579811 -0.13960262
-0.10927116 0.03970638 -0.051448856 -0.06779201 0.020562042 0.05829992 0.025476087 -0.025093777
0.00866278 -0.008335282 -0.039574847 -0.0052566226 -0.046050705 -0.025643917 -0.0023128148 -0.01897677
0.022518879 0.03864916 0.036828533 -0.039493866 0.0027586347 0.0065448126 -0.08838427 -0.0043843007
0.028856844 -0.02457893 -0.0076354328 -0.018177593 0.119555295 0.131545 -0.014876058 0.040885516
0.04121954 0.0730039 0.021592123 -0.045931093 -0.019149639 0.09623724 0.022262452 0.008067714
-0.056780178 -0.0011180496 0.0045806337 -0.09298894 -0.06349316 -0.048351374 -0.061667968 -0.07291011
-0.07772875 0.01465223 0.0154264355 -0.008337911 0.051386736 0.040144995 0.03680172 0.03016707
0.019930225 0.027001603 0.038322624 0.039553817 0.028712189 -0.009895325 -0.011870753 -0.0067548365
-0.06422902 -0.05409588 -0.048339754 -0.043667722 -0.005842967 0.015386416 -0.042795897 -0.030472588
-0.011425964 0.012964388 -0.0061350963 -0.00987556 0.025605517 0.007938468 -0.025986021 -0.0037834505
-0.030082785 -0.053524565 -0.03801623 -0.05967323 -0.07560019 0.07544209 0.108940996 -0.00158246
-0.085767806 -0.12187896 -0.1627271 -0.12170014 -0.20379636 -0.25741985 0.057079818 0.06984959
0.030840296 0.02629216 0.040631287 0.037612952 -0.0076405606 0.016267981 0.010322766 0.01657749
0.009109497 -0.010191397 -0.035864312 0.010026513 0.024815813 -0.19545016 -0.18164472 -0.09057218
-0.022915944 0.028862063 -0.026866917 0.10305413 0.13329123 0.08168121 0.062994376 0.09625591
0.055957675 -0.054830667 -0.05700653 -0.081277706 0.008419836 0.004732814 -0.0046980157 -0.004841319
0.00092597323 0.006551934 -0.028563835 0.0021208168 -0.023322782 -0.017571468 0.007668866 0.013663331
-0.040329803 0.0022528996 0.0037978422 -0.11782976 -0.065269016 -0.0007210609 -0.057172034 -0.1782855
-0.13963643 0.09228154 0.027985599 -0.107594326 -0.013068737 -0.017273711 0.02098262 -0.006090505

scale2.1.1.weight f4 [64]
00000000: 4326 753f 75b9 813f 81b8 813f f005 823f
00000010: db4e 8e3f 18c0 8c3f cb2b 7f3f 449c 943f
00000020: 8da4 793f 5b3a 9d3f e659 8e3f 9199 913f
00000030: e0d1 4c3f aba6 863f 902b 8b3f ff09 793f
00000040: 1cba 993f 10e6 973f c900 743f b543 833f
00000050: b3c7 7b3f ccf4 883f cd7e 5b3f c392 673f
00000060: 77bc 6a3f 362e 4f3f 2ac1 523f 96ef 953f
00000070: 4c84 873f 2c8c 933f 988d 783f 4f86 953f
00000080: 329a 623f c2cb 8f3f 0377 7f3f a049 803f
00000090: d204 943f ce77 7c3f f159 663f 750e 6e3f
000000a0: d438 6e3f 2fbc 583f e426 863f a5a7 7d3f
000000b0: 24d8 5b3f 982c 673f 28ce 863f 4752 923f
000000c0: 0ebd 963f b4dc 513f 4a17 7b3f 1457 893f
000000d0: a29b 763f 8c39 8b3f 7a6d 7c3f accc 713f
000000e0: 3e67 853f bf21 6d3f 729b 863f c17e 863f
000000f0: 322a 833f 422d 923f bffe 763f 361e 5d3f
0.9576151 1.0134722 1.0134431 1.0158062 1.1117815 1.0996122 0.996762 1.1610188
0.9751671 1.2283434 1.1121185 1.137499 0.80007744 1.0519613 1.0872669 0.9728088
1.2009921 1.1867085 0.953137 1.0255038 0.9835159 1.0699706 0.8574036 0.90458316
0.91693825 0.8092989 0.82325995 1.1713741 1.0587249 1.1527152 0.97091055 1.1681613
0.88516533 1.1234057 0.9979097 1.0022469 1.1563971 0.9862031 0.8998099 0.9299081
0.9305546 0.84662145 1.0480618 0.9908393 0.8587668 0.9030242 1.0531664 1.1431359
1.1776445 0.8197739 0.9808241 1.0729699 0.96331227 1.0876937 0.9860455 0.9445293
1.0422132 0.9262962 1.0516188 1.0507432 1.0247252 1.1420062 0.9648246 0.86374223

scale2.1.1.bias f4 [64]
00000000: 0fcf 19be c21c b5bd f6a1 6d3e 8720 df3d
00000010: c514 483e bd60 65bd 8a11 163e 3089 923e
00000020: 5d50 e0bc 99af 1abd 294c a2bd ed7b 93bd
00000030: 11bb 10be 9b4f 063e 46f4 5f3d 4ef8 fdbc
00000040: aa4f 7bbc 1083 453d 4e40 acbd 4f14 263d
00000050: f834 fa3d f6a8 1f3e 5829 91bd 73ba c0bd
00000060: 2eb3 6d3d cb3b 01be 1394 2dbe 7fb0 2e3d
00000070: 41db 183e 705b a5bd da51 c93d fe83 9a3a
00000080: 6336 003e 0719 833d d02c 063e ec1e ef3d
00000090: 2e39 6c3d c79c 853c 5161 30be b3dd aebc
000000a0: 1c09 903d 410c e03c 2c21 cc3d dff5 983c
000000b0: 66f3 54bd b110 c5bc 6ed9 9c3d 9af0 7bbd
000000c0: e8e1 f73c 19d7 bbbd de87 db3c 8d62 0dbd
000000d0: 5182 97bc 8076 f53c 6545 853d 6497 c3bd
000000e0: bdba 9a3e 66c2 a1bd 0d24 1dbd a6d8 a1bd
000000f0: 274e bfbb 40a7 c73d f343 c7bc 6568 883c
-0.15020393 -0.08843376 0.23206314 0.10894876 0.19539173 -0.05600046 0.14655128 0.2862029
-0.02738207 -0.03776512 -0.07924683 -0.07201371 -0.1413386 0.13116305 0.054676317 -0.03100219
-0.015338818 0.048220694 -0.08410703 0.04054671 0.12217134 0.15591797 -0.07087964 -0.09410562
0.058032207 -0.12620465 -0.16951017 0.04264879 0.14927389 -0.08074081 0.09830065 0.0011788604
0.12520747 0.06401258 0.13103032 0.1167582 0.05767172 0.016310109 -0.17224623 -0.021345949
0.070329875 0.027349593 0.099672645 0.018671928 -0.051989935 -0.02405581 0.07658659 -0.061508752
0.030259088 -0.09171886 0.026798185 -0.034517813 -0.018494757 0.029963732 0.065073766 -0.0955036
0.30220595 -0.07898407 -0.03836446 -0.079026505 -0.005838174 0.09748697 -0.024324393 0.016651342

scale2.1.1.running_mean f4 [64]
00000000: e179 dac0 dda1 21c1 aed1 36bf 332e 06c1
00000010: a517 dbc0 34c6 fac0 6f05 fdc0 9496 91c0
00000020: 70ac 25c0 01c4 b2bf afed 0ec1 c450 fdc0
00000030: 909b bd3e 7c0a 9cc0 dc4d 2ec0 a580 73c0
00000040: d4d9 28c0 3345 8cc0 c558 b7c0 86fb 93c0
00000050: 6835 e3c0 396e 183f a8c9 df40 81cf c83f
00000060: 1572 31c0 25b7 d6bf cf2d b3bf c963 40c0
00000070: 8977 11c1 95ce 01c1 378c 24c0 cb08 73c0
00000080: 1677 8740 4f28 9ac0 dc04 32c0 4dae c3c0
00000090: 7a8b 3ac0 cdd5 fa3f 814e a13f 7074 7240
000000a0: 467f 9a3f 679f 4540 1771 5ac0 e57a 13c1
000000b0: 7373 b53f 3be9 1a41 7d12 a5c0 808a 3ec1
000000c0: 0cf1 01c1 fddd 13c0 12c2 85be 4242 4b40
000000d0: bd39 083c 6cbf 92c0 8e27 18c1 6e46 c6c0
000000e0: 3e37 a6c0 bd3f 9940 3cb2 cc3f 37a7 29c1
000000f0: 01ab 08c1 be70 1dc0 6c3f a540 587b 9440
-6.827378 -10.102017 -0.71413696 -8.386279 -6.8466363 -7.8366947 -7.9069133 -4.549631
-2.5886497 -1.3966066 -8.933028 -7.916109 0.37032747 -4.87628 -2.7235022 -3.8047268
-2.6382952 -4.383447 -5.729586 -4.6244535 -7.1002693 0.59543186 6.9933662 1.5688325
-2.772588 -1.6774641 -1.3998355 -3.0060904 -9.091683 -8.112935 -2.571058 -3.7974117
4.233287 -4.8174205 -2.7815466 -6.115027 -2.914763 1.9596497 1.2602082 3.7883568
1.2070091 3.0878541 -3.4131525 -9.217504 1.4175857 9.681941 -5.158507 -11.908813
-8.121349 -2.310424 -0.26124626 3.175919 0.008314547 -4.585867 -9.509657 -6.1960974
-5.1942434 4.7890306 1.5991893 -10.603324 -8.541749 -2.4600062 5.163992 4.6400566

scale2.1.1.running_var f4 [64]
00000000: 1f94 7e41 be2c 2742 d770 d240 5f0d 8341
00000010: bd05 2b41 c508 4241 6782 7541 ba14 c340
00000020: e248 3e41 6aad d240 c2e3 0342 e97c f541
00000030: 5826 7541 6e80 8e41 0316 d840 c53f 1541
00000040: 6bf3 0741 a4b5 0141 631f 5e41 a666 3741
00000050: 8822 3d41 a422 c540 b288 1841 a307 c040
00000060: 44ae 0541 9b34 3f41 c4a0 a041 b31e 0941
00000070: bab4 9740 f13e 3342 bd48 c040 565d 4e41
00000080: a09c 8d40 5d2e 2a41 77c1 0e41 c32c 5141
00000090: 7557 3341 e00a b540 6499 8840 2a9d af41
000000a0: b7e6 0f41 bc2a 4040 d792 ed40 e0de 8f41
000000b0: 9d2e 1541 f4be a941 429f a241 ca68 4742
000000c0: bde2 3c41 5a57 4b42 355b d940 95c4 8440
000000d0: 9619 2741 ce8f 7341 973d be41 ad15 9d41
000000e0: cb96 ba40 8e47 8740 8225 9540 bc33 e841
000000f0: 9d66 ac41 6591 fd40 65bb 2e41 7621 a841
15.911162 41.793694 6.5762744 16.381529 10.688901 12.127141 15.3443365 6.09628
11.892794 6.5836687 32.97242 30.685991 15.321861 17.81271 6.752687 9.328069
8.496928 8.106846 13.882663 11.462561 11.8209305 6.1604786 9.533373 6.000932
8.355045 11.950343 20.078499 8.569995 4.7408113 44.811466 6.008879 12.897787
4.4253693 10.636319 8.922233 13.073428 11.208852 5.6575775 4.2687244 21.95174
8.993827 3.0026083 7.424175 17.983826 9.32388 21.218239 20.327763 49.852333
11.805356 50.835304 6.7923837 4.148997 10.443747 15.222609 23.780073 19.635584
5.8309073 4.2274847 4.6608286 29.02526 21.550104 7.9239984 10.920751 21.016338

scale2.2.0.weight f4 [64, 64, 3, 3]
00000000: df14 3a3d ee5e 38bd ac73 d3bb 6ec5 9a3d
00000010: 22cc f8ba 875b d4bb 8fef 623d a394 dcbb
00000020: 70ac 92bc af91 243d 49bd cf3c 3b92 fabc
00000030: 86df 893d 7be9 c03c b5d7 2dbd 9be1 d23d
00000040: 56cb 863d 7b0f 9ebc 1f3a 6a3c 2c80 8ebc
00000050: 60a4 afbd b009 7f3d 003e 843d d787 d5bc
00000060: 25d7 eb3d 485a 093e 5347 053d 5c97 f03b
00000070: 7939 edbc 58c2 cbbc 2bd0 ea3c d8b0 e6bc
00000080: 2343 29bb 372d 663c 1f38 29bd 6a72 10bd
00000090: 2f64 8fbd 981d 13bd 1996 b4bd c4d8 98bd
000000a0: ed6e 9bbc e7e4 63bd fa5c ebbd 73b7 dcbd
000000b0: cf21 22be e79c 55bd ba04 e9bd a1b1 ec3c
000000c0: 8878 27bd bddc 59bd 80c7 e73c bda8 30bc
000000d0: 31ea 93bc d4ff 753d a5ae a93c 2bb9 2ebd
000000e0: 8cc5 6bbd 4f4e bd3b 0d4b b6bb b958 6bbd
000000f0: cd8f ae3c 3caa 413d 5095 01bd 84ff 0fbd
00000100: 1ab3 6dbc 857f 5abd f0da 8f3b 00e4 7a3d
00000110: 0fc8 053d 3b7c 06bd 1337 adb9 2843 c13c
00000120: 0de3 7ebd eb70 39bd dcd6 df3c 0aec 7ebc
00000130: 6a34 14bc 5cac 4b3d 44ac 1b3c 4e41 d2bc
00000140: 6985 adbb 8b4c dd3d 6f1f c23d cf66 bdbd
00000150: 4602 7a3d 02ab ab3c d6cd c1bd 509f 883d
00000160: 54a8 893b 3122 a5bd 0339 adbd fcff 2abe
00000170: 8103 023d d44d 81bd 506c debd 65c9 283d
00000180: d718 febc 96e4 bbbd 09a8 6d3d 0c4d 82bc
00000190: 8e0d c0bd 1c2f 39bd 17d5 4d3c 741b 80bd
000001a0: c250 0fbd 2e9a 093d 7027 6cbc cad4 57bc
000001b0: 3351 b0bc 38fd 7b3c 3719 24bd eb5a 93bc
000001c0: 483e da3c 9aab dcbb 46c1 693c 9364 513d
000001d0: 5001 693c 5648 fb3b bed9 0dbc 6ed7 94bd
000001e0: 300c e53c 304f 12bc 5efe 65bd a7f3 b13c
000001f0: 4bf9 363c b2f2 72bc 3464 e9bd e231 11be
00000200: 18c1 59bd 066b d6bd a376 05be 834e 09bd
00000210: d299 c2bd 09ac 12be 952a 80bd 2f26 dd3d
00000220: 4d1d 033d d925 533b c27a 023e e128 593d
00000230: 91ab 463c 6b9d b03d 8b29 fcbc d2f2 b2bd
00000240: 62bf 19bd e483 89bd ae56 e0bc 77d8 963c
00000250: 893f 42bc 7cad f03c 63b3 fe3c 80cc e1bc
00000260: 64b2 95bd 99f2 7c3d 31e7 41bb 2414 b3bc
00000270: bf4c ad3c 2a49 3fbd c6c6 6ebd 9416 b23a
00000280: b19c 5fbd ba76 3ebd 8310 683c 3779 24bd
00000290: 2d85 1cbd e9c9 a53d 3d97 c63c 1403 093b
000002a0: d83f c23d 84ea ac3c e4dd eabc 34e7 06bc
000002b0: 97d6 0abb 27a1 b4bd c016 02bd 15df ccbb
000002c0: 6093 a3bd 7017 3dbd 3baf b9bc 2448 e1bd
000002d0: 77c0 653c e2f8 aabd 828d aebd 14df f73c
000002e0: d296 babd 0183 e4bd 3406 483d f3c3 afbd
000002f0: c8ec edbd 1b95 463d 0a88 0e3e 805f a03c
00000300: e3c2 393b 10b5 b43d 34ae 36bd f7a3 eb3c
00000310: dbc8 c63d 68b4 013b 4527 81bc d382 1cbc
00000320: 183e 033d e488 84bd 6a45 05bd d0b1 793d
00000330: e87c a0bd 956c d9bc be19 9e3d 24a1 d7bd
00000340: dec9 c9bd fdf7 adbc ac56 23be 25df bcbd
00000350: 96e2 ad3d 512b 06be 154a 83bd ac96 123e
00000360: 4455 1e3b a2a0 38bd e7e3 a4bc 3894 883d
00000370: 0ed1 ff3c cf23 393d fbaa 9b3c e01b 14bd
00000380: d7f1 9cbd 055b 963d 3023 6cba 8302 aebd
00000390: f097 b73d 0ccd fe3c 03c3 f9bc 0d4f 123e
000003a0: e27e b83d 245c 5f38 1f47 dbbc 1fdf c9bb
000003b0: 9313 023d cf9f 42bc e199 ca3b 2838 383d
000003c0: d2e4 9b3c a77a 823c f43b 103d f3fe 5b3c
000003d0: 6529 c9bd 29fc 14be 2a05 a43b 4d21 50bc
000003e0: 97f1 83bd 55ea a93c cb3c 90bc e920 a7bd
000003f0: 761a fd3d 4c54 593d 37ea b8bc ae9a b93d
0.04543006 -0.045012407 -0.006452998 0.07557188 -0.0018981735 -0.0064806375 0.055404242 -0.006731586
-0.01790449 0.040177997 0.025358813 -0.030587306 0.06732087 0.023548832 -0.042442042 0.10296937
0.06581752 -0.019294491 0.014296084 -0.017395101 -0.08576274 0.062265098 0.06457138 -0.02606575
0.11515645 0.13413346 0.032538723 0.007342262 -0.02895807 -0.024872944 0.028663715 -0.028160498
-0.002582737 0.014048866 -0.041313287 -0.035265364 -0.070015304 -0.035916895 -0.08817691 -0.0746322
-0.018973792 -0.05563822 -0.11492343 -0.10777178 -0.1583321 -0.052151587 -0.11377855 0.028893294
-0.040886432 -0.053189028 0.028293371 -0.010782418 -0.018056007 0.06005843 0.02071316 -0.04265706
-0.057561442 0.0057771574 -0.005563146 -0.05745766 0.021308804 0.04728149 -0.031636536 -0.035155788
-0.014508033 -0.05334427 0.004390113 0.061252594 0.032661494 -0.03283332 -0.00033038165 0.023591593
-0.06222825 -0.045273703 0.027324133 -0.015559206 -0.0090457 0.04972492 0.009501521 -0.025665905
-0.0052954447 0.10805615 0.09478652 -0.09248125 0.061037324 0.020955566 -0.09463088 0.066710114
0.0042009745 -0.08063162 -0.0845814 -0.16699213 0.031741623 -0.06313673 -0.10860503 0.04120769
-0.031017704 -0.09174459 0.05802158 -0.01590588 -0.09377585 -0.045210943 0.012563012 -0.06255236
-0.034989126 0.033594303 -0.0144136995 -0.013173291 -0.021523094 0.015380196 -0.04006311 -0.017987689
0.026641026 -0.0067343237 0.014267271 0.051121306 0.014221504 0.007668535 -0.008657871 -0.072676525
0.027959913 -0.008930013 -0.056150787 0.021722628 0.0111678345 -0.014828371 -0.11396065 -0.14179185
-0.053162664 -0.10469632 -0.13033538 -0.03352214 -0.09501995 -0.14323439 -0.06258122 0.107982986
0.032010365 0.0032218604 0.12742141 0.0530175 0.012125866 0.08623775 -0.030781528 -0.087377205
-0.037536032 -0.06714609 -0.027385082 0.018413765 -0.011855968 0.029379599 0.031091398 -0.027563334
-0.07309416 0.061754797 -0.0029587264 -0.02186019 0.02115476 -0.046700634 -0.058295034 0.0013587051
-0.054592792 -0.046499945 0.014164093 -0.040154662 -0.038212944 0.08095152 0.024242038 0.0020906376
0.094848335 0.02110792 -0.028670259 -0.008233834 -0.0021185034 -0.088198 -0.031759977 -0.0062521794
-0.07987094 -0.04616493 -0.022666564 -0.11000088 0.014022938 -0.08348252 -0.08523084 0.03025774
-0.09110798 -0.111577995 0.04883404 -0.08582296 -0.11617428 0.04848204 0.13919082 0.019576788
0.0028344921 0.088235974 -0.044599727 0.028764708 0.09706279 0.0019791368 -0.015765795 -0.009552675
0.03204164 -0.06471422 -0.0325369 0.06096059 -0.07836324 -0.026541034 0.07719754 -0.10528782
-0.09852956 -0.021236414 -0.15951031 -0.09222249 0.084904835 -0.13102461 -0.064106144 0.1431529
0.002415971 -0.045075066 -0.020128204 0.066688955 0.031227615 0.045200165 0.019002428 -0.036159396
-0.07663315 0.07341579 -0.0009007929 -0.08496573 0.08964527 0.031103633 -0.030488497 0.14287968
0.09008576 5.3253156e-05 -0.026767312 -0.0061606313 0.03175695 -0.011878922 0.0061828946 0.04497543
0.019030008 0.015927626 0.035213426 0.013427484 -0.098223485 -0.14549316 0.0050054984 -0.012703252
-0.06442564 0.020741621 -0.017607113 -0.08160574 0.12358563 0.053058907 -0.02257262 0.09062706

scale2.2.1.weight f4 [64]
00000000: 1002 7f3f 90d9 5e3f 805a 7b3f a2bb 703f
00000010: 4236 583f 1ea6 753f 4f72 943f bb0e 6d3f
00000020: e928 ab3f d759 7a3f 2a83 763f e28a 6f3f
00000030: 6113 643f 0f8f 793f 1e03 5d3f 6d6c 8d3f
00000040: 6523 7b3f 5b08 713f 8b9d 7c3f 102f 8b3f
00000050: 94d5 5c3f 25eb 6a3f 5757 5c3f bb4c 643f
00000060: 8b3e 763f dfd2 773f 32e3 923f 42cc 6a3f
00000070: a598 803f 2907 633f 01b0 523f ea75 583f
00000080: c4d5 863f 9292 6e3f 6132 673f 391d 873f
00000090: a530 853f c60a 633f a956 653f aa98 603f
000000a0: 5e2e 613f 8c7c 713f cf53 933f 40ce 8d3f
000000b0: 0cff 833f 9487 723f 54f2 5a3f 9c56 693f
000000c0: f82a 883f c144 623f 9dfe 803f 89ea 8c3f
000000d0: dede 713f 786f 643f 580b 673f 771f 673f
000000e0: 09b6 763f 21ec 983f f03e 8c3f 83d2 5c3f
000000f0: 4812 8a3f 779a 553f 7100 8b3f fce3 9f3f
0.9961252 0.87050724 0.9818497 0.94036305 0.8445779 0.959566 1.1597384 0.926006
1.337186 0.97793335 0.9629389 0.93571293 0.8909207 0.97483915 0.8633288 1.1048714
0.9810088 0.94153374 0.9867789 1.0873737 0.86263394 0.9176505 0.8607077 0.8917958
0.96189183 0.9680614 1.1475585 0.9171792 1.0046583 0.886828 0.8229981 0.8455492
1.0533986 0.931924 0.9031125 1.0555793 1.040547 0.88688314 0.8958536 0.87732947
0.87961376 0.9433067 1.1509951 1.1078568 1.0312209 0.94738126 0.85526013 0.9114778
1.0638113 0.8838616 1.0077702 1.1009074 0.94480693 0.8923259 0.90251684 0.90282387
0.96371514 1.1947061 1.0956707 0.86258715 1.0786829 0.8343882 1.085951 1.249145

scale2.2.1.bias f4 [64]
00000000: 10ca 82bd c463 493c 014b cabd 65d4 233d
00000010: 9296 9abd 4676 8ebb 16e4 503c 7f20 d63d
00000020: 0f63 96bd e76e 6bbe e77f a4bd 25ff 21be
00000030: f057 81ba 484d 473e 9431 0bbd 5801 13be
00000040: 4386 0ebe 3882 a23d dff0 623e 38d9 913d
00000050: bd6a 093c 12c4 2f3d 9722 0ebd ac31 49be
00000060: b6ca 84bd 9374 9abd e8f8 3bbd a12d b93d
00000070: e05b d83c 5543 18bd 74dc 9dbd f2e7 93bd
00000080: a796 743d 871e 8fbd 2900 3f3d 8443 b73d
00000090: c2b9 1dbd 8d0d 983d 64bc 42bb a1a2 5cbc
000000a0: 6edc a7bd 417d f83c de80 50bd a2b8 213b
000000b0: 49ab bc3c 9931 7e3d 956e c5bd da6c 8cbd
000000c0: bce7 1abd e976 9b3d c8da 8f3b 420a 09be
000000d0: e885 e0bd fdb1 f23d 8a6a c6bd 7bea febd
000000e0: 0fc0 ef3d 48fe dc3c 980b 68bd 8042 30be
000000f0: 40ce 86bb 5d2f 37be 4834 9dbd 1d19 46be
-0.063861966 0.012291852 -0.09877587 0.039997477 -0.0754825 -0.0043475954 0.012749692 0.10455417
-0.07343113 -0.22991525 -0.08032208 -0.15819986 -0.0009868126 0.19463074 -0.03398283 -0.14355981
-0.13918404 0.079349935 0.22162198 0.07121509 0.008387265 0.042911597 -0.034700956 -0.19647855
-0.064839765 -0.07541766 -0.045891672 0.09041906 0.026410997 -0.037173588 -0.07708064 -0.072219744
0.059713986 -0.069882445 0.046631012 0.089484245 -0.03850723 0.074244596 -0.002971434 -0.013466508
-0.081963405 0.030333163 -0.050904147 0.00246767 0.023030894 0.06205902 -0.096402325 -0.06856699
-0.037818655 0.0759104 0.0043900944 -0.1338282 -0.109630406 0.11850355 -0.096882895 -0.12447067
0.11706554 0.02697672 -0.05665168 -0.17212868 -0.0041139424 -0.17889161 -0.076759875 -0.19345517

scale2.2.1.running_mean f4 [64]
00000000: aff3 01bf 576f a73f 18c5 4cbf 2691 adbf
00000010: e653 643e 48d5 5bc0 aeb7 053f 5434 75c0
00000020: ad20 0ebe 0eaf c63e 824e 2fc0 a2bd e940
00000030: e96a 88c0 c603 12c0 8c9a c73f 683c 073f
00000040: 527d 2a40 18cd 0cbf 66bc 93c0 2297 49c0
00000050: dcf3 5540 8f12 d9bf d1ed d2c0 6919 cfc0
00000060: 5363 d6bf 2c2f a6bf 3347 23bf 95ae 6ec0
00000070: c8e8 19c0 1a71 e4c0 3855 5d3f 8e3f b7c0
00000080: 4cd9 17bf 4d8a 45bf 1389 0ac1 36d1 0a3f
00000090: 91ce bfbe 4c97 c9bf 68df b63e 7183 10c0
000000a0: e08f c2bf 110e 30c0 8cb2 1f3e 99d7 31bf
000000b0: 0c14 f6bf a4f2 85c0 3e98 a7bf 893b 1bc0
000000c0: 6b8c b3bf b614 76c0 b22c 4bc0 0e5c cd3e
000000d0: 1bfa 023f 6bfa 293f 38b8 b540 5beb 85c0
000000e0: f1c5 d8be 7746 10bf 3dce 90bf da51 36c0
000000f0: d0ab d1bf 47cb 6abc f534 28bf edc2 a33e
-0.50762457 1.3080853 -0.7998824 -1.3559921 0.2229763 -3.4348927 0.522334 -3.8313189
-0.13879652 0.3880543 -2.7391667 7.3043985 -4.2630506 -2.2814803 1.5594039 0.5282655
2.663899 -0.5500045 -4.616748 -3.1498494 3.343009 -1.6958789 -6.5915303 -6.471852
-1.6749061 -1.2983146 -0.63780516 -3.7294056 -2.4048328 -7.1388063 0.8645816 -5.726508
-0.59315944 -0.77164155 -8.658465 0.5422548 -0.37462285 -1.5749297 0.3571732 -2.2580225
-1.5200157 -2.7508585 0.15595454 -0.694696 -1.9224868 -4.185869 -1.3093336 -2.4255087
-1.4027227 -3.845014 -3.174603 0.40109295 0.5116288 0.6639773 5.6787376 -4.18498
-0.42338517 -0.5635752 -1.1312939 -2.8487458 -1.6380558 -0.014330692 -0.65705806 0.31984654

scale2.2.1.running_var f4 [64]
00000000: 3262 4a40 9698 bb41 cf58 e940 841d 9840
00000010: 3dc1 7341 2493 bc41 54b5 4740 25d7 5341
00000020: 4bbc 0e40 0631 8d40 26cc 9840 90f3 bd41
00000030: 4a3c 7341 d7f1 8e40 d387 9d41 ef76 3640
00000040: c8b4 bd40 2c5b d140 0a6c 3541 f2d3 8740
00000050: dda5 9f41 c2b5 1641 d738 3d41 ddb6 5f41
00000060: e05d 9340 a455 9f40 5686 1940 5d13 b840
00000070: 76e5 b340 feb1 3c41 d66e 3b41 6936 fa40
00000080: 4bc8 4c40 fa5c 6840 3a8e a241 81fc 8640
00000090: 3bdb 7c40 c451 2441 1487 1541 bc8e 2e41
000000a0: 752a 1b41 1294 8541 cfb4 4740 18b8 7940
000000b0: 2846 5640 1ade fa40 d491 cb40 5bd9 0341
000000c0: e18b 8440 7146 0641 6a54 0541 6ff6 5d40
000000d0: 382b 5940 c2fe ef40 038e 3b41 16da 0241
000000e0: 0db3 b040 00b3 5240 e72e f73f fa73 2541
000000f0: af94 0b40 98a9 cc40 2c54 9740 40e8 2a40
3.1622434 23.449505 7.292091 4.753603 15.234677 23.571846 3.1204424 13.2400255
2.2302425 4.4122343 4.7749205 23.743927 15.202219 4.4670215 19.69132 2.8510091
5.928318 6.5423794 11.338877 4.244622 19.955988 9.419374 11.826377 13.982144
4.6052094 4.979204 2.3988242 5.7523637 5.6217604 11.793455 11.71456 7.819142
3.199725 3.6306748 20.319447 4.218323 3.9508808 10.269962 9.345478 10.909847
9.6978655 16.6973 3.1204107 3.9018612 3.348032 7.839612 6.3615513 8.240565
4.142075 8.392198 8.333109 3.468166 3.3932629 7.4998484 11.722171 8.178244
5.521857 3.2921753 1.9311188 10.340815 2.18095 6.3957024 4.729025 2.6704254
