Superpixel_methods/SSN/log/newmodels/model1_500k.pth (torch, 873395 bytes, 32 tensors)

scale1.0.0.weight f4 [64, 5, 3, 3]
0.74218345 1.3398428 0.6591018 1.6659714 2.4252188 1.5163386 0.6305483 1.1543863
0.4995974 -0.116326965 -0.2113313 -0.11647972 -0.14978935 -0.24738802 -0.12434374 0.008796065
-0.07388263 0.011491561 0.3592802 0.49705246 0.41416088 0.5103515 0.65750074 0.54317975
0.45150858 0.57026917 0.45600262 0.0009632229 0.0006396306 0.0019105404 -0.0011256366 3.9593655e-05
0.0015861817 -0.006848964 -0.005229462 -0.004351521 -0.010062573 -0.011795309 -0.024767691 -0.0016748321
-0.0030628515 -0.013135151 -0.014366199 -0.014798906 -0.023285398 0.26528382 0.026155896 -0.2935051
0.2316095 -0.13559173 -0.47433034 0.045968257 -0.28355053 -0.5040644 2.6348495 3.121832
2.7489545 3.0654747 3.711055 3.2615287 2.4559548 2.972504 2.6174653 0.42754683
0.53629094 0.36445388 0.6837331 0.79470944 0.58577025 0.5205594 0.608521 0.4252565
0.000104185005 0.0037640855 0.0015098285 0.00021307544 0.0010419356 0.0018261967 -0.0024574555 0.0012747508
-8.929376e-05 0.0025189219 -0.0011101821 -0.00050027063 -0.005795258 -0.0038314788 -0.0071165473 -0.002454643
-0.0015957506 -0.00020705335 0.5909811 1.099989 0.44646823 1.4412329 2.1900756 1.3062623
0.48287287 1.0287559 0.3597875 -0.1814017 -0.31207618 -0.13890883 -0.21928516 -0.3640809
-0.15909137 -0.05811391 -0.17959502 -0.024009457 -1.0000668 -1.0236566 -0.9216426 -1.0683326
-1.0665216 -0.9563281 -0.8987937 -0.89571834 -0.7893304 0.004001947 -0.002461573 -0.0135655925
0.0031572434 -0.0016555325 -0.013450943 -0.0056806775 -0.015549555 -0.02730028 0.016180608 0.017087504
0.0055270395 0.01872042 0.019367352 0.009138832 0.023428677 0.022235803 0.01760667 -0.83878756
-1.3483828 -0.69267994 -1.7267635 -2.420535 -1.5379093 -0.9299688 -1.4677035 -0.78020513
-0.26942155 -0.19411601 -0.282252 -0.24647507 -0.14489713 -0.25206172 -0.3833837 -0.30009973
-0.36340323 0.49368212 0.48596913 0.5009402 0.44429925 0.43314293 0.44948983 0.38114032
0.37754348 0.39502007 0.00022599443 0.0009696314 0.0061984733 0.0033296694 0.0011354337 0.0049737436
-0.0011233384 -0.002728974 -0.0001525412 -0.0065601463 -0.0071168714 -0.012227634 -0.002479081 -0.0013124234
-0.005497504 -0.008198915 -0.0077262055 -0.012613421 0.42609036 0.7653929 0.52605325 0.5862919
0.9937636 0.69018584 0.02132267 0.32054803 0.11260512 0.2629443 0.18361366 0.25553623
0.30660385 0.21592541 0.29198873 0.49995756 0.43502757 0.48055467 -0.73530024 -0.6949704
-0.59677136 -0.6917168 -0.64906746 -0.56825054 -0.5853765 -0.53392553 -0.4745831 -0.09929203
-0.18834534 -0.12858538 -0.09957124 -0.18374877 -0.12680952 -0.10581345 -0.1953794 -0.12561299
0.03240796 0.031882398 0.019115075 -0.007323045 -0.007455939 -0.022759104 -0.01088963 -0.011571435
-0.026530895 -0.95789003 -1.5096431 -0.84087735 -1.7977376 -2.5282035 -1.6332828 -0.8316874
-1.3919849 -0.7180675 0.13456623 0.26586133 0.19305596 0.17460316 0.3212873 0.23093298
0.036357526 0.14378613 0.06643696 0.3813209 0.34584707 0.36373928 0.27982304 0.23754866
0.27790257 0.2259778 0.19040881 0.22523041 0.0017210365 -0.0124390265 -0.01777422 0.0041298196
00000000: bcff 3d3f f87f ab3f e5ba 283f 8d3e d53f
00000010: c936 1b40 6217 c23f 9d6b 213f eec2 933f
00000020: 3bcb ff3e d53c eebd 3b67 58be eb8c eebd
00000030: 6162 19be 4953 7dbe eea7 febd 5f1d 103c
00000040: c74f 97bd 1a47 3c3c 93f3 b73e a97d fe3e
00000050: e50c d43e 65a6 023f f851 283f d40d 0b3f
00000060: 222c e73e 29fd 113f 2d79 e93e cb80 7c3a
00000070: e2ac 273a 196b fa3a 198a 93ba 5d11 2638
00000080: 6de7 cf3a 466d e0bb e85b abbb 3497 8ebb
00000090: 7ddd 24bc 1d41 41bc 9de5 cabc 0a86 dbba
000000a0: 1fba 48bb d134 57bc 3560 6bbc 1c77 72bc
000000b0: 05c1 bebc 48d3 873e e444 d63c 4d46 96be
000000c0: 0a2b 6d3e 8fd8 0abe 6ddb f2be 3649 3c3d
000000d0: 892d 91be 5d0a 01bf 60a1 2840 18cc 4740
000000e0: dfee 2f40 bd30 4440 ed81 6d40 e3bc 5040
000000f0: 5d2e 1d40 813d 3e40 8d84 2740 6be7 da3e
00000100: 5d4a 093f b399 ba3e 2209 2f3f 1472 4b3f
00000110: 0af5 153f 6143 053f 08c8 1b3f 38bb d93e
00000120: e67d da38 e0ae 763b 70e5 c53a 016d 5f39
00000130: 8f91 883a fe5c ef3a 430d 21bb 8a15 a73a
00000140: 3943 bbb8 7f14 253b 8883 91ba 9824 03ba
00000150: 26e6 bdbb 8c19 7bbb ed31 e9bb 13de 20bb
00000160: 8128 d1ba 761c 59b9 8a4a 173f 71cc 8c3f
00000170: 7c97 e43e 527a b83f 332a 0c40 9a33 a73f
00000180: 1d3b f73e 46ae 833f 1136 b83e 5ec1 39be
00000190: 73c8 9fbe 1e3e 0ebe 4a8c 60be d068 babe
000001a0: d9e8 22be da08 6ebd c2e7 37be 7baf c4bc
000001b0: 3002 80bf 2e07 83bf c5f0 6bbf 1fbf 88bf
000001c0: c883 88bf ebd1 74bf 5817 66bf cc4d 65bf
000001d0: 8f11 4abf c422 833b 5852 21bb 3842 5ebc
000001e0: c1e9 4e3b 74fe d8ba 5861 5cbc fa24 babb
000001f0: 90c3 7ebc d6a4 dfbc 328d 843c 18fb 8b3c
00000200: 2b1c b53b 915b 993c 48a8 9e3c 0abb 153c
00000210: 7fed bf3c dc27 b63c dd3b 903c c8ba 56bf
00000220: cf97 acbf 7953 31bf 9606 ddbf 0cea 1ac0
00000230: 36da c4bf 6f12 6ebf b5dd bbbf 86bb 47bf
00000240: 9ff1 89be 59c6 46be 5683 90be f663 7cbe
00000250: ea5f 14be 3c0e 81be de4a c4be aca6 99be
00000260: fd0f babe e7c3 fc3e f2d0 f83e 9e3d 003f
00000270: 317b e33e e9c4 dd3e 8823 e63e d324 c33e
00000280: 614d c13e 1240 ca3e ebf8 6c39 dd2e 7e3a
00000290: 901c cb3b 9536 5a3b d5d2 943a c9fa a23b
000002a0: fb3c 93ba 96d8 32bb 77f3 1fb9 7ff6 d6bb
000002b0: a534 e9bb 6a56 48bc 1478 22bb 9f05 acba
000002c0: 6824 b4bb be54 06bc 1c2c fdbb 86a8 4ebc
000002d0: 8428 da3e caf0 433f 6dab 063f 3a17 163f
000002e0: 4b67 7e3f 05b0 303f e1ac ae3c df1e a43e
000002f0: 839d e63d a3a0 863e 3805 3c3e a5d5 823e
00000300: 2efb 9c3e 8d1b 5d3e 8c7f 953e 70fa ff3e
00000310: efbb de3e 430b f63e a33c 3cbf 95e9 31bf
00000320: 02c6 18bf 5a14 31bf 4929 26bf de78 11bf
00000330: 3cdb 15bf 58af 08bf 8efc f2be 9f59 cbbd
00000340: 9add 40be e3ab 03be 02ec cbbd a328 3cbe
00000350: 5bda 01be b9b4 d8bd 8a11 48be b1a0 00be
00000360: 36be 043d 1e97 023d 3897 9c3c 27f6 efbb
00000370: f350 f4bb 4d71 babc 6b6a 32bc 1e96 3dbc
00000380: 5257 d9bc 4838 75bf fc3b c1bf bd43 57bf
00000390: 441c e6bf 16ce 21c0 690f d1bf 77e9 54bf
000003a0: 902c b2bf 46d3 37bf bbcb 093e fa1e 883e
000003b0: 76b0 453e 2ccb 323e c57f a43e b279 6c3e
000003c0: a1eb 143d ac3c 133e 1a10 883d 7e3c c33e
000003d0: de12 b13e 093c ba3e f744 8f3e f53f 733e
000003e0: 3f49 8e3e b966 673e 87fa 423e cda2 663e
000003f0: 6794 e13a 0fcd 4bbc 3e9b 91bc 7053 873b

scale1.0.1.weight f4 [64]
0.9149956 0.85795474 0.9819849 0.83113444 0.62927085 0.8636705 0.84280086 1.0376595
0.75586987 0.9059411 0.8128581 0.72424686 0.9616799 0.614159 0.66414773 0.55065036
0.87941384 0.84687805 0.9298183 0.55130374 1.0125881 0.8372305 0.84124565 0.5421941
0.8919171 1.0269507 0.87796897 0.8898669 0.80632395 0.8413614 0.8681373 0.8893648
0.9627986 0.8143908 0.9429328 0.9151892 0.9693642 1.0234613 0.8508649 0.9314302
0.9396327 0.74943143 0.82173204 1.0045942 0.8038396 0.90993017 0.9911283 0.70289356
0.58655787 0.86864495 0.5223673 0.9758584 0.90886086 0.7174134 0.987153 0.6711264
0.9314682 0.81819123 0.8173246 0.75034356 0.9286286 0.7316806 0.7984179 0.9229528
00000000: 273d 6a3f eca2 5b3f 5d63 7b3f 3ac5 543f
00000010: e517 213f 8319 5d3f ccc1 573f 07d2 843f
00000020: b080 413f c2eb 673f 7817 503f 3e68 393f
00000030: a730 763f 8639 1d3f 9605 2a3f 6cf7 0c3f
00000040: 4421 613f 00cd 583f 9208 6e3f 3e22 0d3f
00000050: 7d9c 813f bd54 563f e05b 573f 3ccd 0a3f
00000060: ae54 643f 1f73 833f 93c2 603f 51ce 633f
00000070: 3f6b 4e3f 7663 573f 3f3e 5e3f 69ad 633f
00000080: f879 763f ea7b 503f 0b64 713f d749 6a3f
00000090: 4128 783f c800 833f 48d2 593f 3672 6e3f
000000a0: c58b 703f bdda 3f3f 085d 523f 8b96 803f
000000b0: 6fc8 4d3f 2ff1 683f 96ba 7d3f d5f0 333f
000000c0: a828 163f 845f 5e3f ddb9 053f dbd1 793f
000000d0: 1bab 683f 68a8 373f 0fb6 7c3f f1ce 2b3f
000000e0: b374 6e3f fb74 513f 2f3c 513f 8416 403f
000000f0: 9bba 6d3f 6b4f 3b3f 1e65 4c3f a246 6c3f

scale1.0.1.bias f4 [64]
-0.113746256 0.85309565 0.03618495 -0.07046602 -0.1768366 0.056409128 1.1079199 0.10877796
-0.10206746 0.027834902 0.03988574 -0.017300013 0.022712007 -0.06731783 0.019275833 -0.15818608
0.09436237 -0.03364469 0.23157792 -0.05957136 0.062214408 -0.017746229 0.014361753 -0.24860781
-0.0005687915 -0.01907559 0.07170718 0.032009408 0.0116971545 -0.096883096 -0.050931506 0.03509661
0.04740247 -0.021559527 0.3917043 -0.033883747 0.009431725 0.013083005 0.16802523 -0.013658919
-0.043845583 -0.097080946 -0.028878411 -0.028380392 -0.12919897 -0.041773193 -0.062108565 0.036117338
-0.1664692 0.14002404 -0.14906576 0.006821735 0.07852472 -0.012772779 0.045830406 -0.20494846
-0.0030590026 0.03708688 0.17843767 -0.045589518 1.5301999 -0.0111693945 0.9855663 -0.11682435
00000000: ccf3 e8bd 7a64 5a3f ac36 143d 7d50 90bd
00000010: a714 35be 420d 673d 52d0 8d3f fbc6 de3d
00000020: bf08 d1bd 0506 e43c 3b5f 233d c2b8 8dbc
00000030: 880e ba3c eedd 89bd 5ae8 9d3c 88fb 21be
00000040: 0f41 c13d 04cf 09bd c322 6d3e 1901 74bd
00000050: 89d4 7e3d 8a60 91bc 8f4d 6b3c 0c93 7ebe
00000060: f41a 15ba 6944 9cbc 37db 923d 4c1c 033d
00000070: 6ca5 3f3c a56a c6bd 8e9d 50bd 77c1 0f3d
00000080: 1829 423d 9b9d b0bc 778d c83e afc9 0abd
00000090: 8687 1a3c 1a5a 563c ce0e 2c3e a9c9 5fbc
000000a0: 6d97 33bd 60d2 c6bd 6b92 ecbc ff7d e8bc
000000b0: bc4c 04be 5e1a 2bbd 8d65 7ebd c6ef 133d
000000c0: e776 2abe 7662 0f3e b2a4 18be dc88 df3b
000000d0: 92d1 a03d eb44 51bc aab8 3b3d 02de 51be
000000e0: 8c79 48bb 6ae8 173d 5db8 363e 13bc 3abd
000000f0: 97dd c33f d6ff 36bc 134e 7c3f 9b41 efbd

scale1.0.1.running_mean f4 [64]
-1.246557 -0.118561044 1.1330439 -0.9838852 -15.404078 -1.7683237 0.13153353 -0.6295042
1.300964 -0.8785548 -1.0786675 -7.2333336 2.5418327 -1.1787105 0.9564535 1.1067761
1.0697658 0.7336423 0.14688675 0.2378563 1.0950147 -0.0028653718 0.7231853 0.79752123
-1.3072506 0.45025155 -0.94165516 1.2259982 -1.6044571 -1.6490884 2.736059 -1.2500361
1.5001508 -1.5200299 -1.3945779 0.26630974 1.2702031 1.8518816 0.42736015 -1.4849279
-1.406097 0.49770397 -0.55531704 -0.8974316 0.06998286 0.87882406 1.3027624 -13.839519
-1.2861354 13.505072 1.5198455 -0.48806554 0.94009304 -1.1968597 1.871674 -0.07921521
-1.8660921 -0.58264315 0.9761695 0.5689227 -0.16873859 0.8411742 -0.34305108 -0.6346455
00000000: 2e8f 9fbf 22d0 f2bd 9507 913f e7df 7bbf
00000010: 1a77 76c1 6e58 e2bf bab0 063e 3027 21bf
00000020: fd85 a63f f8e8 60bf c711 8abf 7877 e7c0
00000030: 63ad 2240 fcdf 96bf 23da 743f d7aa 8d3f
00000040: 16ee 883f fbcf 3b3f 7b69 163e 9a90 733e
00000050: 7129 8c3f f6c8 3bbb ac22 393f 5a2a 4c3f
00000060: fd53 a7bf 5f87 e63e 5010 71bf 82ed 9c3f
00000070: da5e cdbf 5415 d3bf 971b 2f40 2f01 a0bf
00000080: f104 c03f 5790 c2bf 8781 b2bf c059 883e
00000090: 0496 a23f 750a ed3f f3ce da3e 1e12 bebf
000000a0: fdfa b3bf 0ed3 fe3e 4229 0ebf 14be 65bf
000000b0: 2c53 8f3d 9dfa 603f ebc0 a63f ab6e 5dc1
000000c0: 16a0 a4bf c614 5841 4c8a c23f bae3 f9be
000000d0: f0a9 703f b332 99bf 0393 ef3f 963b a2bd
000000e0: 1bdc eebf 1a28 15bf 3fe6 793f eba4 113f
000000f0: cfc9 2cbe 3157 573f 64a4 afbe 2178 22bf

scale1.0.1.running_var f4 [64]
0.7434845 0.07624832 1.4533837 0.2660776 80.469345 0.40420482 0.05949921 0.7287579
0.5417272 0.4209078 0.16580823 17.71357 1.7328343 0.28191924 0.22887853 0.35209858
0.47878024 0.103318945 0.12154054 0.6103623 0.19739889 0.3280617 0.47435838 0.76763564
0.6660889 0.13608545 0.41011366 0.55316305 0.39743808 0.4334857 3.616826 0.24155007
0.37666783 0.5914264 0.24271199 0.31606314 0.2246827 0.62576246 0.25717345 0.4987395
0.7603866 0.3910573 0.3892623 0.33533415 0.23946106 0.6361914 0.39253217 46.91769
0.2248436 44.009056 0.3058278 0.3952816 0.52025926 0.5768357 0.4820625 0.074994616
0.58336353 0.42665434 0.17380267 0.3631196 0.10210817 0.39751497 0.093670234 0.20499252
00000000: 0055 3e3f 1428 9c3d 7a08 ba3f 533b 883e
00000010: 4ef0 a042 eff3 ce3e 72b5 733d e18f 3a3f
00000020: a2ae 0a3f 3a81 d73e a2c9 293e 64b5 8d41
00000030: 84cd dd3f b857 903e 225f 6a3e 4446 b43e
00000040: af22 f53e e298 d33d 3fea f83d b440 1c3f
00000050: ef22 4a3e b4f7 a73e 1adf f23e c583 443f
00000060: cd84 2a3f fc59 0b3e 6bfa d13e 189c 0d3f
00000070: 017d cb3e d6f1 dd3e 147a 6740 e758 773e
00000080: 9bda c03e b867 173f 7e89 783e 07d3 a13e
00000090: 3913 663e f831 203f 3dac 833e c95a ff3e
000000a0: b2a8 423f aa38 c83e 634d c73e ebb0 ab3e
000000b0: 4835 753e 71dd 223f faf9 c83e b7ab 3b42
000000c0: 673d 663e 4609 3042 7695 9c3e 5a62 ca3e
000000d0: b62f 053f 81ab 133f e5d0 f63e c796 993d
000000e0: 5057 153f 7072 da3e 54f9 313e d0ea b93e
000000f0: 171e d13d 1587 cb3e 2ed6 bf3d 8fe9 513e

scale1.1.0.weight f4 [64, 64, 3, 3]
-0.07477915 -0.10979054 -0.03240801 -0.1145678 -0.1614186 -0.07168686 -0.023628758 -0.060659077
0.010798993 -0.011811724 -0.050223917 -0.005265334 -0.037065145 -0.091922104 -0.0425348 0.041630007
0.0017962902 0.04986876 0.0081003215 -0.015429703 0.019641666 -0.006581455 -0.054602776 -0.01113021
0.024245048 -0.016975446 0.0083058 -0.043614894 -0.024575615 -0.053575113 -0.035555087 -0.0005625185
-0.038869202 -0.035878535 -0.013130677 -0.033810463 0.029897073 0.011275136 0.034605615 0.0228853
0.0023082076 0.026309682 0.029612562 0.007983465 0.031288315 0.0010441293 0.022289548 -0.013875888
0.0270715 0.06162646 0.012601053 -0.02211669 -0.002703951 -0.028766455 -0.04412065 -0.101760834
-0.08380691 -0.076706946 -0.12385342 -0.10607528 -0.08610631 -0.1260325 -0.08474649 0.018275764
-0.01559841 0.018578548 -0.005996059 -0.059559934 -0.022512652 0.042704783 -0.00785912 0.017920896
0.02478671 0.033706438 -0.009060583 0.0448504 0.06634 0.018883988 0.02193256 0.036506154
0.0052526114 -0.06608995 -0.07791998 -0.027970076 -0.07494906 -0.10417987 -0.040129613 -0.023733392
-0.040992364 0.0074105207 -0.038124494 -0.010661186 -0.047874283 -0.031848192 0.0129571855 -0.032519773
-0.043368574 -0.0037870528 -0.022252006 0.026067933 0.0097864615 0.03176697 0.010453675 -0.0089057395
0.015396238 0.014532106 -0.0049221436 0.015594247 -0.008932125 -0.029992186 0.019417515 -0.032286804
-0.06941211 -0.013130266 0.035759162 0.005902457 0.042641923 0.03979946 0.004885639 -0.0022121535
0.03025491 -0.0014734423 -0.010437143 0.02211867 -0.0021045574 0.00015693267 0.03425989 0.029774738
0.044849545 0.0071026403 -0.0027119108 0.010841472 0.02702116 0.015369103 0.04008275 0.011414856
0.008857489 0.0027446533 0.0027470393 -0.006357882 -0.009216005 0.015473782 0.008724482 0.010564734
0.043503176 0.074133046 0.007943 0.08364724 0.13052635 0.053687826 0.008163851 0.04721415
-0.008360871 -0.013519162 -0.05352598 0.031301126 -0.049723357 -0.110077955 -0.01191725 0.04406756
-0.008116176 0.070195764 0.008170942 0.03221166 -0.023344835 0.050247565 0.092858545 0.016442569
-0.02775509 -0.0046164067 -0.051134575 0.021498375 0.021383198 -0.005528102 0.029789548 0.035006043
0.0067746956 0.00488539 0.008334428 -0.013812367 0.04069266 -0.0013315824 0.056925006 0.0049833795
-0.05857515 0.012540567 0.0644554 0.008077781 0.063154675 -0.019228177 -0.006844612 -0.06460623
0.021076258 0.047137875 -0.020745749 -0.036103386 -0.0131310485 -0.06674716 0.0145363165 0.0488777
0.011538178 0.041658916 0.091496356 0.045702614 -0.020482672 0.01749313 -0.012590895 0.0055154995
-0.00080481626 0.030814081 -0.030148147 -0.041441806 -0.0025151935 -0.00405574 -0.013213679 0.019600842
-0.0025895648 0.014182078 -0.01019823 0.02457663 0.060649063 0.025165875 -0.005731425 0.019315872
0.0016052696 -0.009501957 -0.038629957 0.019548982 -0.037549246 -0.093065806 -0.018722896 0.026935374
-0.023767078 0.029973647 0.005201925 0.015807964 -0.03607229 0.024802594 0.051067516 -0.0116294185
-0.033783667 -0.009672489 -0.058059894 -0.0127892895 0.028453998 -0.026340976 0.02166633 0.084419884
0.016636608 -0.010954328 0.044261534 -0.006162805 0.002755198 -0.01024421 -0.045900594 0.002891416
00000000: d025 99bd ddd9 e0bd 43be 04bd 86a2 eabd
00000010: eb4a 25be 8fd0 92bd 1991 c1bc a775 78bd
00000020: 42ee 303c f685 41bc 98b7 4dbd d388 acbb
00000030: 9fd1 17bd a841 bcbd f838 2ebd 3a84 2a3d
00000040: 7f71 eb3a 2f43 4c3d 36b7 043c ddcc 7cbc
00000050: 8fe7 a03c 3fa9 d7bb 29a7 5fbd 7c5b 36bc
00000060: 8d9d c63c 1710 8bbc 0d15 083c 88a5 32bd
00000070: cd52 c9bc 9471 5bbd 36a2 11bd fa75 13ba
00000080: 5035 1fbd 5ff5 12bd 0d22 57bc d77c 0abd
00000090: b5ea f43c 59bb 383c 9ebe 0d3d f479 bb3c
000000a0: 4c45 173b 6787 d73c 0b96 f23c 14cd 023c
000000b0: 2d28 003d 2adb 883a 9298 b63c b157 63bc
000000c0: 0dc5 dd3c 076c 7c3d a674 4e3c 102e b5bc
000000d0: c534 31bb a1a7 ebbc dbb7 34bd fc67 d0bd
000000e0: f5a2 abbd 8818 9dbd dda6 fdbd ff3d d9bd
000000f0: 8158 b0bd aa0e 01be 918f adbd 0eb7 953c
00000100: 7990 7fbc 0a32 983c 977a c4bb 1ef5 73bd
00000110: 746c b8bc 36eb 2e3d 8ac3 00bc d8ce 923c
00000120: 800d cb3c c30f 0a3d d772 14bc 0eb5 373d
00000130: 44dd 873d 98b2 9a3c e9ab b33c 7a87 153d
00000140: 191e ac3b 2b5a 87bd 8394 9fbd 8021 e5bc
00000150: e57e 99bd 415c d5bd f35e 24bd 886c c2bc
00000160: 9ce7 27bd f4d3 f23b 6e28 1cbd 41ac 2ebc
00000170: d317 44bd 4073 02bd 604a 543c 7433 05bd
00000180: 3fa3 31bd 3430 78bb d749 b6bc 6b8c d53c
00000190: 6557 203c 151e 023d e445 2b3c 61e9 11bc
000001a0: 8140 7c3c 1218 6e3c ef49 a1bb 037f 7f3c
000001b0: 0c58 12bc 2cb2 f5bc 7b11 9f3c 2b3f 04bd
000001c0: f027 8ebd 5420 57bc 3378 123d 6669 c13b
000001d0: 4ca9 2e3d c204 233d b617 a03b c7f9 10bb
000001e0: 25d9 f73c 8520 c1ba 8d00 2bbc 3732 b53c
000001f0: 9dec 09bb 4b8e 2439 1954 0c3d 27ea f33c
00000200: 28b4 373d 44bd e83b 50ba 31bb 6ea0 313c
00000210: 7b5b dd3c b1ce 7b3c cf2d 243d 6005 3b3c
00000220: 001f 113c a4df 333b ac07 343b c855 d0bb
00000230: bafe 16bc bf85 7d3c 21f1 0e3c b517 2d3c
00000240: 6330 323d 11d3 973d 5b23 023c 3f4f ab3d
00000250: b3a8 053e c4e7 5b3d acc1 053c a063 413d
00000260: 09fc 08bc 7a7f 5dbc 0f3e 5bbd 9c35 003d
00000270: b8aa 4bbd 8d70 e1bd 9240 43bc 3080 343d
00000280: b6f9 04bc ccc2 8f3d 6adf 053c 60f0 033d
00000290: ab3d bfbc 64d0 4d3d 9f2c be3d 91b2 863c
000002a0: a45e e3bc 3a45 97bb 7d72 51bd 5c1d b03c
000002b0: d12b af3c 1525 b5bb 3609 f43c 7f62 0f3d
000002c0: 44fe dd3b 9f15 a03b 208d 083c 444d 62bc
000002d0: 59ad 263d 7e88 aeba 322a 693d 9e4b a33b
000002e0: 7fec 6fbd f376 4d3c 3101 843d ab58 043c
000002f0: 3d57 813d 6984 9dbc c448 e0bb 4550 84bd
00000300: 1ea8 ac3c a513 413d fdf2 a9bc 25e1 13bd
00000310: 9c23 57bc bcb2 88bd bb29 6e3c fc33 483d
00000320: a00a 3d3c 8aa2 2a3d 7162 bb3d aa32 3b3d
00000330: 47cb a7bc c14d 8f3c 0b4a 4ebc 5dbb b43b
00000340: 4efa 52ba d06d fc3c 3ff9 f6bc e2be 29bd
00000350: f2d5 24bb 03e6 84bb 307e 58bc f291 a03c
00000360: b0b5 29bb f25b 683c 7a16 27bc ee54 c93c
00000370: 276b 783d aa28 ce3c adce bbbb 523c 9e3c
00000380: e967 d23a 19ae 1bbc 723a 1ebd 3025 a03c
00000390: 3dcd 19bd 4999 bebd c260 99bc 93a7 dc3c
000003a0: 2db3 c2bc 4b8b f53c e974 aa3b b47f 813c
000003b0: 8ac0 13bd cf2e cb3c 2c2c 513d 5189 3ebc
000003c0: be60 0abd 5c79 1ebc 36d0 6dbd 2b8a 51bc
000003d0: 5c18 e93c 08c9 d7bc 967d b13c 55e4 ac3d
000003e0: 7f49 883c c879 33bc 954b 353d 5bf1 c9bb
000003f0: 8d90 343b 55d7 27bc 4302 3cbd e97d 3d3b

scale1.1.1.weight f4 [64]
0.6470594 0.7457189 0.7390536 0.7417881 0.7419669 0.5555669 0.61132854 0.69118875
0.7811511 0.5760345 0.7661749 0.70998806 0.5999887 0.785786 0.5077516 0.60787493
0.5885032 0.61441505 0.7492709 0.60243607 0.6907095 0.60105807 0.5964685 0.6547403
0.5838496 0.5645309 0.58011144 0.6046067 0.5999375 0.6577237 0.5745346 0.6176342
0.56190985 0.5704476 0.6549393 0.6255555 0.51673144 0.58306044 0.620334 0.69427633
0.586343 0.47378725 0.91859835 0.8350365 0.79348636 0.6108397 0.57130253 0.6817557
0.46520212 0.71083224 0.35500276 0.4131891 0.58714116 0.5681753 0.49290735 0.4590806
0.6144685 0.49465415 0.62346363 0.47061655 0.7193114 0.6014585 0.548933 0.74874955
00000000: afa5 253f 6fe7 3e3f 9e32 3d3f d3e5 3d3f
00000010: 8bf1 3d3f a239 0e3f 0780 1c3f bff1 303f
00000020: 85f9 473f ff76 133f 0a24 443f c7c1 353f
00000030: dc98 193f 4529 493f 02fc 013f b19d 1b3f
00000040: 25a8 163f 4e4a 1d3f 38d0 3f3f 4039 1a3f
00000050: 56d2 303f f1de 193f 29b2 183f 0f9d 273f
00000060: 2b77 153f 1985 103f 2f82 143f 81c7 1a3f
00000070: 8195 193f 9560 283f b314 133f 461d 1e3f
00000080: 53d9 0f3f db08 123f 1aaa 273f 6824 203f
00000090: 8348 043f 7343 153f 36ce 1e3f 18bc 313f
000000a0: 931a 163f 3e94 f23e 4329 6b3f f4c4 553f
000000b0: ec21 4b3f fe5f 1c3f e240 123f 8b87 2e3f
000000c0: f92e ee3e 1af9 353f ecc2 b53e 868d d33e
000000d0: e24e 163f f073 113f 5a5e fc3e 9d0c eb3e
000000e0: cf4d 1d3f 4f43 fd3e 509b 1f3f a7f4 f03e
000000f0: cb24 383f 2ff9 193f e086 0c3f 0dae 3f3f

scale1.1.1.bias f4 [64]
0.8303351 0.15869178 0.3450214 0.7918673 -0.025846617 -0.12690495 0.41234386 0.30794173
0.79314995 -0.47365424 0.3017828 0.2675552 -0.39616445 0.89846456 -0.030173508 -0.15170784
-0.3799951 -0.12193136 0.4407723 -0.4546448 0.7297952 0.33300957 0.27469835 0.6015727
-0.46083942 0.033539653 0.6295449 -0.26067933 0.19572769 0.15621673 0.4112279 0.5254288
0.08152037 -0.24517575 0.6808051 -0.063706726 0.020433972 0.32632056 0.08136931 0.5751409
0.099022985 -0.042771343 0.8367968 0.5162622 -0.07689541 0.7636407 0.42307693 0.57029015
-0.34962684 0.053570807 -0.2326535 -0.12985373 -0.054023065 0.5442967 0.17552687 0.28407347
-0.1375373 0.57323647 0.39026538 -0.3999932 -0.2875796 0.11483506 -0.13425814 0.33600703
00000000: d790 543f 1980 223e a5a6 b03e d1b7 4a3f
00000010: 49bc d3bc 5ff3 01be bc1e d33e 8aaa 9d3e
00000020: e00b 4b3f cf82 f2be 4683 9a3e fffc 883e
00000030: 11d6 cabe c601 663f 6f2e f7bc 4d59 1bbe
00000040: b88e c2be 26b7 f9bd e8ac e13e 34c7 e8be
00000050: dcd3 3a3f 3b80 aa3e 43a5 8c3e ab00 1a3f
00000060: 25f3 ebbe e060 093d db29 213f c377 85be
00000070: d76c 483e 47f7 1f3e 778c d23e 8082 063f
00000080: 27f4 a63d 5a0f 7bbe 3e49 2e3f ac78 82bd
00000090: 2565 a73c 7d13 a73e f4a4 a63d 6f3c 133f
000000a0: 90cc ca3d 0131 2fbd 5138 563f c229 043f
000000b0: 577b 9dbd f57d 433f 8a9d d83e 89fe 113f
000000c0: 4a02 b3be 106d 5b3d b83c 6ebe 60f8 04be
000000d0: 4a47 5dbd 0757 0b3f 51bd 333e 1472 913e
000000e0: 94d6 0cbe a0bf 123f ddd0 c73e e9cb ccbe
000000f0: a23d 93be a52e eb3d f77a 09be 1d09 ac3e

scale1.1.1.running_mean f4 [64]
3.297214 2.5649579 -1.6488458 2.1455338 4.7194233 4.4964523 0.029661272 -1.5920998
-0.58247733 0.2041328 0.59723425 3.3559525 6.5180306 -0.39757448 -3.4063942 0.6028251
4.773711 2.3226671 2.729652 6.3477683 -0.95995873 -1.5646411 -0.6614857 -1.6114401
5.8009744 -2.9684134 -1.8428576 -0.8936758 0.71991134 0.0945901 1.1355482 3.0135126
-2.044794 5.345865 1.3976179 4.392483 -1.533931 -5.5884805 -0.3255365 3.0044165
2.1084418 -1.56031 -1.7212852 2.0142047 -0.42161363 -4.833981 -2.2879293 0.04421969
-3.741755 -0.9744981 -5.049478 8.746888 3.969063 4.0417714 1.909073 0.18737559
0.031146308 2.1182075 -0.03829527 0.8500305 0.9305658 -0.1797182 -6.655251 2.4167447
00000000: 8e05 5340 4528 2440 610d d3bf 6d50 0940
00000010: 8405 9740 f0e2 8f40 32fc f23c edc9 cbbf
00000020: 3c1d 15bf 3008 513e 58e4 183f edc7 5640
00000030: b593 d040 e28e cbbe 5d02 5ac0 bf52 1a3f
00000040: 3ec2 9840 94a6 1440 9eb2 2e40 eb20 cb40
00000050: dbbf 75bf 2946 c8bf 2057 29bf ab43 cebf
00000060: 95a1 b940 7cfa 3dc0 c2e2 ebbf f0c7 64bf
00000070: 1c4c 383f 74b8 c13d a559 913f 64dd 4040
00000080: e8dd 02c0 5311 ab40 25e5 b23f 398f 8c40
00000090: da57 c4bf d5d4 b2c0 b8ac a6be 5c48 4040
000000a0: b6f0 0640 3db8 c7bf 1353 dcbf bbe8 0040
000000b0: bedd d7be f9af 9ac0 6f6d 12c0 b51f 353d
000000c0: ea78 6fc0 b578 79bf 5395 a1c0 41f3 0b41
000000d0: 2105 7e40 3156 8140 815c f43f 63df 3f3e
000000e0: 8b26 ff3c b690 0740 80db 1cbd 999b 593f
000000f0: 8f39 6e3f 0c08 38be d1f7 d4c0 f2ab 1a40

scale1.1.1.running_var f4 [64]
10.254938 10.464721 11.820009 12.123057 10.803859 10.868811 0.99145514 7.622964
13.611934 14.424685 6.3419466 12.428578 12.01207 0.73736066 5.677148 17.41157
12.498322 10.323777 12.29684 13.858234 0.31315044 9.05082 9.934035 14.766716
12.08039 19.498499 10.741191 13.031926 13.461669 9.869475 3.298517 9.855111
11.462028 9.323595 8.625137 11.059686 6.5362954 15.42677 6.7355046 7.817986
10.066166 13.549324 2.6489537 11.675971 15.789221 12.077758 6.063376 0.32958367
15.657207 8.151094 9.812529 10.011626 7.1188827 14.911395 12.147906 2.7210546
14.570444 7.2981806 12.120964 8.541793 15.482274 8.762519 6.989724 10.247499
00000000: 3a14 2441 7f6f 2741 c21e 3d41 0bf8 4141
00000010: 9bdc 2c41 a6e6 2d41 01d0 7d3f 52ef f340
00000020: 7bca 5941 82cb 6641 3af1 ca40 75db 4641
00000030: 7031 4041 abc3 3c3f 32ab b540 e54a 8b41
00000040: 20f9 4741 312e 2541 dbbf 4441 54bb 5d41
00000050: 4155 a03e 29d0 1041 cff1 1e41 7844 6c41
00000060: 4749 4141 edfc 9b41 ebdb 2b41 c582 5041
00000070: ff62 5741 5fe9 1d41 e71a 5340 89ae 1d41
00000080: 7764 3741 722d 1541 9000 0a41 79f4 3041
00000090: 5529 d140 0dd4 7641 4189 d740 f12c fa40
000000a0: 040f 2141 08ca 5841 7588 2940 c7d0 3a41
000000b0: a6a0 7c41 7f3e 4141 2d07 c240 31bf a83e
000000c0: eb83 7a41 e26a 0241 1e00 1d41 9f2f 2041
000000d0: e3cd e340 1395 6e41 d35d 4241 c225 2e40
000000e0: 8a20 6941 b28a e940 78ef 4141 2fab 0841
000000f0: 65b7 7741 4733 0c41 d2ab df40 c2f5 2341

scale2.1.0.weight f4 [64, 64, 3, 3]
-0.05087474 -0.11603746 -0.09735531 -0.054456715 -0.12612373 -0.1466179 0.008690826 -0.018980423
-0.02927625 0.08002857 0.033629067 0.03590097 0.011071799 -0.05686809 0.014646108 -0.00250794
-0.060384426 0.028069742 -0.035590973 -0.09798636 -0.07376623 -0.025540074 -0.10088569 -0.095240526
0.07572812 0.040540308 0.050906803 0.03583576 -0.01911018 0.021640934 -0.11550793 -0.20325743
-0.07530952 -0.10998386 -0.17437883 -0.053885154 0.046818383 0.0023739184 0.005346686 -0.041979704
-0.096267276 -0.026619513 -0.0364338 -0.0669232 -0.0006482578 -0.043714296 -0.071514994 -0.07801471
-0.018608162 -0.03884668 -0.067923 0.03695035 0.04874951 0.03493857 -0.03981267 -0.088569514
-0.028581684 0.030086165 -0.043626744 -0.04259706 0.12057199 0.09383411 0.07317718 0.07820413
0.040972818 0.07346376 -0.053383887 -0.11569991 -0.009334833 -0.03911898 -0.08905443 0.0134850945
-0.028974041 -0.1012808 -0.06671864 -0.07673872 -0.16482897 -0.12715143 0.006395452 -0.051189195
-0.0116476 -0.078009255 -0.121576 -0.1373187 0.03222001 0.0012491137 -0.0592355 0.11632072
0.11979648 0.060853217 0.1117178 0.065117456 0.07527889 -0.024751011 -0.10834659 -0.0154518485
-0.0420663 -0.113504596 -0.029737635 0.023341382 -0.017919967 -0.0038139531 -0.081376955 -0.1606222
-0.07594138 -0.098394796 -0.15058681 -0.058517426 -0.050731022 -0.074651405 -0.08658667 0.017718166
0.0057621333 -0.048534807 0.09559869 0.11610681 0.07158157 0.09315897 0.043096818 0.057132658
-0.056206424 -0.13353159 0.014671267 -0.06664693 -0.11121437 -0.017442705 0.06635918 0.04801055
0.06187767 -0.049074985 -0.081889704 0.0017418588 -0.05164406 -0.076693185 -0.0026396753 0.034420557
0.0005646605 0.037794083 -0.0262443 -0.07530337 0.0031511465 -0.011533301 -0.051060468 0.025361981
-0.06533709 -0.084864065 -0.08869463 0.01201019 -0.0020911344 -0.04380994 0.0739681 0.087850235
0.054358475 0.022515146 0.04151736 0.046108495 -0.03720398 -0.02317138 0.010831183 -0.058182634
-0.03851988 -0.002471751 0.060892966 0.0018811852 0.031374983 -0.057050582 -0.14455691 -0.03093729
-0.053049743 -0.11814379 -0.010544125 -0.051268987 -0.06690334 -0.06454981 0.028413162 0.02332569
-0.02301925 0.09467426 0.11801931 0.08081546 0.0044556973 -0.0851016 -0.06664535 -0.039209317
-0.112893425 -0.087875694 0.024377093 0.026452182 0.05370155 -0.030780505 -0.080413535 -0.05556637
-0.0060135745 -0.06307867 -0.06793544 0.076244146 0.06129881 0.052506197 -0.038143188 -0.0780337
-0.06276401 -0.046088208 -0.094412066 -0.086159624 0.0061805653 0.0007219449 0.017017866 0.037492774
-0.015263659 0.0077389847 -0.046346836 -0.11738703 -0.09268704 -0.014840058 -0.040589698 0.0017002152
-0.04886898 -0.07190994 -0.08239221 0.022394376 0.011188212 -0.039505936 0.103093795 0.121614315
0.075786926 0.009931553 0.024240294 0.04373217 -0.077308126 -0.07580397 -0.012673647 -0.09347996
-0.089058965 -0.02629408 -0.038182676 -0.07788399 -0.059376866 -0.018260755 -0.05382833 -0.0682766
0.04119221 0.044620644 0.037430048 0.08761656 0.0896999 0.08631367 0.034996953 0.008111663
0.044285636 -0.010667863 -0.035726655 0.009134004 -0.05702232 -0.12181238 -0.11566119 -0.030830275
00000000: 0862 50bd 0ca5 edbd 3962 c7bd 010e 5fbd
00000010: 9426 01be 0123 16be f763 0e3c d57c 9bbc
00000020: bfd4 efbc 05e6 a33d a2be 093d e50c 133d
00000030: 7e66 353c 84ee 68bd 3bf6 6f3c 405c 24bb
00000040: a955 77bd 84f2 e53c d7c7 11bd 13ad c8bd
00000050: c012 97bd 6b39 d1bc 289d cebd 770d c3bd
00000060: 5817 9b3d 980d 263d a783 503d 85c8 123d
00000070: f48c 9cbc 5448 b13c 6c8f ecbd b722 50be
00000080: e13b 9abd 383f e1bd 5d90 32be aeb6 5cbd
00000090: a2c4 3f3d be93 1b3b 4133 af3b e9f2 2bbd
000000a0: c727 c5bd 2a11 dabc 9c3b 15bd 080f 89bd
000000b0: d8ef 29ba c30d 33bd 7476 92bd 2dc6 9fbd
000000c0: 2570 98bc b21d 1fbd 371b 8bbd 4059 173d
000000d0: 91ad 473d bf1b 0f3d 9c12 23bd ef63 b5bd
000000e0: 2324 eabc 4377 f63c f5b1 32bd 417a 2ebd
000000f0: 73ee f63d 192c c03d ebdd 953d 7d29 a03d
00000100: 1dd3 273d 2b74 963d 10a9 5abd 13f4 ecbd
00000110: 21f1 18bc 393b 20bd 2b62 b6bd 96f0 5c3c
00000120: f85a edbc 4f6c cfbd c8a3 88bd 3129 9dbd
00000130: edc8 28be fc33 02be f190 d13b c3ab 51bd
00000140: 93d5 3ebc 51c3 9fbd d6fc f8bd 469d 0cbe
00000150: 21f9 033d 4db9 a33a eca0 72bd 8f39 ee3d
00000160: db57 f53d 3941 793d 4dcc e43d 4d5c 853d
00000170: d22b 9a3d a2c2 cabc d1e4 ddbd c029 7dbc
00000180: b64d 2cbd 1975 e8bd 579c f3bc 6d36 bf3c
00000190: e5cc 92bc 84f3 79bb f6a8 a6bd 257a 24be
000001a0: 2787 9bbd 3683 c9bd 6e33 1abe f8af 6fbd
000001b0: 55cb 4fbd d6e2 98bd 5a54 b1bd b025 913c
000001c0: 47d0 bc3b 6fcc 46bd 3fc9 c33d 68c9 ed3d
000001d0: 5c99 923d 21ca be3d 4a86 303d ef03 6a3d
000001e0: b538 66bd 81bc 08be c15f 703c 307e 88bd
000001f0: 5cc4 e3bd 01e4 8ebc 52e7 873d b6a6 443d
00000200: 7173 7d3d da02 49bd cab5 a7bd 154f e43a
00000210: b988 53bd 5111 9dbd 67fe 2cbb 92fc 0c3d
00000220: ba05 143a f8cd 1a3d 49fe d6bc a738 9abd
00000230: 7783 4e3b 2cf6 3cbc c824 51bd eec3 cf3c
00000240: 74cf 85bd 36cd adbd 88a5 b5bd 63c6 443c
00000250: 6a0b 09bb 0d72 33bd 967c 973d d3ea b33d
00000260: fea6 5e3d af71 b83c 1b0e 2a3d 43dc 3c3d
00000270: 3363 18bd e8d1 bdbc 4675 313c ea50 6ebd
00000280: 06c7 1dbd 1afd 21bb e76a 793d 1a92 f63a
00000290: 0e83 003d dfad 69bd ba06 14be 3370 fdbc
000002a0: b04a 59bd 5ff5 f1bd 44c1 2cbc 6eff 51bd
000002b0: 9e04 89bd b132 84bd b8c2 e83c 8415 bf3c
000002c0: de92 bcbc 94e4 c13d 1cb4 f13d 9382 a53d
000002d0: 1901 923b bf49 aebd 5b7d 88bd f399 20bd
000002e0: ab34 e7bd 2cf8 b3bd 78b2 c73c 3fb2 d83c
000002f0: 28f6 5b3d 6627 fcbc daaf a4bd 9099 63bd
00000300: 850d c5bb 642f 81bd bc21 8bbd e425 9c3d
00000310: 7614 7b3d bd10 573d 083c 1cbd 22d0 9fbd
00000320: 6b8a 80bd fdc6 3cbd 1d5b c1bd 7574 b0bd
00000330: 5786 ca3b e740 3d3a 0d69 8b3c 0692 193d
00000340: 6d14 7abc 4f97 fd3b 2ed6 3dbd 9c68 f0bd
00000350: b4d2 bdbd b723 73bc 6241 26bd c1d9 de3a
00000360: d72a 48bd 8545 93bd 3fbd a8bd 6974 b73c
00000370: c34e 373c fad0 21bd d722 d33d ed10 f93d
00000380: 2d36 9b3d f4b7 223c 9593 c63c 8120 333d
00000390: b953 9ebd 1d3f 9bbd 21a5 4fbc 6c72 bfbd
000003a0: 8c64 b6bd af66 d7bc 7065 1cbd a481 9fbd
000003b0: 2835 73bd 9497 95bc 187b 5cbd 9ad4 8bbd
000003c0: 2ab9 283d 23c4 363d 4050 193d 5070 b33d
000003d0: 95b4 b73d 39c5 b03d f758 0f3d c8e6 043c
000003e0: db64 353d 43c8 2ebc 1d56 12bd caa6 153c
000003f0: 3c90 69bd c578 f9bd c6df ecbd c68f fcbc

scale2.1.1.weight f4 [64]
1.0629375 0.8735448 0.65784 0.7551696 1.405286 0.7717084 1.0180763 0.6613073
0.74618274 1.1265731 0.6476861 1.524414 0.8017528 0.64873934 0.713931 0.78327227
1.0310897 0.46837273 0.97974586 1.2077469 1.2351431 1.6673802 1.0231916 0.66930586
1.0518373 0.92667633 1.0987933 0.7680255 0.60541916 1.3268309 0.5841305 0.64014876
0.8046226 0.8563816 0.9711487 0.569705 1.07977 0.6358271 0.60600084 1.129837
0.726212 1.120081 0.59666103 0.58380055 1.0240309 0.7649849 0.9462599 1.2348233
0.7310972 0.61778504 1.2434781 0.7601738 1.021846 0.7373831 0.56806856 0.6938845
0.6965178 0.6592885 0.80738246 1.0781033 1.3876008 0.90188915 0.7940377 0.6441198
00000000: 560e 883f a2a0 5f3f 3468 283f cb52 413f
00000010: 69e0 b33f af8e 453f 5350 823f 6f4b 293f
00000020: d505 3f3f 8c33 903f c2ce 253f ff1f c33f
00000030: ac3f 4d3f c813 263f 2fc4 363f 8884 483f
00000040: bffa 833f 8dce ef3e a0d0 7a3f 7397 9a3f
00000050: 2b19 9e3f b76c d53f f1f7 823f a157 2b3f
00000060: 9ba2 863f a93a 6d3f 42a5 8c3f 529d 443f
00000070: c0fc 1a3f 98d5 a93f 9489 153f cae0 233f
00000080: bffb 4d3f d33b 5b3f 349d 783f 30d8 113f
00000090: e735 8a3f 91c5 223f df22 1b3f 809e 903f
000000a0: 08e9 393f d05e 8f3f c7be 183f f473 153f
000000b0: 7213 833f 0dd6 433f 173e 723f b10e 9e3f
000000c0: 3029 3b3f 2927 1e3f 4a2a 9f3f c09a 423f
000000d0: dacb 823f 24c5 3c3f f16c 113f 6aa2 313f
000000e0: fe4e 323f 22c7 283f 9eb0 4e3f 4aff 893f
000000f0: e79c b13f 35e2 663f 0e46 4b3f 09e5 243f

scale2.1.1.bias f4 [64]
0.28354606 0.25221378 -0.2716415 -0.08178174 0.27067146 -0.23298761 0.46050912 -0.17875713
-0.048718862 0.36123353 -0.16851632 0.9242574 0.015835667 -0.2694282 -0.056301057 -0.11236847
0.50033134 -0.39293602 0.5995999 0.44517866 0.49885592 0.8180135 0.17448014 -0.28718373
0.19460645 0.2601037 0.36444613 0.04081948 -0.25671798 0.40350738 -0.3123771 -0.18774542
-0.31784168 -0.051091194 0.215444 -0.31839433 -0.057301205 -0.32977757 -0.46315208 0.20861587
-0.23624673 -0.022194073 -0.25756794 -0.36593682 -0.088600166 -0.13540888 0.15211399 0.5880738
-0.33622214 -0.28495035 0.63461864 -0.16010246 0.3286288 -0.22421959 -0.5665882 -0.23007149
-0.27092853 -0.27897438 -0.40086356 0.5195162 0.5028413 0.095252074 -0.1597142 -0.37999988
00000000: f32c 913e 2a22 813e 9814 8bbe 2f7d a7bd
00000010: 7395 8a3e 4e94 6ebe dac7 eb3e 1c0c 37be
00000020: 6e8d 47bd 9af3 b83e 8b8f 2cbe 229c 6c3f
00000030: cdb9 813c 7ef2 89be f09b 66bd 7121 e6bd
00000040: b715 003f e92e c9be 617f 193f 75ee e33e
00000050: 0b6a ff3e 5569 513f ecaa 323e bf09 93be
00000060: ea46 473e 502c 853e af98 ba3e 5432 273d
00000070: 8a70 83be 8598 ce3e e4ef 9fbe 5640 40be
00000080: 25bc a2be 0045 51bd 5a9d 5c3e 9504 a3be
00000090: abb4 6abd 9bd8 a8be 4522 edbe 669f 553e
000000a0: aaea 71be 58d0 b5bc f2df 83be 125c bbbe
000000b0: 0174 b5bd a0a8 0abe c5c3 1b3e 018c 163f
000000c0: 4f25 acbe 03e5 91be 5e76 223f e6f1 23be
000000d0: 0942 a83e d299 65be ed0b 11bf dc97 6bbe
000000e0: 25b7 8abe bbd5 8ebe fd3d cdbe 04ff 043f
000000f0: 35ba 003f 8513 c33d 1f8c 23be 588f c2be

scale2.1.1.running_mean f4 [64]
-6.753595 1.1142397 6.875188 1.7937073 -7.136563 -6.4862547 1.2579156 -5.9591827
-3.8208807 -5.5898247 0.8724627 -1.7820725 -1.2224175 -6.4397507 -1.3855921 -1.3795732
0.41385946 6.0264125 1.5796276 -0.39685154 -2.5313597 -1.8566957 -6.7862754 -9.92717
-6.5684695 -0.9716623 0.88050073 -2.0451639 -4.579301 -3.6624453 -5.017522 3.4406352
1.7224017 6.483892 -5.700158 -6.3896275 -7.734435 1.1575946 -2.0547602 0.6075922
-8.064757 -6.1608424 4.2548013 6.3807225 -11.957122 -4.547706 -5.516818 1.2165041
5.2143307 -1.7382917 -4.729876 -4.2106147 -1.1159956 11.789061 -0.83787996 -0.015560424
3.0994706 -8.856977 -7.1353393 0.18505464 -6.2330003 -3.6526918 -2.0913994 6.2134066
00000000: 731d d8c0 689f 8e3f 8a01 dc40 3398 e53f
00000010: b95e e4c0 668f cfc0 6103 a13f a0b1 bec0
00000020: 4f89 74c0 d8df b2c0 b759 5f3f f41a e4bf
00000030: 2d78 9cbf 7012 cec0 155b b1bf db95 b0bf
00000040: 63e5 d33e 5fd8 c040 3d31 ca3f 2030 cbbe
00000050: cc01 22c0 34a8 edbf 2b29 d9c0 b0d5 1ec1
00000060: e730 d2c0 dcbe 78bf 7f68 613f f7e3 02c0
00000070: a289 92c0 8165 6ac0 8a8f a0c0 5e33 5c40
00000080: a977 dc3f 0b7c cf40 b267 b6c0 d477 ccc0
00000090: 7e80 f7c0 0f2c 943f 3181 03c0 2a8b 1b3f
000000a0: 3f09 01c1 9f25 c5c0 5527 8840 e12e cc40
000000b0: 5f50 3fc1 cf86 91c0 c689 b0c0 68b6 9b3f
000000c0: ccdb a640 5880 debf 255b 97c0 5bbd 86c0
000000d0: f2d8 8ebf fe9f 3c41 4d7f 56bf 26f1 7ebc
000000e0: ba5d 4640 2eb6 0dc1 b354 e4c0 f77e 3d3e
000000f0: bd74 c7c0 b4c5 69c0 7dd9 05c0 3ad4 c640

scale2.1.1.running_var f4 [64]
2.772714 1.2998735 7.710109 5.4438033 1.9646513 2.5495725 1.57535 2.978358
9.712502 1.3164666 2.4527338 0.5145074 1.24086 15.3283 11.179342 2.2826571
0.8102807 8.907241 1.1190958 1.0054036 0.9273472 0.5770586 2.340974 8.512121
6.5848627 1.6206908 1.1703763 8.274507 8.825788 1.0619615 21.164469 40.065544
10.046369 4.2323 2.8896239 8.453055 5.127292 10.9720335 21.872452 0.6197219
7.532762 3.7526734 4.1686263 13.695852 26.192266 3.748434 1.7706494 0.9779874
8.213019 17.86918 1.0603908 14.8904 1.0223769 5.2891803 5.6865964 7.433504
35.41241 17.996696 10.021467 1.475208 1.1625768 3.0425484 13.132659 26.832184
00000000: 2574 3140 4162 a63f 37b9 f640 a333 ae40
00000010: b279 fb3f 322c 2340 12a5 c93f 6b9d 3e40
00000020: 6866 1b41 fa81 a83f 97f9 1c40 c2b6 033f
00000030: 80d4 9e3f b840 7541 96de 3241 0e17 1240
00000040: 8e6e 4f3f 0f84 0e41 883e 8f3f 11b1 803f
00000050: a066 6d3f 1dba 133f 85d2 1540 a631 0841
00000060: 32b7 d240 cc72 cf3f e4ce 953f 6164 0441
00000070: 6d36 0d41 5bee 873f d550 a941 1e43 2042
00000080: edbd 2041 006f 8740 99ef 3840 b73f 0741
00000090: c712 a440 738d 2f41 c8fa ae41 18a6 1e3f
000000a0: 630c f140 cd2b 7040 6365 8540 3622 5b41
000000b0: c389 d141 58e6 6f40 a4a4 e23f 625d 7a3f
000000c0: 8768 0341 15f4 8e41 e3ba 873f 143f 6e41
000000d0: 3fdd 823f f740 a940 99f8 b540 44df ed40
000000e0: 4fa6 0d42 3cf9 8f41 ee57 2041 9ed3 bc3f
000000f0: 51cf 943f 1db9 4240 5f1f 5241 50a8 d641

scale2.2.0.weight f4 [64, 64, 3, 3]
0.051484164 0.006413539 0.015246263 0.045704935 -0.038459036 -0.06319848 0.16143389 0.05544979
0.014417293 0.05025923 -0.033905856 -0.13963431 0.045758393 0.050784603 -0.07929974 -0.0524665
0.009512725 0.032216325 -0.024594683 -0.07125942 -0.07813094 0.0025890083 -0.027033146 -0.034920625
-0.024796396 -0.02245027 0.005032351 -0.013841414 -0.03733525 -0.023424344 0.041681413 0.064326115
-0.022432335 -0.03081411 0.05363398 0.028785659 -0.037814617 -0.04288081 0.06685693 0.036189772
-0.076445274 -0.0057026376 0.13202392 -0.012414115 -0.0504852 0.00816818 -0.10810926 -0.10315198
0.041680176 0.039747223 -0.09377757 0.00072585617 0.060869142 0.018649451 0.010726622 0.017074687
-0.037656125 -0.033313032 0.02105709 -0.05662341 -0.08269729 -0.014764493 -0.019514658 0.0639583
-0.02525005 -0.08599531 0.07279675 0.08595968 -0.06745651 -0.050076116 0.075749576 0.05912614
-0.016763488 -0.051876597 -0.057164364 -0.00938417 0.0013979938 -0.014625037 -0.020547789 -0.0149921
0.015256818 0.009469545 -0.048469905 0.02569284 0.076239765 -0.08698027 -0.07692303 0.113140084
0.026222453 -0.07068727 0.009382084 -0.049182124 -0.09132722 -0.018450601 0.035639934 -0.03835127
-0.06483045 -0.029948803 0.013685094 -0.16243312 -0.106306255 0.19246005 -0.009557028 -0.21842778
-0.18264541 0.1474925 0.04788215 -0.08223112 0.07973523 -0.009072791 -0.080840714 0.023339517
0.064969376 -0.068726175 -0.06713317 -0.0038901016 0.042808723 -0.030999616 -0.04867145 -0.06209398
-0.0066516655 0.016788896 -0.04325107 -0.0405553 -0.0037724988 -0.0060588447 -0.049136482 -0.057402704
-0.08949511 -0.041411802 -0.0006692772 -0.047496203 -0.07719845 -0.037976496 -0.021559283 0.05260647
0.06993971 -0.0050193756 -0.0015535814 0.04367809 0.03827119 0.028543172 -0.012729676 0.029431595
-0.084308766 0.06049796 0.04921693 -0.21194755 -0.056364547 0.13293976 -0.027951991 -0.06543558
-0.0091280155 0.03847782 0.0024128375 -0.05021022 0.0033656226 -0.009381003 -0.050497025 0.008361428
-0.0055469703 -0.007747476 0.04188921 -0.016401013 -0.08507594 -0.016908294 0.029839559 0.02109887
-0.017373988 -0.024434833 0.008888944 -0.023199381 0.017036503 0.01294388 -0.07755515 -0.02182498
0.038356423 -0.067592934 -0.082870096 -0.024120567 0.14662023 -0.16020654 -0.086985454 0.24592914
-0.03803619 -0.13676478 0.15318805 0.13138771 0.0679365 -0.03108318 -0.015395562 0.0037261352
0.0324056 -0.116546765 -0.009093611 0.1492962 -0.040888593 -0.09199167 0.065096796 -0.075418405
-0.02362658 0.14794652 -0.02888328 -0.083206765 0.11563541 0.08664099 -0.0044286763 0.019617885
-0.028739283 -0.04035942 0.048626903 0.043455154 -0.0123425275 0.03970816 0.01429541 0.0012010256
0.08063174 0.047626484 0.0059837545 -0.022763647 -9.731972e-05 0.038660802 -0.0061618257 -0.051079966
0.030320058 0.05450807 -0.0033867953 -0.041230567 -0.002081549 0.065408334 -0.06508837 -0.109634615
0.0022402927 0.013160921 0.019518912 0.059873857 -0.055324357 -0.06037688 0.05856374 0.06330575
-0.128172 -0.04793144 -0.030490639 0.020518476 -0.1446651 -0.18955767 0.061770428 -0.004524655
-0.08125471 0.028729292 0.022655644 0.03654981 0.01812587 -0.017100858 -0.039814122 0.05853359
00000000: 0fe1 523d aa28 d23b 76cb 793c 1935 3b3d
00000010: 3987 1dbd 346e 81bd ed4e 253e 521f 633d
00000020: 8236 6c3c 9fdc 4d3d dee0 0abd 4cfc 0ebe
00000030: 276d 3b3d 8403 503d e767 a2bd 1de7 56bd
00000040: 43db 1b3c 44f5 033d ca7a c9bc 75f0 91bd
00000050: 1d03 a0bd 5aac 293b 9e74 ddbc ee08 0fbd
00000060: d021 cbbc a1e9 b7bc 6be6 a43b 19c7 62bc
00000070: d9ec 18bd 69e4 bfbc 21ba 2a3d 69bd 833d
00000080: 04c4 b7bc df6d fcbc 4eaf 5b3d e7cf eb3c
00000090: 80e3 1abd caa3 2fbd 49ec 883d ba3b 143d
000000a0: 578f 9cbd 31dd babb 4731 073e 9264 4bbc
000000b0: 92c9 4ebd d4d3 053c 6368 ddbd 5841 d3bd
000000c0: d5b8 2a3d fccd 223d 740e c0bd 6247 3e3a
000000d0: ec51 793d bcc6 983c b7be 2f3c 37e0 8b3c
000000e0: 4f3d 1abd 3f73 08bd eb7f ac3c f3ed 67bd
000000f0: 325d a9bd c6e6 71bc 34dd 9fbc 92fc 823d
00000100: 31d9 cebc 4f1e b0bd 7616 953d a10b b03d
00000110: a426 8abd 9d1c 4dbd 9822 9b3d 402e 723d
00000120: 9553 89bc 8e7c 54bd 2e25 6abd 10c0 19bc
00000130: e33c b73a da9d 6fbc d653 a8bc 6da1 75bc
00000140: bcf7 793c 2726 1b3c 6188 46bd ca79 d23c
00000150: 9823 9c3d b622 b2bd d289 9dbd fdb5 e73d
00000160: 78d0 d63c 7dc4 90bd 50b7 193c 3273 49bd
00000170: c409 bbbd b725 97bc 2efb 113d 3916 1dbd
00000180: d4c5 84bd 3157 f5bc 7237 603c de54 26be
00000190: 18b7 d9bd 3f14 453e 1595 1cbc 88ab 5fbe
000001a0: 6607 3bbe 4608 173e 1320 443d ca68 a8bd
000001b0: 394c a33d 0ba6 14bc d18f a5bd 8432 bf3c
000001c0: aa0e 853d 4fc0 8cbd 1e7d 89bd 13f1 7ebb
000001d0: 3358 2f3d e8f2 fdbc b75b 47bd 4256 7ebd
000001e0: 37f6 d9bb de88 893c 0928 31bd 501d 26bd
000001f0: 073c 77bb 4689 c6bb 5643 49bd 191f 6bbd
00000200: 3649 b7bd 6c9f 29bd 6f72 2fba 618b 42bd
00000210: 391a 9ebd 3e8d 1bbd 189d b0bc e279 573d
00000220: 8d3c 8f3d 9379 a4bb 8ba1 cbba cce7 323d
00000230: 40c2 1c3d 5fd3 e93c 2290 50bc 871a f13c
00000240: 13aa acbd b5cc 773d b197 493d c708 59be
00000250: 83de 66bd 5c21 083e 93fb e4bc 1703 86bd
00000260: ac8d 15bc eb9a 1d3d b220 1e3b 3ba9 4dbd
00000270: c791 5c3b c7b2 19bc f8d5 4ebd 5ffe 083c
00000280: 5cc3 b5bb 8ade fdbb 0594 2b3d 6b5b 86bc
00000290: 4b3c aebd 4383 8abc 1772 f43c 8ad7 ac3c
000002a0: e553 8ebc 8f2b c8bc efa2 113c a10c bebc
000002b0: 2390 8b3c 9112 543c 3cd5 9ebd 4dca b2bc
000002c0: a01b 1d3d 2a6e 8abd ccb7 a9bd 7f98 c5bc
000002d0: 9d23 163e 2f0d 24be 6e25 b2bd d9d4 7b3e
000002e0: d6cb 1bbd 110c 0cbe 54dd 1c3e 808a 063e
000002f0: 4b22 8b3d 27a2 febc ab3d 7cbc 2d32 743b
00000300: bcbb 043d 12b0 eebd 5efd 14bc 1ae1 183e
00000310: cc7a 27bd 2166 bcbd 7851 853d f774 9abd
00000320: 888c c1bc 4b7f 173e a19c ecbc 4f68 aabd
00000330: 42d2 ec3d d570 b13d 6e1e 91bb b0b5 a03c
00000340: a56e ebbc eb4f 25bd 012d 473d 08fe 313d
00000350: 5038 4abc 06a5 223d 4c37 6a3c bb6b 9d3a
00000360: 4122 a53d fd13 433d 5f13 c43b d47a babc
00000370: 2018 ccb8 ca5a 1e3d 24e9 c9bb 3a39 51bd
00000380: c561 f83c db43 5f3d fff4 5dbb 62e1 28bd
00000390: 996a 08bb cef4 853d 0d4d 85bd 1d88 e0bd
000003a0: e0d1 123b e7a0 573c 20e6 9f3c 4a3e 753d
000003b0: cb9b 62bd bf4d 77bd 88e0 6f3d 72a6 813d
000003c0: 853f 03be c253 44bd 81c7 f9bc 5d16 a83c
000003d0: 1723 14be 681b 42be fd02 7d3d 8f43 94bb
000003e0: df68 a6bd b159 eb3c 5498 b93c 41b5 153d
000003f0: b47c 943c 1917 8cbc 2214 23bd ebc0 6f3d

scale2.2.1.weight f4 [64]
0.8445542 0.5254126 0.7534882 0.621211 0.65967214 0.8046914 0.8580334 0.5836314
0.51488775 0.6382894 0.5621891 0.61982197 0.70533025 0.933378 0.6164826 0.5869063
0.584641 0.668092 1.0084465 0.84259033 0.9130208 0.88560015 0.9674078 0.8136772
0.94973147 0.53035057 0.5867546 0.5772632 0.8771887 0.48063654 0.72640383 0.86868256
0.70458347 0.65771437 0.62855804 0.64659965 0.83899516 0.92269903 1.1412338 0.87232286
0.6453915 0.697431 0.6366101 1.0604366 0.9301869 0.6829382 0.6506041 0.6333929
0.59088045 0.55053055 0.91437846 0.84842074 0.56770515 0.59767354 0.98135406 0.705831
0.9242562 1.0217819 0.6512077 0.917002 0.95012516 0.7471779 0.96860707 0.6177992
00000000: b434 583f 7181 063f 9ae4 403f af07 1f3f
00000010: 46e0 283f 4100 4e3f 14a8 5b3f de68 153f
00000020: afcf 033f ef66 233f a0eb 0f3f a7ac 1e3f
00000030: 8690 343f dcf1 6e3f ced1 1d3f 7e3f 163f
00000040: 08ab 153f 1408 2b3f c614 813f 00b4 573f
00000050: bbbb 693f b1b6 623f 0aa8 773f 264d 503f
00000060: 9a21 733f 0ec5 073f 8d35 163f 85c7 133f
00000070: 708f 603f fe15 f63e 9af5 393f fb61 5e3f
00000080: 955f 343f f85f 283f 2ee9 203f 8e87 253f
00000090: 63c8 563f 0136 6c3f f313 923f 8d50 5f3f
000000a0: 6138 253f d78a 323f e1f8 223f 63bc 873f
000000b0: bb20 6e3f 0ad5 2e3f fe8d 263f 0926 223f
000000c0: f143 173f 92ef 0c3f b514 6a3f 1a32 593f
000000d0: 2055 113f 2201 193f 053a 7b3f 57b1 343f
000000e0: 0e9c 6c3f c0c9 823f 8cb5 263f a5c0 6a3f
000000f0: 673b 733f 0d47 3f3f a2f6 773f 1728 1e3f

scale2.2.1.bias f4 [64]
-0.30618155 -0.1637914 -0.33409643 -0.05631954 -0.038024418 -0.04861445 -0.1787142 -0.17548451
-0.26797378 -0.15446638 0.008970958 0.039743736 0.082223795 -0.17183429 -0.27720678 -0.20249732
-0.38252443 -0.16007243 -0.013905826 0.24941094 -0.19220091 0.32198727 -0.17283653 0.09003098
-0.08296244 -0.11180828 -0.20486882 -0.48862004 -0.18740973 -0.18219116 0.11753749 -0.0682723
-0.186496 -0.28094324 -0.19050929 -0.17785238 -0.086867474 -0.009217256 -0.010925696 -0.029977996
-0.09956786 -0.13574755 -0.056386657 -0.17316526 0.0010187101 -0.13054885 -0.110854656 -0.25064066
-0.16715905 -0.28417197 0.10181519 -0.23713581 -0.24672656 -0.41010872 -0.14974813 0.05944891
0.14925416 -0.26005113 -0.20818159 0.03719067 0.28672522 -0.07285596 0.05540013 -0.06754448
00000000: d4c3 9cbe efb8 27be b00e abbe 51af 66bd
00000010: 7ebf 1bbd f21f 47bd db00 37be 36b2 33be
00000020: dc33 89be 6f2c 1ebe edfa 123c 54ca 223d
00000030: f364 a83d 54f5 2fbe 0cee 8dbe 755b 4fbe
00000040: 3eda c3be 07ea 23be 43d5 63bc 9565 7f3e
00000050: 51d0 44be 84db a43e 0ffc 30be 2a62 b83d
00000060: 36e8 a9bd bdfb e4bd 22c9 51be 682c fabe
00000070: 56e8 3fbe 5290 3abe 7fb7 f03d 59d2 8bbd
00000080: cff8 3ebe cbd7 8fbe de14 43be ef1e 36be
00000090: 93e7 b1bd f903 17bc b101 33bc 6a94 f5bc
000000a0: 3cea cbbd 6801 0bbe b2f5 66bd 3c52 31be
000000b0: 3d86 853a 99ae 05be c407 e3bd f953 80be
000000c0: be2b 2bbe fd7e 91be 7b84 d03d bbd3 72be
000000d0: e3a5 7cbe c5f9 d1be 9357 19be b380 733d
000000e0: 15d6 183e 6c25 85be 8e2d 55be 3e55 183d
000000f0: a6cd 923e 8135 95bd 3feb 623d c354 8abd

scale2.2.1.running_mean f4 [64]
-1.4438465 -0.13665172 -0.9835316 -7.123627 -0.23693387 -0.82507807 -1.4228138 -3.8217843
-4.11172 -1.4906408 -4.3278055 -1.7319536 -0.07688987 -1.5425342 -4.7539153 -0.14220566
-3.2092757 -3.8576076 0.66904086 -0.05021664 -1.3681799 0.13351151 -0.8900663 -0.62388945
-0.68874943 3.2554681 -3.7130396 -1.8966646 -0.85982555 -0.4658474 -3.6626246 0.056378927
-1.6760148 1.5920383 -1.6612879 -1.7824304 -1.77415 -0.028533414 -1.0148274 -1.0736734
2.0621276 -0.3207794 0.54681927 -1.778892 -0.66405755 -1.3020792 -0.26762655 -1.7684927
-3.7070162 -1.9219464 -0.38580474 -0.33502224 0.26661572 -3.1097121 -0.64309794 -0.70814526
-0.7040341 -1.1478033 -1.6895936 -0.92171943 0.22619271 -0.93825525 0.033900958 -4.5209455
00000000: f6cf b8bf 6eee 0bbe bac8 7bbf c1f4 e3c0
00000010: cb9e 72be 5138 53bf c31e b6bf 1d98 74c0
00000020: 3693 83c0 51cd bebf 627d 8ac0 a8b0 ddbf
00000030: 7078 9dbd c371 c5bf 1320 98c0 5c9e 11be
00000040: c664 4dc0 0be3 76c0 4346 2b3f f7af 4dbd
00000050: 8520 afbf 3eb7 083e 63db 63bf 38b7 1fbf
00000060: e251 30bf 9759 5040 71a2 6dc0 e8c5 f2bf
00000070: 871d 5cbf 8d83 eebe 7168 6ac0 97ed 663d
00000080: a787 d6bf e9c7 cb3f 15a5 d4bf ae26 e4bf
00000090: 5917 e3bf e8be e9bc dde5 81bf 216e 89bf
000000a0: e6f9 0340 333d a4be 59fc 0b3f bcb2 e3bf
000000b0: adff 29bf 88aa a6bf 5906 89be f85d e2bf
000000c0: c13f 6dc0 5702 f6bf 3388 c5be 0988 abbe
000000d0: db81 883e 8605 47c0 11a2 24bf 0249 35bf
000000e0: 943b 34bf 38eb 92bf 9a44 d8bf cef5 6bbf
000000f0: 109f 673e 7f31 70bf bbdb 0a3d 96ab 90c0

scale2.2.1.running_var f4 [64]
1.6623509 9.284382 1.9034907 7.020389 6.50371 2.9699364 3.8192713 18.62321
7.05425 7.074808 17.5309 17.17364 6.1172066 3.670647 15.65661 23.37339
10.875042 4.789495 3.4370468 7.052894 2.8390896 2.526816 3.5834641 3.7774043
4.7484527 8.50463 3.1390662 7.6359825 1.9716647 13.376827 23.486656 2.5866942
1.5528777 13.4344 7.378865 8.821006 2.4047744 3.2784 2.713703 2.581155
8.053371 5.2734313 24.38581 2.8380475 2.1300046 5.874989 15.030929 2.5113328
13.241947 5.736546 2.5890062 3.010531 7.352167 4.4163513 6.840593 6.4395585
2.8286083 1.4066737 2.322904 1.975755 1.8835375 3.662649 2.4019933 15.371715
00000000: eac7 d43f d48c 1441 95a5 f33f 07a7 e040
00000010: 641e d040 7013 3e40 f16e 7440 56fc 9441
00000020: 6abc e140 d464 e240 483f 8c41 9d63 8941
00000030: 28c0 c340 e1eb 6a40 7981 7a41 b4fc ba41
00000040: 2c00 2e41 8b43 9940 93f8 5b40 4fb1 e140
00000050: a5b3 3540 5ab7 2140 7a57 6540 fec0 7140
00000060: 53f3 9740 f712 0841 76e6 4840 f859 f440
00000070: 825f fc3f 7c07 5641 ace4 bb41 668c 2540
00000080: b2c4 c63f 4df3 5641 a91f ec40 d722 0d41
00000090: d3e7 1940 4ed1 5140 4fad 2d40 a531 2540
000000a0: 9cda 0041 f3bf a840 2416 c341 92a2 3540
000000b0: ff51 0840 e9ff bb40 af7e 7041 adb9 2040
000000c0: 04df 5341 c991 b740 47b2 2540 8aac 4040
000000d0: f444 eb40 c052 8d40 23e6 da40 dd10 ce40
000000e0: eb07 3540 e20d b43f 76aa 1440 8ae5 fc3f
000000f0: c217 f13f d768 6a40 42ba 1940 8bf2 7541
