Superpixel_methods/SSN/log/newmodels/modelparam2.pth (torch, 873395 bytes, 32 tensors)

scale1.0.0.weight f4 [64, 5, 3, 3]
-0.1515917 0.6737222 -0.13491724 0.84982634 2.5341902 0.75395876 -0.11543556 0.7854607
-0.12908554 0.10952927 0.097793385 0.1814786 0.06384406 0.009710761 0.10713002 0.07228765
0.07449296 0.12565485 -0.034053482 -0.032680728 -0.024177719 -0.017366491 -0.0128174005 -0.030318636
0.018841807 0.010671681 0.021173246 -0.010744649 -0.004073874 -0.0031712134 -0.010442306 -0.007018666
-0.0012414537 -0.006856394 0.0008672391 0.0052972455 -0.00453473 -0.007627353 -0.007109918 3.9990144e-05
-0.0021940377 -0.001137815 -0.0014728862 -0.0007376199 0.0013759243 0.17133212 0.055272162 0.08516445
-0.36442426 -0.6199506 -0.48346406 -0.17053846 -0.42641562 -0.30783662 -0.2933728 -0.30524907
-0.26840162 -0.26670557 -0.27947307 -0.25815058 -0.17826611 -0.19661649 -0.19283693 0.052413598
0.08124549 0.07794526 0.054254748 0.08100697 0.07934301 0.025567014 0.04044634 0.04171639
-0.11931255 -0.21075892 -0.16436341 -0.1146132 -0.20211123 -0.15451264 -0.12004874 -0.22078584
-0.16521016 0.018676698 0.019898802 0.0005008096 -0.006617876 -0.0056357915 -0.026861137 -0.0036145037
-0.004498122 -0.02718405 -0.146285 -0.50526226 -0.15572324 -0.3634661 -0.8606331 -0.40066844
0.012445682 -0.25247023 0.020886885 1.0693685 1.4104925 1.0639715 1.3745008 1.7777696
1.403293 0.9123285 1.2538877 0.9900269 0.17147693 0.25705516 0.18625574 0.3422298
0.44528326 0.3644829 0.14885774 0.28924298 0.20290196 0.005527895 0.006024422 0.00024007309
0.0059618806 0.0071115852 0.00040741792 0.0032239559 0.004340899 -0.0021255878 -0.0031853982 -0.0046678684
0.0028515984 0.0012856781 0.00059922226 0.008531334 0.0013458303 0.0007496718 0.008526348 -0.07089504
0.29549482 0.013096307 0.1453478 0.6496799 0.2686636 -0.20826542 0.08946566 -0.08789244
1.1302261 1.369647 1.0528523 1.4284741 1.7184429 1.4010943 0.97227764 1.2536446
0.9605664 -0.38178334 -0.29059207 -0.30939886 -0.3075543 -0.19051285 -0.2443985 -0.32619336
-0.24443302 -0.26919582 -0.0072717518 0.0019808568 0.0026642664 -0.0081675155 0.0042950045 0.0015582899
-0.016795486 -0.006878867 -0.005948024 0.0057936865 0.00453825 -0.0034313465 0.007941131 0.0075261197
0.0019683873 0.0039215656 0.004240809 -0.0011266608 0.0408325 0.6612423 0.06804841 0.7425553
1.7507802 0.7271817 0.084158465 0.7090795 0.0874623 -0.10660028 -0.16265495 -0.05544967
-0.16169237 -0.23300357 -0.10393946 -0.11016693 -0.12014012 -0.051261522 -0.300482 -0.34529418
-0.25960648 -0.3830214 -0.4583342 -0.37239334 -0.20052335 -0.26827475 -0.17117614 0.0028256527
0.010046082 0.008964759 6.6533066e-05 0.008454506 0.00783285 -0.005861337 0.0057241484 0.005229579
0.005030968 0.003201959 0.003920925 0.0024862378 0.0023252314 0.0019520657 0.0027611405 -0.00037130035
0.003206746 -0.14153491 0.4830662 -0.00060845044 0.6195288 1.7624495 0.82409537 -0.057896655
0.643829 0.090815015 -0.40519187 -0.48910603 -0.34277934 -0.41982505 -0.55166525 -0.38969636
-0.3030078 -0.3848193 -0.2890891 0.010415552 -0.011083372 -0.026065387 -0.07165172 -0.11309274
-0.13017587 -0.001885226 -0.039461896 -0.0386887 0.0037318438 0.017646745 0.011040758 0.0056958166
00000000: db3a 1bbe 0f79 2c3f bf27 0abe 388e 593f
00000010: 2c30 2240 7103 413f 7b69 ecbd f413 493f
00000020: 002f 04be e250 e03d e647 c83d 87d5 393e
00000030: adc0 823d e219 1f3c fc66 db3d 8c0b 943d
00000040: c48f 983d aaab 003e aa7b 0bbd 3adc 05bd
00000050: 5a10 c6bc 2c44 8ebc 1300 52bc ca5e f8bc
00000060: 225a 9a3c 46d8 2e3c 8473 ad3c 530a 30bc
00000070: 227e 85bb 22d4 4fbb 3516 2bbc d6fc e5bb
00000080: 46b8 a2ba 9aab e0bb 6e57 633a 8494 ad3b
00000090: 1398 94bb e0ee f9bb 51fa e8bb 17bb 2738
000000a0: d8c9 0fbb bc22 95ba dc0d c1ba d55c 41ba
000000b0: 5c58 b43a b071 2f3e 1065 623d b36a ae3d
000000c0: d195 babe 15b5 1ebf 9a88 f7be a2a1 2ebe
000000d0: 2653 dabe c39c 9dbe f634 96be 9b49 9cbe
000000e0: f06b 89be a28d 88be 1817 8fbe 502c 84be
000000f0: 648b 36be d555 49be 0b77 45be a4af 563d
00000100: 0964 a63d c4a1 9f3d 3a3a 5e3d fbe6 a53d
00000110: 977e a23d ea71 d13c 10ab 253d cede 2a3d
00000120: 235a f4bd 30d1 57be e24e 28be 53ba eabd
00000130: 3ff6 4ebe 9038 1ebe 1ddc f5bd af15 62be
00000140: da2c 29be e0ff 983c d002 a33c c348 033a
00000150: c4da d8bb 72ac b8bb e30b dcbc 4fe1 6cbb
00000160: fb64 93bb 16b1 debc bccb 15be de58 01bf
00000170: ea75 1fbe 3b18 babe 7352 5cbf 6a24 cdbe
00000180: f9e8 4b3c c743 81be f91a ab3c 11e1 883f
00000190: 058b b43f 3830 883f a4ef af3f f48d e33f
000001a0: 1b9f b33f 5c8e 693f 647f a03f 6772 7d3f
000001b0: a697 2f3e bc9c 833e d3b9 3e3e bf38 af3e
000001c0: 2bfc e33e 819d ba3e 2a6e 183e a817 943e
000001d0: 88c5 4f3e 5823 b53b 8468 c53b 21bc 7b39
000001e0: e15b c33b 4d08 e93b b59a d539 0149 533b
000001f0: 1a3e 8e3b 724d 0bbb 1dc2 50bb ebf4 98bb
00000200: e2e1 3a3b 3384 a83a 2015 1d3a 02c7 0b3c
00000210: 9266 b03a 9f85 443a 18b2 0b3c 6b31 91bd
00000220: 194b 973e e591 563c 0ed6 143e 6c51 263f
00000230: 468e 893e 8843 55be c639 b73d f400 b4bd
00000240: 40ab 903f 9850 af3f ddc3 863f 3dd8 b63f
00000250: f0f5 db3f 0f57 b33f 30e7 783f 6d77 a03f
00000260: aee7 753f 1b79 c3be 7cc8 94be 8769 9ebe
00000270: c277 9dbe cd15 43be 9a43 7abe d102 a7be
00000280: a64c 7abe 09d4 89be e047 eebb 43d1 013b
00000290: f99a 2e3b 0bd1 05bc 1cbd 8c3b 883f cc3a
000002a0: b096 89bc 1e68 e1bb a4e7 c2bb f7d8 bd3b
000002b0: 9ab5 943b 71e0 60bb 841b 023c ab9d f63b
000002c0: 0f00 013b 7a80 803b 7cf6 8a3b 77ac 93ba
000002d0: fb3f 273d 2d47 293f f75c 8b3d 1b18 3e3f
000002e0: 9119 e03f 9428 3a3f 465b ac3d 3c86 353f
000002f0: 6f1f b33d 3f51 dabd 058f 26be 311f 63bd
00000300: af92 25be 7d98 6ebe 36de d4bd 339f e1bd
00000310: 060c f6bd 9af7 51bd c7d8 99be 66ca b0be
00000320: 24eb 84be 621b c4be c8aa eabe 57aa bebe
00000330: fe55 4dbe 4f5b 89be cc48 2fbe 962e 393b
00000340: 5298 243c ede0 123c ab87 8b38 c584 0a3c
00000350: 5b55 003c 7510 c0bb a391 bb3b e35c ab3b
00000360: d2da a43b f5d7 513b 1a7b 803b 26f0 223b
00000370: e962 183b 75dc ff3a 40f4 343b 17ab c2b9
00000380: 4528 523b 87ee 10be 7454 f73e 6b80 1fba
00000390: 7099 1e3f f297 e13f eaf7 523f 0b25 6dbd
000003a0: fad1 243f 39fd b93d 4f75 cfbe 1b6c fabe
000003b0: c680 afbe 4ff3 d6be ef39 0dbf 4886 c7be
000003c0: d723 9bbe 0907 c5be 7d03 94be fea5 2a3c
000003d0: 0897 35bc 1487 d5bc 23be 92bd 2b9d e7bd
000003e0: d34c 05be b019 f7ba cca2 21bd 0b78 1ebd
000003f0: f391 743b e88f 903c 4ce4 343c f9a3 ba3b

scale1.0.1.weight f4 [64]
1.3950279 1.0208683 0.88548225 0.8923456 0.91964626 0.9509753 0.8095026 0.57926315
1.4180064 1.3989656 1.0009692 1.1712853 0.9242457 0.8002868 1.1683503 0.8140504
0.94066656 0.647723 0.54486567 0.67496854 0.62214774 1.4051818 1.1211214 0.96631914
1.0724798 0.8604345 0.6426111 1.1973493 0.78985953 0.72139776 0.65106624 1.0097092
1.0114576 0.8739073 0.65977544 0.8099945 0.64524704 0.9673226 0.85923773 0.9349236
0.83980703 0.7428625 0.9421083 0.88896227 0.7374408 0.7509827 0.8303605 1.1908144
0.77251476 0.8772706 0.9621121 0.638495 0.90883493 0.7511095 0.88130444 0.96270424
0.90236896 1.3103126 0.9670751 0.9374619 0.9387799 0.67419773 0.7613983 0.72674257
00000000: 4690 b23f d0ab 823f f7ae 623f c370 643f
00000010: f06d 6b3f 1e73 733f 903b 4f3f 974a 143f
00000020: 3c81 b53f 4e11 b33f c21f 803f adec 953f
00000030: 5e9b 6c3f 99df 4c3f 818c 953f 9b65 503f
00000040: 86cf 703f 2dd1 253f 517c 0b3f bdca 2c3f
00000050: 1345 1f3f ffdc b33f e880 8f3f b160 773f
00000060: 0547 893f 6f45 5c3f 2982 243f be42 993f
00000070: 3c34 4a3f 86ad 383f 47ac 263f 273e 813f
00000080: 7177 813f 64b8 5f3f 0be7 283f cd5b 4f3f
00000090: e92e 253f 74a2 773f 01f7 5b3f 2757 6f3f
000000a0: 98fd 563f 3d2c 3e3f 022e 713f 0893 633f
000000b0: ecc8 3c3f 6740 403f 8192 543f 9b6c 983f
000000c0: 87c3 453f ce94 603f fb4c 763f 6974 233f
000000d0: 68a9 683f b648 403f 2b9d 613f c973 763f
000000e0: a701 673f 53b8 a73f 3c92 773f 81fd 6f3f
000000f0: e153 703f 3998 2c3f 00eb 423f cd0b 3a3f

scale1.0.1.bias f4 [64]
0.25604758 0.07037359 0.20137988 0.17693837 -0.04377537 0.0056572985 0.057172112 -0.1562624
0.09731218 0.5281245 0.46007752 0.35748625 0.2263218 -0.045533318 0.26129583 -0.01140047
0.36437926 -0.14347747 -0.07262891 -0.17184998 0.09671589 0.10768941 0.20864958 0.32617182
0.024123648 -0.107358724 -0.10402976 0.7373341 -0.15913548 -0.15867887 0.010597423 0.6612313
0.08327773 -0.045278214 -0.24465801 0.033015132 -0.21730193 0.16902763 -0.120311715 0.01602623
0.04669096 -0.07868683 0.07512691 -0.17381816 -0.011671595 -0.2369471 -0.0969363 0.3889281
0.071601145 -0.067642175 0.21998791 -0.02102867 0.17306986 -0.16754393 0.112828165 0.423072
-0.04764695 0.23862612 0.12886257 0.008050138 0.14926915 -0.31956142 0.22665226 -0.0106762415
00000000: ab18 833e 0720 903d 8736 4e3e 552f 353e
00000010: cd4d 33bd dc60 b93b 4e2d 6a3d 4003 20be
00000020: 9c4b c73d 2b33 073f 488f eb3e 7008 b73e
00000030: e7c0 673e 2581 3abd 91c8 853e 09c9 3abc
00000040: eb8f ba3e c2eb 12be 77be 94bd 71f9 2fbe
00000050: fb12 c63d 448c dc3d 3ca8 553e feff a63e
00000060: f59e c53c e4de dbbd 8e0d d5bd edc1 3c3f
00000070: 69f4 22be b77c 22be d0a0 2d3c 7446 293f
00000080: 848d aa3d a675 39bd a187 7abe e03a 073d
00000090: 6684 5ebe 9415 2d3e fd65 f6bd 7149 833c
000000a0: 053f 3f3d 9026 a1bd 23dc 993d 63fd 31be
000000b0: 383a 3fbc 43a2 72be 8a86 c6bd 9521 c73e
000000c0: 9fa3 923d fb87 8abd 8344 613e 5144 acbc
000000d0: 3a39 313e a390 2bbe 7412 e73d e59c d83e
000000e0: 7329 43bd 685a 743e 8df4 033e bae4 033c
000000f0: 03da 183e 8e9d a3be 8817 683e 67eb 2ebc

scale1.0.1.running_mean f4 [64]
0.0204455 -11.371572 0.1761422 0.07781795 0.92638904 1.4628714 -0.040030573 0.8592623
-1.1392497 -0.90534836 0.5242794 0.23467475 -0.50575244 -1.0177597 -0.45263064 -1.1225348
-0.096538655 0.9545389 -2.3942873 -1.3888085 -0.6423487 -0.06363972 0.89956886 -0.36933526
-0.0060244347 0.22984731 0.46322927 0.002316428 -0.50332695 1.3275715 -4.4994717 -0.28266186
-0.16565211 -0.36869237 -0.07381784 10.243835 -5.3254247 1.0841624 0.0048486753 1.3145273
10.933934 -0.3216885 -0.5306068 7.72907 -0.46358368 1.6127797 -0.5003155 -0.30181646
0.5712485 0.2397184 0.090450265 0.04676168 -0.45476058 -0.8066125 0.4490659 -0.57670593
-1.3518676 0.99569046 -1.0425141 -0.45252535 0.12273115 -2.8310368 -0.64145815 5.746634
00000000: 527d a73c f5f1 35c1 9f5e 343e 045f 9f3d
00000010: d527 6d3f 5f3f bb3f 19f7 23bd 9df8 5b3f
00000020: efd2 91bf e9c4 67bf 2d37 063f 944e 703e
00000030: fe78 01bf f345 82bf 34bf e7be 38af 8fbf
00000040: 0fb6 c5bd a95c 743f 013c 19c0 7ac4 b1bf
00000050: f770 24bf 8b55 82bd 254a 663f 8319 bdbe
00000060: 9f68 c5bb 185d 6b3e 632c ed3e 37cf 173b
00000070: 09da 00bf dded a93f acfb 8fc0 0eb9 90be
00000080: b5a0 29be 3fc5 bcbe cf2d 97bd c0e6 2341
00000090: e169 aac0 d5c5 8a3f a3e1 9e3b 6e42 a83f
000000a0: 65f1 2e41 5bb4 a4be d9d5 07bf 8b54 f740
000000b0: d75a edbe 916f ce3f ad14 00bf b087 9abe
000000c0: 573d 123f be78 753e fd3d b93d 2d89 3f3d
000000d0: 61d6 e8be 287e 4ebf f7eb e53e 00a3 13bf
000000e0: ff09 adbf 92e5 7e3f 1a71 85bf 67b1 e7be
000000f0: 785a fb3d b52f 35c0 9a36 24bf 6de4 b740

scale1.0.1.running_var f4 [64]
0.13574232 39.92822 0.1413598 0.11923656 0.12456332 0.27047494 0.18146801 0.14937696
0.18146542 0.10563486 0.23893993 0.25059146 0.21629 0.3526615 0.16367565 0.1863979
0.17653672 0.4064882 0.8983481 3.0886 0.13193285 0.19876458 0.13852166 0.18717633
0.26839104 0.09553415 0.31029657 0.22061549 0.3317668 0.35030672 4.375938 0.19126853
0.20567624 0.11241502 0.29820052 34.48204 7.527134 0.19463846 0.18991315 0.20508705
40.09425 0.17840001 0.17916512 19.148293 0.19718474 0.7241861 0.2263313 0.2208393
0.170542 0.11483152 0.24143283 0.3430207 0.2645397 0.14165768 0.13802537 0.15120305
0.2724968 0.12820825 0.15516238 0.2602108 0.15951593 2.7540667 0.19145042 11.405113
00000000: 0900 0b3e 7fb6 1f42 a0c0 103e 4c32 f43d
00000010: 0e1b ff3d b17b 8a3e c0d2 393e 46f6 183e
00000020: 12d2 393e 1757 d83d abac 743e 864d 803e
00000030: 207b 5d3e 0c90 b43e 979a 273e 17df 3e3e
00000040: 0bc6 343e 391f d03e 24fa 653f 9fab 4540
00000050: 6819 073e f188 4b3e 9fd8 0d3e 27ab 3f3e
00000060: 8d6a 893e 69a7 c33d 31df 9e3e 07e9 613e
00000070: 57dd a93e 675b b33e af07 8c40 e6db 433e
00000080: cb9c 523e d939 e63d bdad 983e 9ced 0942
00000090: 48de f040 4e4f 473e 9878 423e 5702 523e
000000a0: 8360 2042 7eae 363e 1077 373e b42f 9941
000000b0: ccea 493e 4364 393f 64c3 673e b323 623e
000000c0: 90a2 2e3e ca2c eb3d 2b3a 773e 69a0 af3e
000000d0: bf71 873e b60e 113e 8656 0d3e f9d4 1a3e
000000e0: b384 8b3e 0649 033e e3e2 1e3e 5a3a 853e
000000f0: 2558 233e a142 3040 940b 443e 587b 3641

scale1.1.0.weight f4 [64, 64, 3, 3]
0.013132502 0.0017835489 -0.0037075898 -0.011555176 -0.032698445 -0.03336936 0.0060148872 -0.02285457
-0.030698424 0.04831055 0.057298355 0.04823584 0.08724678 0.101011835 0.092567705 0.083729684
0.09647343 0.08978233 -0.16315205 -0.1454661 -0.11381297 -0.16051891 -0.1270561 -0.08477056
-0.13853599 -0.09770087 -0.053188067 -0.11221272 -0.10021315 -0.058928452 -0.11276222 -0.10167789
-0.055185918 -0.072148725 -0.071191385 -0.018024333 -0.0025807829 0.0028550772 -0.0029119372 0.005965282
0.011386186 0.0035827123 -0.003967019 -0.0045243776 -0.013927543 0.029258052 0.039647188 0.00035262347
0.034837462 0.040563744 -0.0018499071 0.009150268 0.003893426 -0.037267104 0.042026024 0.03967995
0.017120376 0.070561476 0.06750146 0.041218758 0.062106103 0.054282658 0.028313374 -0.043535538
-0.021614393 -0.025707196 -0.038738847 -0.011765033 -0.005974535 -0.027540885 -0.0020884178 -0.0012469338
-0.0037307076 -0.005817185 -0.023288792 0.00884759 0.0026522945 -0.0040405565 0.004374817 -0.002586789
-0.0007185129 0.04250306 0.030379836 -0.0034876405 0.036713805 0.026637202 -0.0010074882 0.0055133738
-0.00049752323 -0.018935913 0.008930724 0.03752868 0.011999153 0.005069334 0.023463612 0.004701644
-0.05629588 -0.039175127 -0.06433556 -0.07074783 -0.04880733 -0.07512527 -0.030254472 -0.009421438
-0.04776078 -0.049413297 -0.03988873 -0.07428064 -0.06828771 -0.0454507 -0.032366987 -0.06828044
-0.05227022 -0.02445072 -0.07558587 -0.061836936 -0.045408785 0.06290541 0.068074934 0.033809174
0.042837407 0.054624304 0.020955954 0.0340905 0.04310273 0.014055232 -0.0023600287 -0.011651196
-0.05021061 -0.029669657 -0.03576478 -0.06923335 -0.046590663 -0.049063116 -0.074360944 0.046565577
0.07879293 0.03872789 0.04644352 0.07395844 0.034187924 -0.01172409 0.010860108 -0.0138680115
0.019364992 0.0386943 0.01665577 0.02954035 0.042850945 0.033651505 -0.020433076 -0.0071355426
-0.019135578 -0.007371124 0.012775593 -0.03485137 0.021990804 0.034038637 -0.012940957 -0.04752597
-0.041437842 -0.08436662 -0.00999691 -0.009313619 -0.08022371 0.020989273 0.017182525 -0.05877136
-0.061846063 -0.07009461 -0.1332167 -0.0839134 -0.062597096 -0.048178833 -0.07888414 -0.053375863
-0.040239688 -0.09123198 -0.07153984 -0.05448171 -0.0037754807 0.030970586 -0.05232906 0.006143421
0.03125408 -0.0551769 -0.08331875 -0.059835125 -0.13443191 0.042806216 0.027205274 0.00021676053
0.03177946 0.021380605 0.0029737027 0.028584313 0.023884675 0.009393621 -0.034206856 -0.01175019
-0.040043835 0.0067782975 0.016449675 -0.018938458 -0.023788475 -0.027503429 -0.0665827 -0.1221384
-0.10181034 -0.10797943 -0.14409159 -0.12386296 -0.121450074 -0.136361 -0.118189976 -0.123077214
-0.026799679 -0.019391244 -0.025758222 -0.049866118 -0.03509523 -0.038381837 -0.046429038 -0.030896079
-0.022847243 0.02502941 0.052832235 0.03591859 0.067158855 0.095300205 0.078915514 0.061036702
0.07991423 0.051041476 0.026148438 0.039154317 -0.0060603567 0.037961666 0.050831225 0.0074146627
-0.021215023 -0.009432799 -0.045145217 -0.54932046 -0.55936867 -0.5010886 -0.5999002 -0.6044981
-0.5093809 -0.51440346 -0.5099565 -0.38881972 0.02804009 0.0295475 0.007048144 0.047200546
00000000: b529 573c f8c5 e93a 09fb 72bb ec51 3dbc
00000010: ceee 05bd 4fae 08bd 8818 c53b 8239 bbbc
00000020: 437b fbbc 49e1 453d aeb1 6a3d f292 453d
00000030: 71ae b23d 4bdf ce3d 2394 bd3d 787a ab3d
00000040: dd93 c53d ccdf b73d 5511 27be 11f5 14be
00000050: c616 e9bd 125f 24be ff1a 02be 309c adbd
00000060: 61dc 0dbe 6517 c8bd bbdb 59bd c8cf e5bd
00000070: 8d3c cdbd f65e 71bd e1ef e6bd 7f3c d0bd
00000080: a10a 62bd b6c2 93bd cacc 91bd c4a7 93bc
00000090: 5a22 29bb 3f1c 3b3b 33d6 3ebb 6a78 c33b
000000a0: 208d 3a3c f0cb 6a3b c4fd 81bb 3b41 94bb
000000b0: 5930 64bc 95ae ef3c 1765 223d 52e0 b839
000000c0: bab1 0e3d 2b26 263d 9578 f2ba 01eb 153c
000000d0: d928 7f3b 64a5 18bd 7b23 2c3d 7187 223d
000000e0: 0840 8c3c 8982 903d 353e 8a3d 00d5 283d
000000f0: f862 7e3d 7e57 5e3d 73f1 e73c 5252 32bd
00000100: ab10 b1bc e697 d2bc a0ac 1ebd 20c2 40bc
00000110: 08c6 c3bb 6c9d e1bc d6dd 08bb 2870 a3ba
00000120: e37e 74bb 169e bebb 23c8 bebc 7bf5 103c
00000130: 1ed2 2d3b a566 84bb a05a 8f3b 1e87 29bb
00000140: 965a 3cba b017 2e3d 22df f83c e690 64bb
00000150: 3761 163d 4336 da3c b20d 84ba 88a9 b43b
00000160: 386c 02ba 7d1f 9bbc 2c52 123c acb7 193d
00000170: 1898 443c a81c a63b c336 c03c 4010 9a3b
00000180: 8296 66bd 1976 20bd 5dc2 83bd 3de4 90bd
00000190: 32ea 47bd 47db 99bd 3ad8 f7bc 605c 1abc
000001a0: cfa0 43bd 9965 4abd 5d62 23bd 7320 98bd
000001b0: 6dda 8bbd 832a 3abd 3f93 04bd 9ed6 8bbd
000001c0: 4c19 56bd e04c c8bc c4cc 9abd ba48 7dbd
000001d0: 90fe 39bd 8dd4 803d df6a 8b3d 7d7b 0a3d
000001e0: 4776 2f3d bcbd 5f3d d2ab ab3c 7ba2 0b3d
000001f0: 7d8c 303d ea47 663c b6aa 1abb a8e4 3ebc
00000200: a4a9 4dbd c80d f3bc 177e 12bd 37ca 8dbd
00000210: dad5 3ebd 68f6 48bd 8d4a 98bd 8cbb 3e3d
00000220: 305e a13d 23a1 1e3d 8f3b 3e3d 8677 973d
00000230: a308 0c3d 6616 40bc 98ee 313c a836 63bc
00000240: 55a3 9e3c ea7d 1e3d ae71 883c 9bfe f13c
00000250: 7984 2f3d 29d6 093d 4463 a7bc 45d1 e9bb
00000260: 37c2 9cbc 7889 f1bb b950 513c 4fc0 0ebd
00000270: 0f26 b43c 196c 0b3d 4f06 54bc 97aa 42bd
00000280: baba 29bd 68c8 acbd 14ca 23bc 2698 18bc
00000290: 544c a4bd b2f1 ab3c 5ec2 8c3c 3dba 70bd
000002a0: 4c52 7dbd c38d 8fbd f569 08be cada abbd
000002b0: e832 80bd 2b57 45bd 028e a1bd a6a0 5abd
000002c0: 5fd2 24bd d5d7 babd 7b83 92bd 3728 5fbd
000002d0: 0e6e 77bb 07b6 fd3c ff56 56bd c04e c93b
000002e0: 4704 003d 2c01 62bd 05a3 aabd ad15 75bd
000002f0: 85a8 09be 9255 2f3d 98dd de3c 364a 6339
00000300: 2e2b 023d 6126 af3c 74e2 423b a629 ea3c
00000310: cba9 c33c b4e7 193c 7d1c 0cbd de83 40bc
00000320: 0105 24bd 7b1c de3b 78c1 863c d324 9bbc
00000330: 0ce0 c2bc df4e e1bc 835c 88bd b323 fabd
00000340: f181 d0bd 5224 ddbd bf8c 13be ddab fdbd
00000350: d1ba f8bd 38a2 0bbe 960d f2bd e80f fcbd
00000360: 008b dbbc 63da 9ebc e802 d3bc 6a40 4cbd
00000370: 04c0 0fbd 4636 1dbd 602c 3ebd c619 fdbc
00000380: 242a bbbc 7a0a cd3c 9d66 583d 5f1f 133d
00000390: 958a 893d c12c c33d 759e a13d 9f01 7a3d
000003a0: 12aa a33d de10 513d 4035 d63c 4760 203d
000003b0: f595 c6bb b17d 1b3d 6734 503d b3f6 f23b
000003c0: 21cb adbc 078c 1abc 31ea 38bd 44a0 0cbf
000003d0: c932 0fbf 5847 00bf 0f93 19bf 63c0 1abf
000003e0: c966 02bf f2af 03bf 828c 02bf 6113 c7be
000003f0: 55b4 e53c 990d f23c 1ef4 e63b 5c55 413d

scale1.1.1.weight f4 [64]
0.44509938 0.6659105 0.68183345 0.4734942 0.3620921 0.7561995 0.61879647 0.5392449
0.6858255 0.4707637 0.29708302 0.32885802 0.40232667 0.43026343 0.5497886 0.5562473
0.57366794 0.5498913 0.44454837 0.4976466 0.4246421 0.37155402 0.6333391 0.5765369
0.40864348 0.6544817 0.9774154 0.3805278 0.4602557 0.754172 0.40159625 0.6201669
0.6181506 0.49949142 0.47051248 0.4933065 0.59265876 0.8411155 0.45627144 0.6282901
0.6725505 0.5379811 0.38958618 0.40574783 0.45242828 0.4744119 0.4284405 0.47444174
0.8237101 0.77026695 0.6232448 0.40656826 0.47708696 0.65790963 0.57676524 0.8156896
0.5486426 0.66903615 0.659123 0.39990997 0.5721658 0.58469665 0.76009595 0.7664267
00000000: 11e4 e33e 1c79 2a3f a38c 2e3f d56d f23e
00000010: 2364 b93e 4a96 413f 7269 1e3f f40b 0a3f
00000020: 4392 2f3f f107 f13e 441b 983e 1460 a83e
00000030: c3fd cd3e 7d4b dc3e f2be 0c3f 3966 0e3f
00000040: e7db 123f adc5 0c3f d89b e33e 89cb fe3e
00000050: b06a d93e 543c be3e 8322 223f ec97 133f
00000060: b839 d13e 1d8c 273f e537 7a3f 8ad4 c23e
00000070: a3a6 eb3e 6b11 413f 069e cd3e 42c3 1e3f
00000080: 1e3f 1e3f 57bd ff3e 03e7 f03e ab92 fc3e
00000090: 7cb8 173f 5853 573f 699c e93e 9fd7 203f
000000a0: 452c 2c3f 21b9 093f d777 c73e 2ebe cf3e
000000b0: aea4 e73e 1ee6 f23e 8e5c db3e 07ea f23e
000000c0: aade 523f 3730 453f f98c 1f3f b729 d03e
000000d0: be44 f43e c46c 283f e3a6 133f 09d1 503f
000000e0: d773 0c3f f445 2b3f 49bc 283f 00c1 cc3e
000000f0: 7579 123f aeae 153f a695 423f 8a34 443f

scale1.1.1.bias f4 [64]
-0.16710542 0.14350195 0.48222703 0.0073157125 0.10612554 0.5202089 -0.24648419 0.06147401
0.31153107 0.44735593 -0.016110804 -0.057217263 0.1926197 0.006093126 -0.3221175 -0.08607196
0.42242277 0.44911024 -0.18457544 -0.0074473713 0.36261702 0.4027365 0.020094905 -0.09227731
0.15983865 0.54890764 0.60095155 0.26090533 0.039801165 0.56819546 0.38978142 -0.03835285
0.33520377 -0.38931563 0.30245468 0.24422716 -0.024684627 -0.1509695 0.21301854 0.029564125
0.35119736 0.7152312 0.44029248 0.40882492 0.008678857 0.24734585 0.033044145 0.11003881
0.7610243 -0.38544184 0.105819374 0.42224342 -0.010822943 -0.31253225 -0.114231475 0.8009459
0.058472734 -0.5770914 -0.05153492 0.63306326 0.12516385 0.004567795 0.5762453 0.3031017
00000000: af1d 2bbe 2df2 123e 76e6 f63e a5b8 ef3b
00000010: 5958 d93d 692c 053f 5a66 7cbe 2ccc 7b3d
00000020: 0081 9f3e d60b e53e cefa 83bc a65c 6abd
00000030: 193e 453e d8a8 c73b 96ec a4be 7f46 b0bd
00000040: cc47 d83e c7f1 e53e 5801 3dbe 1409 f4bb
00000050: f0a8 b93e 7b33 ce3e 129e a43c e3fb bcbd
00000060: beac 233e 3685 0c3f f6d7 193f 6295 853e
00000070: 8c06 233d 4275 113f 6e91 c73e e117 1dbd
00000080: d49f ab3e 6154 c7be 57db 9a3e af16 7a3e
00000090: 6a37 cabc c097 1abe 8821 5a3e 7730 f23c
000000a0: 24d0 b33e 6419 373f 046e e13e 8051 d13e
000000b0: c431 0e3c 3b48 7d3e 4c59 073d 075c e13d
000000c0: 7dd2 423f a258 c5be d4b7 d83d 4a30 d83e
000000d0: b752 31bc 3a04 a0be 31f2 e9bd ca0a 4d3f
000000e0: 1b81 6f3d 43bc 13bf 4816 53bd 6f10 223f
000000f0: f42a 003e 71ad 953b d084 133f 2530 9b3e

scale1.1.1.running_mean f4 [64]
-5.638159 3.2518854 -0.46660122 -1.1806415 -6.740581 1.0990187 8.258384 -0.16721639
-0.84212327 -7.60209 -9.725525 -0.2314953 -8.797718 -4.454498 5.8567615 1.0291167
-3.5104709 -0.717087 -0.1570131 -1.22139 -6.354792 -2.7540953 0.5984524 3.3254414
-2.0320249 0.47819972 -0.26060474 -8.089878 2.0373387 -0.0718474 -8.750202 2.4235814
-0.4528471 12.079674 -2.3390706 -0.7267692 0.25361124 5.9520593 2.7970746 2.6188416
1.233255 -1.1072042 -4.604093 -0.4403485 -3.605539 -3.2018013 -7.9526496 -6.331048
0.5491551 6.583866 3.4292164 -8.874426 -2.7903912 6.250029 1.3721344 -0.4294571
-0.45503622 8.936069 -1.02559 -7.9083514 -0.36019853 1.734884 1.3757601 1.8379468
00000000: cc6b b4c0 e41e 5040 5be6 eebe 431f 97bf
00000010: d7b2 d7c0 a5ac 8c3f 5722 0441 c63a 2bbe
00000020: 6495 57bf 5244 f3c0 c09b 1bc1 1b0d 6dbe
00000030: 74c3 0cc1 3f8b 8ec0 976a bb40 19ba 833f
00000040: 8eab 60c0 0393 37bf 0bc8 20be 8256 9cbf
00000050: 755a cbc0 1943 30c0 2d34 193f 08d4 5440
00000060: b20c 02c0 98d6 f43e fc6d 85be 2470 01c1
00000070: c263 0240 bb24 93bd d400 0cc1 f51b 1b40
00000080: 93db e7be 5846 4141 55b3 15c0 8c0d 3abf
00000090: 55d9 813e 4577 be40 4503 3340 1a9b 2740
000000a0: 4ddb 9d3f deb8 8dbf bb54 93c0 5c75 e1be
000000b0: 27c1 66c0 50ea 4cc0 1b7c fec0 f297 cac0
000000c0: 6e95 0c3f 08af d240 4878 5b40 a6fd 0dc1
000000d0: c595 32c0 3d00 c840 1aa2 af3f cde1 dbbe
000000e0: 82fa e8be 23fa 0e41 8846 83bf 3711 fdc0
000000f0: f16b b8be ae10 de3f e818 b03f d741 eb3f

scale1.1.1.running_var f4 [64]
39.06691 16.740032 0.6193436 43.85558 32.247967 50.02326 11.882976 16.685781
46.48544 5.2489023 20.42929 22.469044 43.91675 29.58956 38.08443 51.429565
17.432083 1.8410937 29.195488 35.98045 6.190525 1.7302793 29.543661 26.538687
12.547058 31.929688 0.8740937 12.713845 23.854122 0.7945623 12.694728 24.306189
31.398739 19.684206 42.70644 29.192501 40.183666 20.582212 22.233953 40.84905
27.868269 37.487328 11.285431 12.79015 24.980444 19.501604 16.541878 14.77004
34.76735 15.068357 35.744125 14.770427 28.465412 15.1133175 32.27704 0.8028904
49.685062 15.632133 37.300114 19.732454 19.272573 34.293846 35.317486 25.558537
00000000: 8444 1c42 96eb 8541 4d8d 1e3f 1d6c 2f42
00000010: ebfd 0042 d117 4842 ab20 3e41 7b7c 8541
00000020: 17f1 3942 02f7 a740 306f a341 9ac0 b341
00000030: c1aa 2f42 6bb7 ec41 7556 1842 e0b7 4d42
00000040: e874 8b41 f5a8 eb3f 5c90 e941 fbeb 0f42
00000050: c818 c640 cb79 dd3f 6b59 ec41 3b4f d441
00000060: c0c0 4841 0070 ff41 9bc4 5f3f e96b 4b41
00000070: 3ed5 be41 6f68 4b3f 9b1d 4b41 1373 c241
00000080: 9e30 fb41 4179 9d41 65d3 2a42 3e8a e941
00000090: 13bc 2042 5fa8 a441 23df b141 6d65 2342
000000a0: 37f2 de41 06f3 1542 2091 3441 74a4 4c41
000000b0: f3d7 c741 4903 9c41 c455 8441 1552 6c41
000000c0: c411 0b42 fe17 7141 fcf9 0e42 ab53 6c41
000000d0: 2ab9 e341 26d0 7141 b01b 0142 3a8a 4d3f
000000e0: 81bd 4642 371d 7a41 5133 1542 11dc 9d41
000000f0: 3b2e 9a41 e62c 0942 1b45 0d42 e277 cc41

scale2.1.0.weight f4 [64, 64, 3, 3]
-0.02294721 0.023542015 0.017325208 -0.0030165121 0.022207918 0.021388445 -0.0069145975 -0.018540738
0.016126428 0.02327559 0.12279708 0.020252438 0.0050683906 0.06607686 -0.022422293 -0.07008357
-0.08372478 -0.09247241 0.21380913 0.10135282 -0.13039578 0.14143531 -0.056450672 -0.2422723
0.012371629 -0.059887554 -0.057781532 0.050479125 0.10220467 0.052708644 0.021852748 0.056365855
0.021097984 -0.01133378 -0.01982217 0.009165245 0.010397004 0.010742503 -0.008201848 0.017540583
0.0011184361 0.0026238896 -0.004301097 -0.031709146 0.01140908 0.11085147 -0.033476647 -0.06865412
0.07814887 -0.06464212 -0.09116014 0.027138216 -0.04137683 -0.04442446 -0.044718355 0.06247356
-0.01706933 -0.025172932 0.047946367 -0.02201293 -0.0731989 -0.07723766 -0.070844054 -0.0072653564
0.12155769 0.04454247 -0.026820242 0.06444301 0.003981674 -0.10675891 -0.095541604 -0.059440695
0.1004771 -0.010693263 -0.062253755 0.06060555 -0.04628752 -0.078679286 0.07782322 0.033290036
0.019971384 0.09367132 0.0009170371 -0.028076584 -0.011008281 -0.11196905 -0.1106634 -0.029833017
-0.078981735 -0.041044503 0.03883617 0.005320326 -0.04081804 -0.001082043 -0.040704127 -0.0681591
0.0015597095 -0.025240283 -0.01737683 0.026159354 0.057718724 0.021056771 0.030492283 0.062151324
0.025439315 0.008989647 0.012070842 0.014589352 0.029722508 0.00054461113 -0.00025926455 -0.008471504
-0.04043057 -0.02989691 0.0022507878 -0.020804308 0.012742602 0.031110166 0.050093062 0.026014743
0.01435511 0.022751722 0.009642648 -0.003145843 -0.022373602 -0.00499654 0.017831417 0.029705672
0.010882291 0.012121669 0.020894118 0.0039049757 0.014846168 0.017848745 0.015294987 -0.025240561
0.08609159 0.02459134 -0.028383644 0.050756007 -0.004054375 -0.08634505 -0.08136161 -0.062255643
0.10663547 -0.037130788 -0.11301007 0.114276245 -0.055983037 -0.11415096 0.047940392 -0.02609611
-0.045197606 0.14557403 0.007744395 -0.10596965 0.09831267 -0.0062116566 -0.08086699 0.050278112
0.014003822 -0.0060974117 0.023549339 0.108263664 0.07242861 -0.00058115204 0.052342888 0.037976403
-0.036983784 -0.039465554 -0.0004364011 0.09116936 -0.030545766 -0.080385596 0.09625173 -0.01760314
-0.06499231 0.056055643 -0.011358811 -0.0387383 0.046966348 0.14424062 0.044155877 0.02139341
0.07179519 -0.032606572 -0.050233636 -0.046603236 -0.033484433 -0.016208079 0.055254843 0.012326583
-0.009483553 0.008533964 -0.008363394 -0.057931438 -0.08983657 -0.040600684 0.00422317 0.09268106
0.016907733 -0.024155954 0.02821981 -0.044997096 -0.07912499 -0.096575074 -0.095139466 -0.010328541
0.093734704 0.022743596 -0.0012306081 0.10355349 0.026801648 -0.08971583 -0.06604907 -0.05564697
-0.019257823 0.075172015 0.023927152 -0.012921427 0.08816428 0.036388293 -0.082172714 -0.033655718
-0.013413243 0.010520133 0.004992185 -0.0030227597 0.016496114 -0.012456727 -0.01772852 -0.010782523
-0.043589655 -0.010596538 0.066591 -0.11099285 -0.10591789 -0.015229444 -0.49824888 -0.33886403
0.0021905368 -0.06386057 0.055753093 0.048220135 0.035904326 0.010784967 0.040971126 0.030287983
0.011065015 0.03855868 0.022497062 0.051105917 0.042925645 0.1334815 0.055253923 0.013670897
00000000: cafb bbbc 2fdb c03c 98ed 8d3c adb0 45bb
00000010: 61ed b53c d236 af3c d993 e2bb bfe2 97bc
00000020: 921b 843c 73ac be3c 097d fb3d 71e8 a53c
00000030: be14 a63b 4e53 873d f5ae b7bc fa87 8fbd
00000040: e677 abbd 2d62 bdbd c8f0 5a3e 1192 cf3d
00000050: 7986 05be 6bd4 103e d238 67bd 3b16 78be
00000060: 5fb2 4a3c a74c 75bd 54ac 6cbd 33c3 4e3d
00000070: af50 d13d 05e5 573d 8904 b33c e2df 663d
00000080: aed5 ac3c 52b1 39bc 1a62 a2bc d329 163c
00000090: 3258 2a3c 5301 303c 0b61 06bc 45b1 8f3c
000000a0: 7d98 923a 90f5 2b3b 37f0 8cbb 73e1 01bd
000000b0: 26ed 3a3c 1806 e33d cf1e 09bd 889a 8cbd
000000c0: 840c a03d 1663 84bd 2bb2 babd f750 de3c
000000d0: c07a 29bd 6cf6 35bd 982a 37bd 47e4 7f3d
000000e0: fbd4 8bbc 7737 cebc 6963 443d 7654 b4bc
000000f0: 4ee9 95bd c72e 9ebd b016 91bd 3a12 eebb
00000100: 3df3 f83d 2a72 363d 20b6 dbbc b2fa 833d
00000110: b478 823b 6aa4 dabd 51ab c3bd 1678 73bd
00000120: f0c6 cd3d cc32 2fbc cbfd 7ebd 863d 783d
00000130: fc97 3dbd 9b22 a1bd c861 9f3d 225b 083d
00000140: 079b a33c c0d6 bf3d 5165 703a dd00 e6bc
00000150: 145c 34bc 0750 e5bd 7ea3 e2bd 5f64 f4bc
00000160: 2dc1 a1bd 481e 28bd ad12 1f3d 2156 ae3b
00000170: d130 27bd 57d3 8dba 5fb9 26bd 0097 8bbd
00000180: 2b6f cc3a b6c4 cebc db59 8ebc 244c d63c
00000190: 786a 6c3d 407f ac3c f4ca f93c 6392 7e3d
000001a0: 1c66 d03c 5049 133c c8c4 453c 2d08 6f3c
000001b0: 9e7c f33c 3cc4 0e3a e6ed 87b9 10cc 0abc
000001c0: 869a 25bd 5dea f4bc f481 133b cc6d aabc
000001d0: 59c6 503c bfda fe3c 622e 4d3d df1c d53c
000001e0: b231 6b3c d261 ba3c 32fc 1d3c 7d2a 4ebb
000001f0: d848 b7bc 04ba a3bb 3113 923c 4f59 f33c
00000200: a34b 323c f799 463c 242a ab3c 9fea 7f3b
00000210: 583d 733c 8837 923c d397 7a3c 4bc5 cebc
00000220: ca50 b03d c773 c93c d184 e8bc 88e5 4f3d
00000230: 90da 84bb acd5 b0bd eaa0 a6bd c6ff 7ebd
00000240: b363 da3d 7416 18bd d371 e7bd aa09 ea3d
00000250: 784e 65bd fbc7 e9bd 255d 443d 82c7 d5bc
00000260: 2021 39bd 5c11 153e b2c4 fd3b 9e06 d9bd
00000270: 2758 c93d 278b cbbb 989d a5bd 6cf0 4d3d
00000280: 4970 653c cccc c7bb 8bea c03c 57b9 dd3d
00000290: 7355 943d 7458 18ba 7f65 563d 258d 1b3d
000002a0: 4f7c 17bd a2a6 21bd c4cc e4b9 00b7 ba3d
000002b0: 1d3b fabc 34a1 a4bd a11f c53d 7634 90bc
000002c0: b01a 85bd 9a9a 653d 4e1a 3abc 0dac 1ebd
000002d0: c95f 403d d0b3 133e cbdc 343d 3c41 af3c
000002e0: 5b09 933d 788e 05bd c9c1 4dbd 09e3 3ebd
000002f0: f926 09bd cec6 84bc e752 623d 70f5 493c
00000300: e760 1bbc 0ad2 0b3c 9e06 09bc 8449 6dbd
00000310: 3cfc b7bd e74c 26bd 8562 8a3b 91cf bd3d
00000320: 1682 8a3c b5e2 c5bc 3b2d e73c e04e 38bd
00000330: 480c a2bd 27c9 c5bd 7bd8 c2bd 0a39 29bc
00000340: fbf7 bf3d c750 ba3c 5b4c a1ba da13 d43d
00000350: 218f db3c efbc b7bd bc44 87bd 14ee 63bd
00000360: 95c2 9dbc c9f3 993d e002 c43c 65b4 53bc
00000370: 798f b43d e40b 153d 2b4a a8bd 94da 09bd
00000380: 38c3 5bbc a35c 2c3c 7c95 a33b 7e19 46bb
00000390: dc22 873c 4d17 4cbc 673b 91bc 2ea9 30bc
000003a0: 118b 32bd 1a9d 2dbc dd60 883d 3850 e3bd
000003b0: 7beb d8bd eb84 79bc 7a1a ffbe 967f adbe
000003c0: 1c8f 0f3b 55c9 82bd 5b5d 643d 7a82 453d
000003d0: 6a10 133d 6eb3 303c 57d1 273d 811e f83c
000003e0: 094a 353c b5ef 1d3d c24b b83c 7054 513d
000003f0: cdd2 2f3d 60af 083e f051 623d e6fb 5f3c

scale2.1.1.weight f4 [64]
1.1126544 1.4415802 0.6961335 1.3018183 0.88401824 0.7063832 0.97861737 0.7796665
0.85082155 0.78491074 0.71811247 0.9682714 0.68794775 0.75767344 1.0283121 0.69853276
1.3019179 0.7191819 0.9597683 0.65765834 0.8597916 1.0297883 0.76675797 0.9556672
1.1072086 0.693846 0.6588002 0.8696735 1.3170228 1.0433822 1.0000513 0.7452058
1.410712 1.128577 0.80019796 0.7922883 1.0001851 0.9516154 1.0499438 0.88262254
0.75534666 1.2942164 0.7939794 0.6775468 0.90903354 1.0272433 1.432014 0.73876715
1.0597607 1.0394157 0.8750027 1.4242566 0.7779563 0.67923063 1.0621243 0.9049199
1.2858313 0.89338994 1.6304753 1.0833318 0.8249221 0.8180601 0.8468784 0.963819
00000000: 766b 8e3f b385 b83f ce35 323f fba1 a63f
00000010: 054f 623f 88d5 343f ab86 7a3f 3998 473f
00000020: 71cf 593f e9ef 483f 38d6 373f a2e0 773f
00000030: 581d 303f e3f6 413f bb9f 833f 0bd3 323f
00000040: 3fa5 a63f 4e1c 383f 60b3 753f 4c5c 283f
00000050: 4d1b 5c3f 1ad0 833f 404a 443f 9ba6 743f
00000060: 03b9 8d3f e49f 313f 21a7 283f eca2 5e3f
00000070: 3494 a83f 8c8d 853f ae01 803f cfc5 3e3f
00000080: 3692 b43f 3675 903f c6d9 4c3f 68d3 4a3f
00000090: 1106 803f 119d 733f 8f64 863f 8df3 613f
000000a0: 665e 413f e2a8 a53f 3c42 4b3f b573 2d3f
000000b0: 6cb6 683f b57c 833f 3c4c b73f d81f 3d3f
000000c0: 3da6 873f 930b 853f 2d00 603f 0a4e b63f
000000d0: 2528 473f 0fe2 2d3f b0f3 873f d5a8 673f
000000e0: 1f96 a43f 34b5 643f 6ab3 d03f 9eaa 8a3f
000000f0: 182e 533f 636c 513f 06cd 583f d8bc 763f

scale2.1.1.bias f4 [64]
0.12164755 0.44640237 -0.23195781 0.39174268 0.019209616 -0.3503055 -0.073214404 -0.19533914
-0.09220065 0.09696895 -0.18941644 -0.26691878 -0.16944785 -0.2569975 0.054590303 -0.043759715
-0.25648072 -0.16604319 0.08737488 -0.24654247 -0.22653057 0.19488485 -0.12993217 0.21741012
0.057462357 -0.30807272 -0.25841528 -0.14016296 0.09899117 0.22540265 -0.00737389 0.19724993
0.42205188 0.1582173 -0.52561456 -0.010780367 -0.020925334 0.047068335 0.3804087 0.0054428005
-0.1694385 0.48980352 -0.076211184 -0.17318399 -0.3142954 0.7929884 0.08140552 -0.08616234
0.101511426 0.17105056 -0.10691108 0.5828343 0.03152066 0.03686182 0.038046557 0.09265682
0.42192388 0.0075584427 0.8440194 0.20008424 0.10422739 -0.14770985 -0.0039282218 -0.26900792
00000000: 5a22 f93d da8e e43e 5986 6dbe 7f92 c83e
00000010: 7c5d 9d3c 3e5b b3be 6ff1 95bd fc06 48be
00000020: b2d3 bcbd a897 c63d 62f6 41be 94a9 88be
00000030: bd83 2dbe 2d95 83be 159a 5f3d 633d 33bd
00000040: 7151 83be 3a07 2abe 9af1 b23d a175 7cbe
00000050: a1f7 67be e58f 473e f00c 05be c2a0 5e3e
00000060: a65d 6b3d b5bb 9dbe 024f 84be e186 0fbe
00000070: e2bb ca3d f4cf 663e aca0 f1bb e3fb 493e
00000080: 2f17 d83e b703 223e ad8e 06bf 23a0 30bc
00000090: 9b6b abbc baca 403d eec4 c23e 8559 b23b
000000a0: 4981 2dbe 87c7 fa3e 9c14 9cbd 2557 31be
000000b0: 54eb a0be 4a01 4b3f f0b7 a63d e275 b0bd
000000c0: 39e5 cf3d e127 2f3e 32f4 dabd a134 153f
000000d0: cf1b 013d 6bfc 163d b5d6 1b3d dcc2 bd3d
000000e0: 6806 d83e d0ac f73b a811 583f e2e2 4c3e
000000f0: 2b75 d53d 4041 17be 50b8 80bb 68bb 89be

scale2.1.1.running_mean f4 [64]
-1.2798834 -4.1080713 8.220801 -0.6659437 1.3827511 -0.9495246 -8.789504 -2.5376291
-6.7258363 3.5632732 -5.437586 -5.1798477 -2.2730992 -0.76935196 -7.356272 3.7740831
-4.131037 -1.6540993 -0.0045621973 6.31057 -1.645877 -5.945622 -5.99231 -0.4522081
-4.5045295 -6.6673183 5.3939953 -7.7302155 -5.8705983 -3.0839953 -0.106067225 8.294805
-5.2748785 -7.932177 0.7013825 -1.1075628 1.0138642 2.2480288 0.48885974 -2.287017
-0.93517363 0.52119297 2.6047633 6.0060534 -6.272556 1.4842955 -6.012481 -6.662281
-6.972618 -6.6934586 -9.740945 -3.9860587 6.481229 -0.0867891 -4.626148 0.76882994
-0.45844576 -8.647658 -1.8476963 -6.679751 4.1109548 -1.1202945 -1.1630465 -7.001747
00000000: 38d3 a3bf 5275 83c0 6788 0341 497b 2abf
00000010: fdfd b03f 0b14 73bf cfa1 0cc1 8468 22c0
00000020: 0d3a d7c0 ab0c 6440 b400 aec0 50c1 a5c0
00000030: 757a 11c0 40f4 44bf 9566 ebc0 948a 7140
00000040: 7531 84c0 87b9 d3bf 7c7e 95bb 30f0 c940
00000050: 19ac d2bf 8942 bec0 01c1 bfc0 d287 e7be
00000060: 1b25 90c0 ac5a d5c0 9c9b ac40 ed5d f7c0
00000070: f1db bbc0 2e60 45c0 c639 d9bd 85b7 0441
00000080: cecb a8c0 65d4 fdc0 ce8d 333f 9ec4 8dbf
00000090: 4dc6 813f b4df 0f40 d34b fa3e 7d5e 12c0
000000a0: 8a67 6fbf e76c 053f 71b4 2640 9731 c040
000000b0: c7b8 c8c0 65fd bd3f 3f66 c0c0 6831 d5c0
000000c0: b01f dfc0 d030 d6c0 e9da 1bc1 961b 7fc0
000000d0: 3a66 cf40 7cbe b1bd 6809 94c0 0ad2 443f
000000e0: 67b9 eabe cf5c 0ac1 5081 ecbf 85c0 d5c0
000000f0: f18c 8340 cf65 8fbf b5de 94bf 500e e0c0

scale2.1.1.running_var f4 [64]
2.2427216 1.4507518 6.7030926 1.1129048 0.49120608 12.497088 18.164042 10.930306
5.8145456 1.0765182 26.438198 3.26189 14.8883915 5.634641 2.903328 1.6487598
3.1535375 9.106629 1.2922324 10.331799 15.771047 1.720737 9.334986 1.2331238
5.0518923 20.059292 9.160616 10.932224 3.725151 1.6293406 0.72408825 5.1175585
1.4683926 5.4479566 7.0566063 15.7924385 0.7748019 1.7249421 1.3173633 7.8013783
8.818157 1.052617 9.9510565 3.8973215 4.637092 0.57847726 3.090872 11.341661
2.4066968 1.5518062 9.243822 0.76086277 3.7328835 1.3341122 2.403838 1.4170282
1.4398558 5.941702 0.68665045 2.0019042 1.3998407 22.217451 14.018911 6.8317213
00000000: c088 0f40 3cb2 b93f bc7f d640 aa73 8e3f
00000010: 5d7f fb3e 13f4 4741 f54f 9141 89e2 2e41
00000020: c210 ba40 59cb 893f 6e81 d341 cec2 5040
00000030: da36 6e41 fb4e b440 20d0 3940 900a d33f
00000040: 8fd3 4940 c1b4 1141 df67 a53f 0c4f 2541
00000050: 3556 7c41 1c41 dc3f 1a5c 1541 00d7 9d3f
00000060: 1aa9 a140 6e79 a041 e291 1241 64ea 2e41
00000070: e068 6e40 3c8e d03f d95d 393f 0ac3 a340
00000080: 4af4 bb3f a955 ae40 b8cf e140 d4ad 7c41
00000090: 6b59 463f e7ca dc3f 5c9f a83f e4a4 f940
000000a0: 2c17 0d41 27bc 863f 8737 1f41 b76d 7940
000000b0: 0f63 9440 1617 143f d9d0 4540 7277 3541
000000c0: 5207 1a40 96a1 c63f b2e6 1341 e7c7 423f
000000d0: 90e7 6e40 30c4 aa3f 7bd8 1940 2e61 b53f
000000e0: 324d b83f 6c22 be40 53c8 2f3f 331f 0040
000000f0: fb2d b33f 57bd b141 764d 6041 769d da40

scale2.2.0.weight f4 [64, 64, 3, 3]
0.06332004 0.020083537 0.07091426 0.040035326 -0.05410282 -0.00740775 0.028456299 -0.003883589
0.04019368 -0.06878201 0.021571161 0.043223236 -0.14046375 -0.023916727 0.12719141 -0.10226274
-0.054750178 0.10070659 0.016761996 -0.017984826 -0.029772645 0.011953938 -0.00892311 -0.04694918
-0.0066040745 0.019188743 -0.009044502 -0.016136086 -0.018620605 0.019810557 0.04859535 -0.05888344
-0.10293014 0.003953255 0.028887862 -0.012724315 0.04869063 -0.04962266 -0.031122923 0.104779616
0.02059152 -0.0834574 0.031884238 0.08285308 0.009372309 0.024292616 0.0052923854 0.017214837
0.015724799 0.010682509 0.010730041 0.023736645 0.03975445 0.036243845 -0.10650956 -0.027169785
0.07403905 -0.10434995 -0.024189305 0.090340085 -0.118061304 -0.05129016 0.06255619 0.08979838
-0.03532056 -0.09002745 0.11042211 0.008719193 -0.086317666 0.10026539 0.04480511 -0.029035851
0.013707724 -0.06582729 -0.085226834 0.075147815 -0.021820057 -0.061930988 0.08062838 -0.0056753294
-0.05181214 0.035522066 0.0032284616 -0.006601967 0.03634792 0.051142346 -0.008602298 0.003196433
0.072845206 0.013972574 -0.023987988 0.007601754 0.07677022 -0.028278787 0.005075023 0.06768774
-0.023682876 0.0073692775 0.06636828 -0.043451503 0.0008689827 0.01484797 -0.050573975 0.06550954
0.115502626 -0.14901544 -0.038790815 0.0699873 0.0214827 -0.005321825 -0.00016804946 0.021003056
-0.014843332 -0.041264802 0.028650448 0.011614919 -0.013037706 0.0049616513 -0.033357333 -0.0541483
0.045188747 -0.035829954 -0.12001825 0.049246073 0.0040733763 -0.08034271 -0.04349031 0.013710778
0.10896943 -0.056218375 -0.032622736 0.08796932 -0.029863214 -0.05009728 0.06234917 0.042408556
0.029856415 -0.05385284 0.044632338 0.031913888 -0.11883829 -0.00435628 0.04459598 -0.03327611
-0.050648645 0.032301147 0.0007591809 -0.05683011 0.08984242 0.10418304 -0.12357773 0.029006494
0.06700986 -0.04635577 -0.09698719 -0.091905534 0.025856834 -0.050296754 -0.07816105 0.04055459
-0.021958722 -0.06818847 -0.015045615 -0.08051666 0.011335689 -0.013410243 -0.14339598 -0.040039353
0.028739683 -0.05330091 0.00051116495 0.08011161 0.0074658017 -0.0036856402 0.103413604 0.042627245
-0.0017834743 0.11389445 0.08594523 0.032991618 0.03915168 -0.05329244 -0.061375476 0.09239541
-0.03406459 -0.096359715 0.094933785 0.03265663 -0.03706678 -0.09053589 -0.031163014 0.07833831
-0.09267377 -0.0868877 0.03712216 -0.039878257 -0.090029694 0.010077775 0.045879297 0.031968653
0.048508804 0.01871418 -0.0004900776 0.02049592 0.0023134707 -0.01643137 0.021088006 0.009162741
-0.03612026 0.0039671636 0.08180156 -0.046220906 -0.16313718 0.020830525 0.0688957 -0.009455964
-0.06672617 0.044479318 0.119298875 -0.10706593 0.008568364 0.101650946 -0.12014255 -0.040988803
0.030964242 0.01610854 0.027612884 0.065512165 0.012051579 0.012174568 0.033104192 0.027318401
0.027386606 0.041556608 0.06597681 -0.055845488 -0.115947776 0.11915147 0.008013103 -0.07267736
0.13201939 0.043892138 -0.047795787 -0.02070266 0.04521135 0.08322171 -0.037820905 0.026824046
0.07374853 -0.049327504 0.0025911457 0.054481234 0.011557507 0.025584754 0.07894342 -0.017305003
00000000: f0ad 813d 3b86 a43c 7f3b 913d 15fc 233d
00000010: eb9a 5dbd b6bc f2bb 2f1d e93c d083 7ebb
00000020: 21a2 243d 95dd 8cbd 01b6 b03c d90a 313d
00000030: bbd5 0fbe 03ed c3bc 773e 023e 216f d1bd
00000040: b941 60bd 423f ce3d 7450 893c ea54 93bc
00000050: c3e5 f3bc 73da 433c 3c32 12bc c94d 40bd
00000060: fe66 d8bb b631 9d3c 642f 14bc d32f 84bc
00000070: 3d8a 98bc c049 a23c eb0b 473d c32f 71bd
00000080: 0acd d2bd 4e8a 813b 3da6 ec3c a579 50bc
00000090: d36f 473d 2141 4bbd 80f5 febc b296 d63d
000000a0: 8caf a83c b7eb aabd 0c99 023d e0ae a93d
000000b0: 508e 193c 4f01 c73c bf6b ad3b 2106 8d3c
000000c0: 4bd1 803c b105 2f3c 0ecd 2f3c 5a73 c23c
000000d0: 90d5 223d 6d74 143d af21 dabd 2b93 debc
000000e0: c9a1 973d 6db5 d5bd a628 c6bc 3904 b93d
000000f0: 20ca f1bd a115 52bd 761d 803d 37e8 b73d
00000100: 4bac 10bd 5060 b8bd fd24 e23d f2da 0e3c
00000110: 51c7 b0bd f157 cd3d 9085 373d 98dc edbc
00000120: 5d96 603c 75d0 86bd 688b aebd 19e7 993d
00000130: fabf b2bc 59ab 7dbd 7e20 a53d 1df8 b9bb
00000140: f738 54bd 967f 113d 9994 533b 5055 d8bb
00000150: 8ee1 143d a37a 513d a7f0 0cbc 3f7b 513b
00000160: de2f 953d 39ed 643c 7582 c4bc 2218 f93b
00000170: b539 9d3d eaa8 e7bc 614c a63b df9f 8a3d
00000180: 9702 c2bc fb79 f13b 18ec 873d 34fa 31bd
00000190: 71cc 633a e644 733c a826 4fbd de29 863d
000001a0: a48c ec3d 8197 18be 1ee3 1ebd 8055 8f3d
000001b0: 7dfc af3c b462 aebb 6f36 30b9 9a0e ac3c
000001c0: 7231 73bc 4805 29bd 58b4 ea3c 804c 3e3c
000001d0: 1a9c 55bc 5995 a23b b3a1 08bd 9cca 5dbd
000001e0: d617 393d 6ec2 12bd 21cc f5bd 40b6 493d
000001f0: f579 853b b88a a4bd e522 32bd 2ca3 603c
00000200: 5d2b df3d 3d45 66bd 6b9f 05bd 4229 b43d
00000210: b3a3 f4bc ce32 4dbd d861 7f3d 98b4 2d3d
00000220: 7195 f43c cc94 5cbd 66d0 363d 23b8 023d
00000230: 7d61 f3bd 20bf 8ebb 46aa 363d 884c 08bd
00000240: f474 4fbd 354e 043d c503 473a b0c6 68bd
00000250: 4dff b73d eb5d d53d 5216 fdbd 079f ed3c
00000260: 773c 893d 8cdf 3dbd 38a1 c6bd f838 bcbd
00000270: b6d1 d33c f803 4ebd e712 a0bd 921c 263d
00000280: c7e2 b3bc 66a6 8bbd e281 76bc ebe5 a4bd
00000290: 53b9 393c a3b6 5bbc 65d6 12be 4e00 24bd
000002a0: 7c6f eb3c 0e52 5abd b3ff 053a 8e11 a43d
000002b0: afa3 f43b c88a 71bb 83ca d33d e899 2e3d
000002c0: 78c3 e9ba 7e41 e93d 0e04 b03d 3822 073d
000002d0: 835d 203d 2c49 5abd da64 7bbd ce39 bd3d
000002e0: 5087 0bbd 3e58 c5bd a56c c23d f5c2 053d
000002f0: 56d3 17bd e16a b9bd 9449 ffbc d66f a03d
00000300: bfcb bdbd 2ef2 b1bd 680d 183d 6257 23bd
00000310: 7d61 b8bd 411d 253c eeeb 3b3d 90f1 023d
00000320: 2bb1 463d 7b4e 993c 8d78 00ba 0fe7 a73c
00000330: 999d 173b 159b 86bc c1c0 ac3c 521f 163c
00000340: d6f2 13bd fbfe 813b 9487 a73d 2252 3dbd
00000350: 6f0d 27be c7a4 aa3c 3019 8d3d 30ed 1abc
00000360: bba7 88bd f22f 363d f852 f43d 6245 dbbd
00000370: 5362 0c3c 5f2e d03d 4c0d f6bd e0e3 27bd
00000380: b9a8 fd3c 0ff6 833c 6a34 e23c 3e2b 863d
00000390: fc73 453c d777 473c 4398 073d d7ca df3c
000003a0: e059 e03c 4337 2a3d da1e 873d 3dbe 64bd
000003b0: 0776 edbd b005 f43d 6449 033c ded7 94bd
000003c0: 1730 073e 3ec8 333d 84c5 43bd a098 a9bc
000003d0: 892f 393d 2570 aa3d 18ea 1abd 1abe db3c
000003e0: 7809 973d a30b 4abd 36d0 293b b727 5f3d
000003f0: b35b 3d3c 1e97 d13c 16ad a13d 39c3 8dbc

scale2.2.1.weight f4 [64]
1.0339627 0.872216 0.66234726 0.7957828 0.8368894 1.0274568 0.8396736 0.6385046
0.5804808 0.8102262 0.6296989 0.6589461 0.59284836 0.8755523 0.59622926 0.53375083
0.6019424 0.4875797 0.68260974 0.9368289 0.6298923 0.5598782 0.59506947 0.6273063
0.7076021 0.51796687 0.4631815 0.6514703 0.7871564 0.71545506 0.5601835 0.9199988
0.7701795 0.5836667 0.50016505 0.5427876 1.0957445 0.6328587 0.6372105 0.5558596
0.80137974 0.73443264 0.8661753 1.0979644 0.68637234 0.5295148 0.6177867 0.91017073
0.5459626 0.44716802 0.6535452 0.6955676 0.59579253 0.54968333 0.5736887 0.62455654
0.49793878 0.8893402 0.6020813 1.1347241 0.97497445 0.61709374 0.615403 0.47712854
00000000: e458 843f 8c49 5f3f 978f 293f 6cb8 4b3f
00000010: 623e 563f b483 833f d9f4 563f 0a75 233f
00000020: 649a 143f fc6a 4f3f f233 213f b1b0 283f
00000030: e9c4 173f 3224 603f 7ba2 183f e5a3 083f
00000040: e618 1a3f 0ca4 f93e 83bf 2e3f 05d4 6f3f
00000050: 9f40 213f 2d54 0f3f 7956 183f 2597 203f
00000060: 6925 353f 7a99 043f 2026 ed3e c2c6 263f
00000070: 1583 493f 1028 373f 3068 0f3f 0b85 6b3f
00000080: 7c2a 453f 2e6b 153f d10a 003f 21f4 0a3f
00000090: 5b41 8c3f 0703 223f 3a20 233f d14c 0e3f
000000a0: 3927 4d3f c703 3c3f aabd 5d3f 198a 8c3f
000000b0: 19b6 2f3f 488e 073f 4527 1e3f f300 693f
000000c0: 34c4 0b3f 35f3 e43e bd4e 273f b810 323f
000000d0: dc85 183f 0cb8 0c3f 43dd 123f f0e2 1f3f
000000e0: d5f1 fe3e cdab 633f 0022 1a3f a43e 913f
000000f0: ed97 793f dbf9 1d3f 0d8b 1d3f 314a f43e

scale2.2.1.bias f4 [64]
-0.17414407 -0.25173157 -0.13349473 -0.13648905 -0.10848121 -0.15999262 -0.07469172 -0.120122135
-0.2479279 -0.0011779635 -0.21856113 -0.006009768 -0.25108537 -0.24939172 -0.09020199 -0.23209666
-0.029555244 -0.33210844 -0.034821823 -0.23634343 -0.08792375 -0.188444 -0.14959951 -0.11534105
-0.070851624 -0.21179971 -0.4399001 -0.1696172 -0.2142708 -0.15877868 -0.22445144 0.09830279
0.02002148 -0.07333224 -0.07892 -0.287833 -0.29284492 -0.13871679 -0.14655557 -0.06615925
-0.09629744 -0.12511703 -0.1882967 -0.25895455 -0.09144786 -0.26543975 -0.15484846 -0.05695347
-0.17386694 -0.31685638 -0.022258341 -0.12563351 -0.26603693 -0.04708164 -0.08298157 -0.15016487
-0.3406661 0.108768746 0.13252352 -0.031956576 -0.21911003 -0.14919965 -0.07303754 -0.40975428
00000000: d352 32be f6e2 80be d8b2 08be c9c3 0bbe
00000010: 662b debd 1bd5 23be f9f7 98bd 9802 f6bd
00000020: d0e0 7dbe e565 9aba 7dce 5fbe 97ed c4bb
00000030: 438e 80be 8b60 7fbe d2bb b8bd bfaa 6dbe
00000040: d71d f2bc 1e0a aabe 54a1 0ebd 0304 72be
00000050: 5e11 b4bd 77f7 40be 9d30 19be ee37 ecbd
00000060: a81a 91bd 06e2 58be 963a e1be 22b0 2dbe
00000070: ce69 5bbe e196 22be 99d6 65be f952 c93d
00000080: 1604 a43c 372f 96bd cfa0 a1bd d95e 93be
00000090: c5ef 95be c60b 0ebe aa12 16be 807e 87bd
000000a0: 9837 c5bd ae1e 00be dad0 40be b195 84be
000000b0: 0449 bbbd b8e7 87be 9890 1ebe 0b48 69bd
000000c0: 2d0a 32be 003b a2be 2057 b6bc 12a6 00be
000000d0: fe35 88be aed8 40bd 3ef2 a9bd d2c4 19be
000000e0: c96b aebe 26c2 de3d 3fb4 073e e6e4 02bd
000000f0: 615e 60be cbc7 18be b594 95bd 50cb d1be

scale2.2.1.running_mean f4 [64]
-0.021376375 -0.78698 -2.5799263 0.38891056 -0.33481133 -0.5151227 -0.46515 -2.423134
-3.1449454 -0.2562256 -5.7129016 -9.478407 -3.515633 0.17585663 -3.2374656 -1.6293442
1.7460878 -2.2489297 -1.2103384 0.27004802 -3.549998 0.3652163 -3.0136878 -4.606517
-1.590987 -2.49206 2.4012911 -1.5845206 -0.49916968 -1.8298864 -2.1571004 -1.0151777
-0.5315698 -0.04066243 -2.2170184 -2.6681523 -0.4857931 -0.4640575 -1.1617234 -3.378102
0.32746327 -1.3124816 -0.5825177 -0.32179824 -1.9078269 -5.074886 -4.844094 0.14881812
1.7106547 -1.665862 0.70912355 -0.9574909 -3.096115 -5.9522514 1.3903232 -1.2597339
-1.2788901 -0.2829021 2.7403035 -0.43887758 -0.32060644 -2.910696 0.680616 -2.228493
00000000: 821d afbc 8577 49bf 831d 25c0 491f c73e
00000010: 646c abbe 15df 03bf 2428 eebe a114 1bc0
00000020: c946 49c0 0030 83be 17d0 b6c0 8ea7 17c1
00000030: 2200 61c0 c313 343e a332 4fc0 5a8e d0bf
00000040: ce7f df3f 77ee 0fc0 5eec 9abf bc43 8a3e
00000050: 2b33 63c0 a2fd ba3e 43e0 40c0 9668 93c0
00000060: 76a5 cbbf e97d 1fc0 c1ae 1940 92d1 cabf
00000070: 2b93 ffbe b839 eabf ef0d 0ac0 58f1 81bf
00000080: f514 08bf a68d 26bd a1e3 0dc0 02c3 2ac0
00000090: e0b9 f8be f298 edbe 5ab3 94bf d332 58c0
000000a0: 44a9 a73e 66ff a7bf e11f 15bf bdc2 a4be
000000b0: ac33 f4bf 7765 a2c0 d102 9bc0 c763 183e
000000c0: bcf6 da3f f73a d5bf 1f89 353f 201e 75bf
000000d0: c026 46c0 d878 bec0 1cf6 b13f f63e a1bf
000000e0: acb2 a3bf 8bd8 90be 2261 2f40 90b4 e0be
000000f0: 8726 a4be d848 3ac0 da3c 2e3f a19f 0ec0

scale2.2.1.running_var f4 [64]
2.3490214 2.854786 11.874713 3.3910773 2.428644 2.6881096 3.5912344 6.6221766
11.014717 4.7294817 18.646564 12.382943 14.108014 3.5916908 14.129358 6.4577465
23.74678 7.736468 6.635882 2.6923432 11.29205 10.9465275 7.479684 16.926249
11.204402 2.9839983 13.650698 9.47715 2.0790722 3.2353635 12.9026 3.5629022
3.4678547 4.503502 15.573283 11.336986 2.1158903 7.783103 13.562835 12.187753
3.3560734 2.297048 1.8599972 1.8866425 15.356128 9.01921 10.518235 3.5709622
16.235706 4.077476 4.585101 3.2221458 1.8192039 7.6414638 11.799954 4.818621
12.637219 4.9234433 21.76705 3.000971 2.3831322 3.2396228 12.638423 9.354715
00000000: 5e56 1640 d0b4 3640 d3fe 3d41 6907 5940
00000010: e76e 1b40 fd09 2c40 c9d6 6540 dfe8 d340
00000020: 483c 3041 ea57 9740 2a2c 9541 8920 4641
00000030: 6dba 6141 43de 6540 da11 6241 dca5 ce40
00000040: 68f9 bd41 2591 f740 2559 d440 5a4f 2c40
00000050: 3dac 3441 fa24 2f41 9259 ef40 f568 8741
00000060: 3b45 3341 d4f9 3e40 4269 5a41 68a2 1741
00000070: 850f 0540 3210 4f40 0d71 4e41 9706 6440
00000080: 55f1 5d40 b01c 9040 2b2c 7941 4b64 3541
00000090: bf6a 0740 2e0f f940 5f01 5941 0901 4341
000000a0: e8c9 5640 d602 1340 6314 ee3f 807d f13f
000000b0: b3b2 7541 af4e 1041 b14a 2841 a58a 6440
000000c0: bae2 8141 af7a 8240 26b9 9240 a337 4e40
000000d0: acdb e83f df86 f440 9dcc 3c41 2532 9a40
000000e0: 0d32 4a41 d98c 9d40 eb22 ae41 e90f 4040
000000f0: 3d85 1840 fb55 4f40 fb36 4a41 eaac 1541
