Superpixel_methods/SSN_cp/log/newmodels/best_model_350000.pth (torch, 873395 bytes, 32 tensors)

scale1.0.0.weight f4 [64, 5, 3, 3]
0.6944505 1.031935 0.61483586 1.2326994 1.6500872 1.1370215 0.5715176 0.8704792
0.48401466 -0.2379593 -0.31017533 -0.2339373 -0.2270371 -0.3048185 -0.21998553 -0.061155472
-0.12594198 -0.06686822 0.33067277 0.41186142 0.34432957 0.4616725 0.54532814 0.46783936
0.42326805 0.49569035 0.41728157 0.0021896733 0.008452125 0.009954884 0.0005459069 0.008100996
0.009906346 -0.0034935516 0.0037825909 0.0037651954 -0.006622383 -0.0077306214 -0.015123741 -0.0035979222
-0.0047259433 -0.01112662 -0.010071525 -0.010189643 -0.017014947 0.2824346 0.09124427 -0.16816385
0.23438938 -0.031270076 -0.30956367 0.06498228 -0.18769357 -0.39579973 1.6281312 1.8032103
1.7340654 1.7743253 1.9734267 1.8975986 1.5653377 1.7344215 1.6579813 0.08043984
0.094194844 0.025029937 0.20010746 0.19937626 0.1103044 0.18562114 0.17651758 0.094442636
0.00046112874 0.0017464975 -0.00030136164 0.0007584158 -0.0009011412 9.139752e-05 0.0003872266 0.00051795697
-0.00051496876 0.008985597 0.005554177 0.007612967 -0.0074568614 -0.005379002 -0.0076588434 -0.0034865541
-0.0025123304 -7.996562e-05 0.5803135 0.8756135 0.47633263 1.1408143 1.5318583 1.0110955
0.50746393 0.79430276 0.394048 -0.080363564 -0.15602113 -0.048849102 -0.09435261 -0.16728301
-0.036769044 0.029714739 -0.041356534 0.06177131 -0.85977936 -0.8491824 -0.76980823 -0.8699712
-0.8364196 -0.7614219 -0.7477061 -0.7059007 -0.62773037 0.0066010216 0.013921038 0.007496533
0.00605534 0.01491639 0.007895164 0.0074003236 0.013262539 0.0072348802 0.00036343423 0.001439409
-0.001705025 -0.0014039169 -0.0006977285 -0.0039415373 0.0054622064 0.004354291 0.0075066653 -0.7321793
-1.0309025 -0.62579614 -1.292722 -1.652724 -1.1382622 -0.7978912 -1.0835218 -0.65430963
-0.30885172 -0.26250902 -0.33736554 -0.2963243 -0.24852358 -0.3434449 -0.3936301 -0.35899815
-0.42431325 0.38421533 0.35300586 0.35952166 0.3292274 0.30071115 0.3100231 0.28432855
0.25542432 0.27099335 -0.0027661615 0.003066205 0.008093411 -0.00020278298 0.0029921804 0.006658317
-0.0043360097 -0.00018334683 0.0030651165 0.001756096 0.0007847921 -0.0033069735 0.007303716 0.008246936
0.003523078 0.01014126 0.010421793 0.005510616 0.32902265 0.58836156 0.4424289 0.4984753
0.8125297 0.6227837 0.06266015 0.2927558 0.15772587 0.32770416 0.2849193 0.34903392
0.33953622 0.2940842 0.36054963 0.45299423 0.42379895 0.46211076 -0.59338826 -0.5564312
-0.4977521 -0.5813484 -0.5428432 -0.4901976 -0.52971494 -0.48524988 -0.43920976 -0.03911167
-0.092847325 -0.079593495 -0.04145562 -0.09106721 -0.08037513 -0.04471637 -0.09970366 -0.08152497
0.022530016 0.021875085 0.01217413 0.0034222188 0.0032855822 -0.0060160263 0.00019000102 -0.0004939153
-0.009746756 -0.7478928 -1.0765607 -0.6563029 -1.279781 -1.6916397 -1.1754342 -0.62393326
-0.95300823 -0.56302536 0.110198125 0.1924505 0.124147885 0.13955683 0.21623683 0.12997143
-0.002279493 0.054578334 -0.013398757 0.3744678 0.33542645 0.3390891 0.29194203 0.25335175
0.26917148 0.249511 0.21218486 0.22335897 -0.0012564064 -0.007212381 -0.0013910967 0.0007094717
00000000: 82c7 313f 7216 843f e265 1d3f 18c9 9d3f
00000010: 0f36 d33f ec89 913f fa4e 123f bad7 5e3f
00000020: c5d0 f73e 9aab 73be 4dcf 9ebe 428d 6fbe
00000030: 6a7c 68be 2c11 9cbe e343 61be 297e 7abd
00000040: eff6 00be 35f2 88bd f14d a93e 80df d23e
00000050: f74b b03e 5760 ec3e a09a 0b3f a488 ef3e
00000060: 97b6 d83e 20cb fd3e eea5 d53e 9f80 0f3b
00000070: c87a 0a3c cf19 233c 311b 0f3a 0aba 043c
00000080: 3a4e 223c 12f4 64bb 58e5 773b 7fc1 763b
00000090: 9300 d9bb 2751 fdbb 91c9 77bc 1ecb 6bbb
000000a0: 16dc 9abb 6d4c 36bc 0a03 25bc 76f2 26bc
000000b0: ee62 8bbc 459b 903e 47de ba3d 2533 2cbe
000000c0: c503 703e 0d15 00bd 217f 9ebe 6e15 853d
000000d0: be32 40be 43a6 cabe 9a66 d03f 98cf e63f
000000e0: dbf5 dd3f 171d e33f 3f99 fc3f 83e4 f23f
000000f0: fc5c c83f 8601 de3f bb38 d43f a5bd a43d
00000100: 3ae9 c03d 950b cd3c f8e8 4c3e 4a29 4c3e
00000110: 46e7 e13d 7813 3e3e 06c1 343e 246b c13d
00000120: a7c3 f139 bbea e43a 1300 9eb9 6cd0 463a
00000130: 903a 6cba abac bf38 ad04 cb39 81c7 073a
00000140: f8fe 06ba 5338 133c d0ff b53b 3276 f93b
00000150: b058 f4bb 5742 b0bb 09f7 fabb ac7e 64bb
00000160: e9a5 24bb 37b3 a7b8 6d8f 143f 3528 603f
00000170: dfe1 f33e 3406 923f ef13 c43f 946b 813f
00000180: 28e9 013f 6d57 4b3f a9c0 c93e a795 a4bd
00000190: 01c4 1fbe ff15 48bd f13b c1bd 3d4c 2bbe
000001a0: 239b 16bd 536c f33c 7865 29bd ea03 7d3d
000001b0: 801a 5cbf 0564 59bf 2712 45bf 6fb6 5ebf
000001c0: 981f 56bf 8cec 42bf ab69 3fbf e9b5 34bf
000001d0: f0b2 20bf 624d d83b 1115 643c 7aa5 f53b
000001e0: e06b c63b e063 743c b85a 013c 6a7e f23b
000001f0: 1f4b 593c 9312 ed3b 518b be39 8daa bc3a
00000200: 257b dfba a203 b8ba c4e7 36ba 0328 81bb
00000210: 4ffc b23b 71ae 8e3b 79fa f53b 1a70 3bbf
00000220: 9df4 83bf 2d34 20bf ea77 a5bf 768c d3bf
00000230: 93b2 91bf 9942 4cbf d8b0 8abf d680 27bf
00000240: d021 9ebe 9567 86be 2dbb acbe d2b7 97be
00000250: f77c 7ebe 03d8 afbe e289 c9be 9bce b7be
00000260: 963f d9be dfb7 c43e 2fbd b43e 3913 b83e
00000270: 7e90 a83e d0f6 993e 59bb 9e3e 8393 913e
00000280: fac6 823e a4bf 8a3e 7d48 35bb 62f2 483b
00000290: 3a9a 043c 24a2 54b9 7518 443b 032e da3b
000002a0: 1615 8ebb ca40 40b9 1fe0 483b ce2c e63a
000002b0: 82ba 4d3a cfb9 58bb 0354 ef3b 281e 073c
000002c0: 71e3 663b 8727 263c 2bc0 2a3c 6692 b43b
000002d0: a875 a83e dd9e 163f 0a86 e23e 2838 ff3e
000002e0: f201 503f c16e 1f3f f753 803d 17e4 953e
000002f0: e482 213e d7c8 a73e f1e0 913e 93b4 b23e
00000300: b1d7 ad3e 3492 963e f699 b83e dcee e73e
00000310: 2dfc d83e c899 ec3e 4be8 17bf 4672 0ebf
00000320: 5dd9 febe 40d3 14bf c6f7 0abf 2efb fabe
00000330: 669b 07bf ac72 f8be 1ae0 e0be 8f33 20bd
00000340: bd26 bebd ea01 a3bd 5ecd 29bd 7281 babd
00000350: b79b a4bd 8328 37bd 6f31 ccbd 90f6 a6bd
00000360: de90 b83c 6133 b33c 0176 473c 4e47 603b
00000370: ec52 573b 1622 c5bb 033b 4739 187a 01ba
00000380: dcb0 1fbc e775 3fbf becc 89bf 7803 28bf
00000390: ddcf a3bf a687 d8bf a174 96bf 17ba 1fbf
000003a0: 59f8 73bf 6e22 10bf 8eaf e13d be11 453e
000003b0: 3f41 fe3d fce7 0e3e 306d 5d3e 3b17 053e
000003c0: 8c63 15bb 888d 5f3d 7686 5bbc 3eba bf3e
000003d0: 04bd ab3e 169d ad3e 6d79 953e 52b7 813e
000003e0: d8d0 893e d07f 7f3e fd46 593e 37b8 643e
000003f0: 01ae a4ba d655 ecbb 7655 b6ba d7fb 393a

scale1.0.1.weight f4 [64]
0.960162 0.81884295 1.0431218 0.8666295 0.64376575 0.9236543 0.927947 1.0503314
0.87362033 0.94465196 0.88115495 0.73325294 0.9869235 0.742963 0.76632106 0.679778
0.9445951 0.86061805 0.9611962 0.7125809 1.0283688 0.8840695 0.9333608 0.5808802
0.9502611 1.0253638 0.918251 0.9487223 0.8769959 0.9381174 0.9644619 0.91820675
1.0112967 0.88878363 0.99585855 0.9632599 1.0088632 1.0140942 0.9079374 0.9564601
0.9534151 0.87815136 0.87762237 1.0221943 0.8368784 0.9863325 1.0350628 0.69711757
0.70052856 0.84359676 0.68650985 1.0108224 0.9228104 0.8105194 1.0320226 0.6938877
0.98193234 0.8877918 0.83828765 0.8741069 0.9519467 0.8040797 0.7889735 0.9586107
00000000: 2dcd 753f b19f 513f 0485 853f 6edb 5d3f
00000010: d5cd 243f 9c74 6c3f ef8d 6d3f 4271 863f
00000020: 95a5 5f3f b6d4 713f 5f93 613f 77b6 3b3f
00000030: 05a7 7c3f d332 3e3f 9e2d 443f ee05 2e3f
00000040: fcd0 713f 7751 5c3f f410 763f b46b 363f
00000050: 97a1 833f 6152 623f bcf0 6e3f 91b4 143f
00000060: 5044 733f 1f3f 833f 7f12 6b3f 77df 723f
00000070: ce82 603f 7628 703f fae6 763f 990f 6b3f
00000080: 2c72 813f 5387 633f 96f0 7e3f 3398 763f
00000090: 6e22 813f d7cd 813f 966e 683f 92da 743f
000000a0: 0313 743f 87ce 603f dcab 603f 43d7 823f
000000b0: aa3d 563f 4980 7c3f f07c 843f 4c76 323f
000000c0: d755 333f f5f5 573f 1cbf 2f3f a162 813f
000000d0: 4d3d 6c3f 337e 4f3f 5119 843f a0a2 313f
000000e0: eb5f 7b3f 5346 633f 059a 563f 78c5 5f3f
000000f0: c7b2 733f 2bd8 4d3f 2bfa 493f 8367 753f

scale1.0.1.bias f4 [64]
-0.07720802 0.46564075 0.04461987 -0.053985655 -0.15526865 0.03333468 0.746302 0.0053646974
-0.111340255 -0.01473141 -0.018721662 -0.03562619 -0.026890907 -0.07743714 0.04679124 -0.1621002
0.04979325 -0.058682546 0.08446657 -0.009188033 0.09406784 -0.0440349 -0.04498393 -0.22622895
-0.010393871 0.027403848 0.042017374 0.027040672 0.028676497 -0.030539567 -4.916266e-05 0.038840376
0.017505007 -0.05095807 0.1990373 0.04081857 0.023942357 -0.06281125 0.10910831 -0.0075325524
-0.053707734 -0.05310239 -0.02752045 -0.00358909 -0.13285379 -0.018938355 -0.010456449 -0.03726972
-0.10104488 0.14147565 -0.11940584 -0.013385688 0.045640785 -0.035489097 0.007511083 -0.19682038
-0.00028712698 0.045266684 0.03238454 -0.059286885 1.1364113 0.045544382 0.6461399 0.013661837
00000000: 3d1f 9ebd 7768 ee3e 53c3 363d 1020 5dbd
00000010: bffe 1ebe f289 083d a60d 3f3f 58ca af3b
00000020: 5c06 e4bd 035c 71bc 2c5e 99bc c5ec 11bd
00000030: 524a dcbc 5d97 9ebd 2ca8 3f3d 98fd 25be
00000040: 02f4 4b3d 1c5d 70bd cffc ac3d 6789 16bc
00000050: a4a6 c03d f05d 34bd 1241 38bd 90a8 67be
00000060: 0e4b 2abc 097e e03c 691a 2c3d 6684 dd3c
00000070: f9ea ea3c 1d2e fabc 0134 4eb8 1617 1f3d
00000080: a966 8f3c 69b9 50bd 6fd0 4b3e 5f31 273d
00000090: c322 c43c 2fa3 80bd 2d74 df3d a1d3 f6bb
000000a0: a4fc 5bbd e481 59bd 9172 e1bc f036 6bbb
000000b0: d30a 08be 9c24 9bbc 8751 2bbc 22a8 18bd
000000c0: 9ef0 cebd fede 103e 0d8b f4bd a54f 5bbc
000000d0: d5f1 3a3d 045d 11bd 881f f63b 488b 49be
000000e0: 8889 96b9 8f69 393d a7a5 043d ced6 72bd
000000f0: ed75 913f bf8c 3a3d 6d69 253f e6d5 5f3c

scale1.0.1.running_mean f4 [64]
-0.23857777 -0.038347762 1.3825488 0.47875175 -7.342888 -1.2549205 0.046958894 -0.94976664
-1.3857112 -0.85911256 0.28786013 -4.888739 2.0211973 1.2844368 -0.37953913 -1.2522256
-1.2135484 0.7506241 -1.8294784 0.38870078 1.0916322 -1.2012963 -0.9364937 1.6457362
0.31374443 -0.949594 1.8851975 -0.9268 -0.39496532 0.35997236 -1.8614839 0.6850296
-0.39091873 1.0674962 0.282967 0.7167365 -0.8114141 -0.53635526 -0.28556746 0.341264
2.0250983 -0.7846656 -0.53938186 0.33141735 0.0036984682 0.83942837 1.077226 -8.624647
-0.83641464 5.0174575 1.4604824 -0.3816359 0.36525 1.0094031 0.9066059 -0.7693107
0.31035802 0.9211885 -0.015295139 -2.0402513 -0.3638059 0.5344918 0.10243099 -0.5378551
00000000: bb4d 74be 8b12 1dbd 5cf7 b03f f31e f53e
00000010: f0f8 eac0 3ca1 a0bf f857 403d e823 73bf
00000020: fc5e b1bf cdee 5bbf 6762 933e 8d70 9cc0
00000030: 4c5b 0140 6d68 a43f f452 c2be ee48 a0bf
00000040: 8e55 9bbf e728 403f 592c eabf ca03 c73e
00000050: 9bba 8b3f 14c4 99bf 0dbe 6fbf 7ca7 d23f
00000060: 1ca3 a03e 9818 73bf 274e f13f c442 6dbf
00000070: e538 cabe 4c4e b83e 1b45 eebf 1a5e 2f3f
00000080: 8026 c8be b7a3 883f 0de1 903e 0b7c 373f
00000090: d6b8 4fbf 944e 09bf e635 92be 28ba ae3e
000000a0: 369b 0140 d8df 48bf ee14 0abf 89af a93e
000000b0: 0062 723b c7e4 563f 8be2 893f 8efe 09c1
000000c0: 451f 56bf 038f a040 16f1 ba3f c865 c3be
000000d0: 0c02 bb3e 1f34 813f 5317 683f 8cf1 44bf
000000e0: 3fe7 9e3e 02d3 6b3f 7698 7abc 7a93 02c0
000000f0: c444 babe 74d4 083f 57c7 d13d dfb0 09bf

scale1.0.1.running_var f4 [64]
0.49422106 0.016601887 0.38225922 0.14328504 21.776009 0.27373093 0.027251765 0.39086857
0.24290442 0.2688123 0.078850605 8.161073 0.555243 0.6175415 0.029992945 0.35835522
0.2762083 0.28512472 0.47217244 0.13202785 0.21274316 0.17407659 0.33140755 0.47810215
0.21900177 0.74540174 1.8234242 0.09438761 0.33304894 0.18598148 0.77051187 0.20154953
0.49451828 0.33643275 0.15305471 0.36549398 0.2814936 0.1508899 0.084669985 0.3066069
0.9236019 0.41692537 0.3396297 0.14675406 0.39911237 0.3906496 0.26936194 19.448805
0.2439265 7.7258086 0.46347746 0.10793889 0.10303131 0.15028602 0.09650999 0.15443708
0.103425674 0.23726557 0.0277733 1.0677987 0.04493618 0.17807318 0.037979696 0.15025987
00000000: 8b0a fd3e ae00 883c 7bb7 c33e 50b9 123e
00000010: 4435 ae41 7626 8c3e 183f df3c ed1f c83e
00000020: f0bb 783e c4a1 893e 6d7c a13d c193 0241
00000030: 6824 0e3f 3317 1e3f c4b3 f53c 567a b73e
00000040: 2d6b 8d3e defb 913e 96c0 f13e 4f32 073e
00000050: 58d9 593e 2241 323e 40ae a93e cec9 f43e
00000060: 0042 603e a6d2 3e3f f765 e93f 4b4e c13d
00000070: 6485 aa3e ee71 3e3e 4440 453f 0063 4e3e
00000080: 8031 fd3e ea40 ac3e 60ba 1c3e 0722 bb3e
00000090: ee1f 903e e282 1a3e 7567 ad3d 94fb 9c3e
000000a0: 2d71 6c3f 3e77 d53e f2e3 ad3e b246 163e
000000b0: 7558 cc3e 3903 c83e cfe9 893e 2797 9b41
000000c0: dec7 793e d339 f740 eb4c ed3e 110f dd3d
000000d0: 1402 d33d 94e4 193e 08a7 c53d c124 1e3e
000000e0: d7d0 d33d bff5 723e d584 e33c a1ad 883f
000000f0: 000f 383d d158 363e 9990 1b3d b9dd 193e

scale1.1.0.weight f4 [64, 64, 3, 3]
-0.037687663 -0.073203206 -0.022989755 -0.0700611 -0.11363387 -0.057484288 0.00048319894 -0.03897217
0.0067567835 0.0049855164 -0.019511094 -0.022518698 -0.0053840773 -0.03727717 -0.03621706 0.02423523
-0.001217795 8.005836e-05 0.031090269 0.004166831 0.04425988 0.011449147 -0.03441698 0.013819196
0.041070946 0.0022344715 0.036997065 -0.012826896 0.00897746 -0.02257632 0.008631408 0.044635963
0.005894096 -0.017255435 0.007574053 -0.01788946 0.0020448372 -0.010642992 0.0065995553 0.0006388109
-0.014119034 0.0037814078 0.0065629333 -0.009144084 0.008194526 0.027804868 0.05025994 0.013906391
0.053707182 0.082452185 0.03521269 0.017378867 0.036956 0.00534121 -0.039049927 -0.0769638
-0.08368725 -0.04911935 -0.06904972 -0.072944514 -0.08124765 -0.09532893 -0.07760305 0.013786666
-0.011763191 0.012112355 -0.010220896 -0.049217254 -0.02573806 0.051626794 0.014275983 0.029713705
0.0008407984 0.019789806 -0.014777992 0.031249749 0.05656685 0.016738845 -0.0016838786 0.018683732
-0.010966042 -0.060851764 -0.072779365 -0.03421548 -0.069717854 -0.097166814 -0.050850864 -0.023827195
-0.043175787 -0.005811492 -0.03880869 -0.015814671 -0.04220252 -0.021800388 0.015267483 -0.020874549
-0.06127106 -0.027302386 -0.04071132 0.008500185 -0.0029147496 0.008852151 0.0011438496 -0.013776496
-0.0004343636 0.0063543282 -0.0068783094 0.002403325 -0.002047338 -0.01859506 0.016271736 -0.02714777
-0.053831104 -0.013816437 0.03020611 0.007894555 0.037994243 0.02909525 0.012763656 0.0019314563
0.01820396 0.005486859 -0.008084892 0.007714545 -0.0008562793 -0.0055336934 0.03542897 0.0292053
0.027041955 0.021664811 0.012814822 0.0058779134 0.017339528 0.006242355 0.008041784 -0.004964152
-0.00079411914 -0.004629963 -0.017713523 -0.018701963 -0.020647625 -0.011993432 -0.012346122 -0.015491799
0.03447067 0.06976786 0.017113522 0.07234301 0.120554596 0.06154015 0.0039314143 0.047759358
0.0022583036 -0.027288852 -0.069853865 -0.027799554 -0.044171173 -0.09886128 -0.05011414 0.020341765
-0.03117209 0.010170709 0.0002842733 0.040341597 -0.00063449075 0.042678997 0.092824824 0.036049206
-0.03221694 0.002710813 -0.03498862 0.04769703 0.058225576 0.045036186 0.05005988 0.061071724
0.04771644 0.03497312 0.0428184 0.032208942 0.0024340795 -0.039489776 0.00803923 -0.033103857
-0.09184841 -0.03412001 0.028405672 -0.025299726 0.021361668 -0.025939256 -0.008810748 -0.048949946
0.022651931 0.046241518 -0.00096385495 -0.021257253 0.0020818128 -0.037802834 0.016847402 0.050732415
0.022855315 0.045419928 0.09242841 0.05949874 -0.0061809216 0.034497496 0.008512969 -0.0015512715
-0.009661261 0.0036985704 -0.0245153 -0.034942523 -0.018505767 -0.010218805 -0.02135817 -0.009153039
-0.009324126 0.0029520048 -0.0212891 0.016309913 0.04135614 0.007230871 -0.02751225 -0.014218895
-0.035266664 -0.011718125 -0.040785383 -0.00014502721 -0.04388104 -0.09129051 -0.0397947 0.01972285
-0.022592884 0.01774335 0.011653153 0.02607343 -0.009676091 0.041959934 0.06524058 0.021277698
-0.01776814 0.0046297824 -0.030336896 -0.028514154 0.010479829 -0.038068444 0.0010022483 0.05662243
-0.0011380131 -0.033161517 0.019231262 -0.025238024 -0.012085044 -0.011020463 -0.037605643 -0.007264975
00000000: 615e 1abd 90eb 95bd 0355 bcbc 327c 8fbd
00000010: e0b8 e8bd a574 6bbd dd55 fd39 48a1 1fbd
00000020: 0268 dd3b 8b5d a33b bbd5 9fbc 2279 b8bc
00000030: ea6c b0bb f2af 18bd 5758 14bd f688 c63c
00000040: 6b9e 9fba 01e5 a738 05b1 fe3c e989 883b
00000050: d949 353d 3495 3b3c d2f8 0cbd e969 623c
00000060: 023a 283d 3670 123b 3c8a 173d e727 52bc
00000070: 3216 133c faf1 b8bc c06a 0d3c 33d4 363d
00000080: 4323 c13b 455b 8dbc c32f f83b eb8c 92bc
00000090: ad02 063b f25f 2ebc 1541 d83b e075 273a
000000a0: 8553 67bc 7fd1 773b e00d d73b 11d1 15bc
000000b0: 5542 063c 09c7 e33c 5edd 4d3d a2d7 633c
000000c0: 10fc 5b3d b1dc a83d 2e3b 103d 205e 8e3c
000000d0: 2d5f 173d 5105 af3b d1f2 1fbd 329f 9dbd
000000e0: 3964 abbd 5f31 49bd f169 8dbd ef63 95bd
000000f0: 2b65 a6bd d03b c3bd 59ee 9ebd 78e1 613c
00000100: 66ba 40bc e672 463c 8c75 27bc 0898 49bd
00000110: a0d8 d2bc 9e76 533d d0e5 693c 286a f33c
00000120: 0769 5c3a 3b1e a23c 641f 72bc 79ff ff3c
00000130: a4b2 673d e71f 893c 97b5 dcba a00e 993c
00000140: eaaa 33bc b33f 79bd 590d 95bd 8825 0cbd
00000150: 3cc8 8ebd 65ff c6bd ff48 50bd 4031 c3bc
00000160: 18d9 30bd 546e bebb dcf5 1ebd c58d 81bc
00000170: 8ddc 2cbd ba96 b2bc 7724 7a3c 1a01 abbc
00000180: 5df7 7abd 41a9 dfbc eac0 26bd 5c44 0b3c
00000190: 6205 3fbb 9d08 113c 39ed 953a d0b6 61bc
000001a0: 4cbb e3b9 f837 d03b 7163 e1bb 1a81 1d3b
000001b0: a22c 06bb ab54 98bc 4e4c 853c 0065 debc
000001c0: 017e 5cbd 565e 62bc ce72 f73c 2a58 013c
000001d0: da9f 1b3d 2959 ee3c a71e 513c eb28 fd3a
000001e0: 7920 953c 1ccb b33b 7f76 04bc 4bca fc3b
000001f0: ee77 60ba fc53 b5bb f81d 113d f43f ef3c
00000200: 1787 dd3c 677a b13c 42f5 513c 839b c03b
00000210: a00b 8e3c ab8c cc3b b0c1 033c 53aa a2bb
00000220: 6f2c 50ba f2b6 97bb f31b 91bc dc34 99bc
00000230: 3525 a9bc 1a80 44bc 6447 4abc 51d1 7dbc
00000240: 1e31 0d3d 74e2 8e3d a831 8c3c 9228 943d
00000250: 54e5 f63d 8611 7c3d 18d3 803b 519f 433d
00000260: 0c00 143b df8c dfbc 8b0f 8fbd e4bb e3bc
00000270: d5ec 34bd c877 cabd 7c44 4dbd c6a3 a63c
00000280: 9c5c ffbc 0ca3 263c 840a 9539 3b3d 253d
00000290: f453 26ba 2cd0 2e3d f11a be3d 55a8 133d
000002a0: e9f5 03bd e5a7 313b 3a50 0fbd f65d 433d
000002b0: f17d 6e3d dd77 383d 970b 4d3d 5826 7a3d
000002c0: 5072 433d f93f 0f3d 5962 2f3d 86ed 033d
000002d0: 1485 1f3b 08c0 21bd f9b6 033c e997 07bd
000002e0: 051b bcbd 6cc1 0bbd 03b3 e83c 5f41 cfbc
000002f0: aafe ae3c 907e d4bc f55a 10bc bd7f 48bd
00000300: 8b90 b93c bf67 3d3d 36ab 7cba b123 aebc
00000310: 066f 083b 25d7 1abd 9003 8a3c cbcc 4f3d
00000320: 123b bb3c 3f0a 3a3d 1b4b bd3d f3b4 733d
00000330: 5489 cabb 3f4d 0d3d fb79 0b3c 0954 cbba
00000340: 444a 1ebc b763 723b 4fd4 c8bc e41f 0fbd
00000350: 6899 97bc c66c 27bc 54f7 aebc a1f6 15bc
00000360: 38c4 18bc 6c76 413b 7b66 aebc 5e9c 853c
00000370: 0e65 293d f1f0 ec3b 5f61 e1bc 5ef6 68bc
00000380: c773 10bd 61fd 3fbc 930e 27bd 7212 18b9
00000390: 9bbc 33bd 85f6 babd c4ff 22bd d091 a13c
000003a0: b614 b9bc 805a 913c deec 3e3c f297 d53c
000003b0: 7888 1ebc 2ede 2b3d da9c 853d 914e ae3c
000003c0: 7e8e 91bc 6eb5 973b 1585 f8bc 8496 e9bc
000003d0: 97b3 2b3c a8ed 1bbd df5d 833a ecec 673d
000003e0: 6229 95ba 5fd4 07bd e18a 9d3c f9bf cebc
000003f0: 5900 46bc 2c8f 34bc 6008 1abd 070f eebb

scale1.1.1.weight f4 [64]
0.84752864 0.9564797 0.86505955 0.93991244 0.88944757 0.7425792 0.74176717 0.9240398
0.82700145 0.61131144 0.915886 0.8706451 0.7716688 1.0168719 0.6674513 0.7703531
0.7160833 0.75115705 0.93417764 0.75020325 0.80091643 0.79450834 0.74443436 0.733194
0.7117298 0.7456888 0.7654694 0.7139288 0.7734108 0.8443768 0.7596327 0.80396974
0.6568584 0.7510478 0.90902346 0.8198901 0.6580802 0.68244493 0.8044061 0.8875496
0.75057167 0.6819178 1.1164361 1.0165045 0.95617527 0.72635835 0.7697616 0.798673
0.5970376 0.88499707 0.5734805 0.5932653 0.77952194 0.7214836 0.67738384 0.74591416
0.7596415 0.73655796 0.80982685 0.597879 0.86288667 0.8142063 0.7051495 0.9485013
00000000: a3f7 583f dbdb 743f 8b74 5d3f 1a9e 703f
00000010: d6b2 633f ac19 3e3f 74e4 3d3f df8d 6c3f
00000020: 5eb6 533f e87e 1c3f 8177 6a3f 99e2 5e3f
00000030: 168c 453f dc28 823f 17de 2a3f dc35 453f
00000040: 3c51 373f d44b 403f 4426 6f3f 520d 403f
00000050: dc08 4d3f e664 4b3f 4093 3e3f 9ab2 3b3f
00000060: ed33 363f 76e5 3e3f cdf5 433f 0ac4 363f
00000070: 40fe 453f 1429 583f 4a77 423f f6d0 4d3f
00000080: df27 283f ab44 403f c3b5 683f 51e4 513f
00000090: f277 283f b6b4 2e3f 8fed 4d3f 7336 633f
000000a0: 7725 403f 2a92 2e3f 61e7 8e3f d21c 823f
000000b0: e7c7 743f 9ff2 393f 190f 453f d575 4c3f
000000c0: 75d7 183f 2b8f 623f 9ecf 123f 3ce0 173f
000000d0: c08e 473f 26b3 383f 0769 2d3f 3bf4 3e3f
000000e0: de77 423f 108f 3c3f d050 4f3f 990e 193f
000000f0: 24e6 5c3f d36f 503f ad84 343f fbd0 723f

scale1.1.1.bias f4 [64]
0.49420384 0.122165754 0.24815308 0.42570168 -0.030463688 -0.07915673 0.24088669 0.13187186
0.4650854 -0.3529781 0.23453298 0.15421446 -0.16675355 0.4190238 0.031142505 -0.11799875
-0.229719 -0.11288442 0.303221 -0.24511018 0.35525352 0.2413057 0.19562477 0.30337927
-0.28313914 0.05421008 0.38790253 -0.1537943 0.14926171 0.039319847 0.23826604 0.279707
-0.011439363 -0.08748631 0.3864787 0.05451036 -0.0919469 0.1242762 0.13376163 0.34147337
0.11263656 -0.023640417 0.44648674 0.35523573 -0.0034151112 0.41009462 0.26161015 0.26514155
-0.20172748 0.06243718 -0.12501968 -0.10059652 -0.0095538255 0.37317306 0.11738768 0.11879869
-0.070898496 0.36944258 0.21121831 -0.31717154 -0.16989955 0.09008042 -0.11439366 0.20285906
00000000: 4908 fd3e 0a32 fa3d d71b 7e3e 92f5 d93e
00000010: fc8e f9bc ec1c a2bd 00ab 763e 6b09 073e
00000020: ac1f ee3e 8cb9 b4be 6a29 703e 65ea 1d3e
00000030: 71c1 2abe 4a8a d63e 911e ff3c 54a9 f1bd
00000040: 753b 6bbe f22f e7bd c83f 9b3e 2afe 7abe
00000050: cae3 b53e d718 773e dc51 483e 8754 9b3e
00000060: 9df7 90be 640b 5e3d 299b c63e 417c 1dbe
00000070: 10d8 183e d90d 213d 03fc 733e c235 8f3e
00000080: 2a6c 3bbc 062c b3bd 89e0 c53e 4146 5f3d
00000090: a84e bcbd 8584 fe3d cff8 083e 99d5 ae3e
000000a0: ffad e63d 8ca9 c1bc e999 e43e 75e1 b53e
000000b0: 0fd0 5fbb ecf7 d13e c4f1 853e a2c0 873e
000000c0: a691 4ebe 21be 7f3d 2905 00be 8c05 cebd
000000d0: a687 1cbc 8a10 bf3e f468 f03d ba4c f33d
000000e0: 3b33 91bd 9427 bd3e 9d49 583e 4f64 a2be
000000f0: 26fa 2dbe 157c b83d 3947 eabd 49ba 4f3e

scale1.1.1.running_mean f4 [64]
1.9555246 2.6219513 -1.192205 0.84907037 2.9018674 2.68407 0.14229158 -1.8293021
-1.0410341 1.6860622 -0.93843627 0.7683854 5.1301403 -0.63160336 -2.2723646 1.2491249
3.35653 3.6110823 1.2249662 3.760723 -1.4347734 -2.1035688 -1.383918 -2.1635768
3.0958583 -0.8531101 -1.9379879 -0.6445344 0.74890697 0.73603994 1.208568 1.6610636
-2.0093052 3.4234707 0.9029432 2.51797 -1.0864785 -2.3623633 -0.56002253 0.8686448
-1.4759204 1.3345674 -1.3660136 1.8250965 0.33372614 -3.040796 -0.8028263 0.3229332
-3.4611409 0.37614128 -1.2170646 5.4556136 1.8934302 1.5675293 -0.58228546 -0.1393238
1.1286817 0.085117295 -0.6241885 -0.57590723 0.7551909 -0.033538997 -4.291427 2.1224961
00000000: a14e fa3f 0dce 2740 2c9a 98bf ad5c 593f
00000010: 32b8 3940 cec7 2b40 e2b4 113e 9226 eabf
00000020: 9b40 85bf e3d0 d73f 5c3d 70bf e8b4 443f
00000030: 1c2a a440 c2b0 21bf 6c6e 11c0 53e3 9f3f
00000040: 63d1 5640 f91b 6740 b1cb 9c3f b0af 7040
00000050: a8a6 b7bf dfa0 06c0 3a24 b1bf 0b78 0ac0
00000060: 8b22 4640 6c65 5abf fd0f f8bf 3500 25bf
00000070: 5eb8 3f3f 1d6d 3c3f 5bb2 9a3f bb9d d43f
00000080: 7598 00c0 251a 5b40 4927 673f 6c26 2140
00000090: ba11 8bbf f630 17c0 a35d 0fbf 815f 5e3f
000000a0: f6ea bcbf 1bd3 aa3f 89d9 aebf c39c e93f
000000b0: 27de aa3e 679c 42c0 0686 4dbf 8057 a53e
000000c0: 5583 5dc0 9795 c03e c6c8 9bbf 6394 ae40
000000d0: ec5b f23f cda4 c83f a910 15bf e6aa 0ebe
000000e0: a478 903f fa51 ae3d d1ca 1fbf a86e 13bf
000000f0: 3154 413f 3060 09bd 5f53 89c0 fad6 0740

scale1.1.1.running_var f4 [64]
5.3574195 3.9498374 4.8891077 10.105366 7.3113546 4.2152243 1.9731361 4.6066327
6.834976 11.200832 5.149619 7.0302367 8.271441 0.9594954 10.988946 6.1140943
10.503119 14.31527 5.645896 8.97727 0.6477193 2.2930613 6.381202 5.657244
4.919934 12.087554 3.921334 8.563853 5.936068 5.1935296 3.4687438 4.296973
9.977616 6.3151765 4.1013947 5.6925273 5.2167373 7.166669 10.013092 3.696416
4.6977034 4.955831 1.9410133 5.1690536 7.4213753 4.4875107 2.8920186 2.0403063
15.704814 4.004818 6.3411045 10.285502 2.8972678 4.9329853 4.552585 1.4653752
8.183533 3.316377 5.4779615 6.5301504 5.4976487 4.5677342 3.749142 5.058123
00000000: fb6f ab40 23ca 7c40 9273 9c40 94af 2141
00000010: 9ef6 e940 1ee3 8640 b98f fc3f 8969 9340
00000020: 20b8 da40 9c36 3341 aec9 a440 b3f7 e040
00000030: d357 0441 7ea1 753f b9d2 2f41 a9a6 c340
00000040: c70c 2841 590b 6541 2eab b440 e6a2 0f41
00000050: efd0 253f 84c1 1240 cf32 cc40 2508 b540
00000060: 1970 9d40 9f66 4141 23f7 7a40 8b05 0941
00000070: 45f4 bd40 6531 a640 e6ff 5d40 ce80 8940
00000080: 51a4 1f41 ed15 ca40 a03e 8340 2f29 b640
00000090: 83ef a640 5a55 e540 a035 2041 1492 6c40
000000a0: 9653 9640 2b96 9e40 2073 f83f e368 a540
000000b0: e87b ed40 b099 8f40 d516 3940 6194 0240
000000c0: eb46 7b41 7827 8040 54ea ca40 6b91 2441
000000d0: d66c 3940 04db 9d40 c7ae 9140 6a91 bb3f
000000e0: c0ef 0241 853f 5440 764b af40 fef6 d040
000000f0: bdec af40 e12a 9240 f1f1 6f40 25dc a140

scale2.1.0.weight f4 [64, 64, 3, 3]
-0.013400973 -0.05986141 -0.05008438 -0.011468333 -0.05487598 -0.085161336 0.029270263 0.014346058
-0.0035643626 0.06075079 0.014777338 0.020860447 -0.01835928 -0.07794345 -0.007889257 -0.026830865
-0.07361233 0.008287638 -0.02635432 -0.061579272 -0.055323787 -0.0041016806 -0.044528794 -0.06462829
0.05275818 0.039352197 0.03325677 0.0607476 0.023565516 0.045977786 -0.061536822 -0.11734044
-0.02322616 -0.059746854 -0.10566169 -0.016187707 0.050698947 0.0047445823 0.0095376745 -0.030460877
-0.081351005 -0.024504725 -0.016031008 -0.05056887 -3.782428e-05 -0.025664482 -0.048771385 -0.059810136
-0.001745088 -0.0207968 -0.052992847 0.045677096 0.052002594 0.035940353 -0.029095087 -0.054721426
-0.028585207 0.011240253 -0.018143553 -0.030028984 0.06973763 0.06601423 0.05264908 0.06477324
0.039261825 0.06353023 -0.043446556 -0.08667796 -0.0025119893 -0.041791286 -0.072568 0.013924459
-0.02568966 -0.07359328 -0.05698455 -0.039497133 -0.0937258 -0.0890958 0.019721137 -0.0094556855
-0.00085256377 -0.023853147 -0.046505906 -0.060199257 0.046003107 0.029092679 -0.018699601 0.08130447
0.08159364 0.037938975 0.10159444 0.06335045 0.06620172 -0.0060849297 -0.06777547 0.000860447
-0.012906412 -0.061286595 0.0039120894 0.045346487 0.014976807 0.022337956 -0.0551192 -0.1141769
-0.045002546 -0.06335249 -0.10549185 -0.032441225 -0.03667919 -0.057224296 -0.064202756 0.023257693
0.013261614 -0.03327431 0.07039348 0.08310034 0.047942862 0.03682909 0.0041673454 0.032450933
-0.0937665 -0.14112353 -0.022379842 -0.073833644 -0.101531304 -0.013214578 0.022743933 0.0096468
0.027164912 -0.07030262 -0.08992805 -0.016877787 -0.07044603 -0.08120779 -0.013176154 0.019087251
-0.013950145 0.00694527 -0.041114584 -0.08488912 -0.03127451 -0.040121436 -0.07741081 -0.028874917
-0.021623502 -0.042717494 -0.052542135 0.036262862 0.018072251 -0.026972717 0.08861987 0.087346196
0.048618175 0.012601822 0.023151219 0.033489842 -0.029161256 -0.022401994 0.010433943 -0.036585465
-0.02606567 0.009284923 0.066449575 0.019936629 0.035876133 -0.03635692 -0.10291799 -0.01531075
-0.04279749 -0.09623986 -0.016083885 -0.044789784 -0.057370916 -0.05874271 0.01809945 0.009966214
-0.03134562 0.06992599 0.078915074 0.04700262 -0.0064957766 -0.046664316 -0.032597873 -0.0096266875
-0.041474245 -0.049723584 0.047650907 0.048240785 0.04142804 -0.022163652 -0.053506263 -0.039393596
0.0058058915 -0.023817321 -0.045201674 0.051972345 0.045962486 0.02933864 -0.025407191 -0.048842203
-0.047773793 -0.02067327 -0.043015637 -0.05903415 0.010852106 0.015478982 0.010671879 0.033908386
0.0017316282 0.00080806576 -0.014241966 -0.048390977 -0.05700435 -0.011397438 -0.016942592 -0.0011936486
-0.034990795 -0.05251553 -0.06450638 0.021075608 0.009344724 -0.037335027 0.06946461 0.077118784
0.038036264 0.017299078 0.021414919 0.042819887 -0.0537941 -0.054419734 0.00056154287 -0.063201025
-0.056230463 -0.00045754394 -0.021265576 -0.045563642 -0.033530496 -0.008275137 -0.032486953 -0.055740908
0.024553988 0.026896302 0.016904285 0.077088974 0.08317576 0.08445755 0.018229336 0.0048225597
0.040433638 -0.019669559 -0.02567026 0.015631087 -0.037387025 -0.07877316 -0.07906107 -0.009446282
00000000: c18f 5bbc 3d31 75bd 4725 4dbd ade5 3bbc
00000010: a3c5 60bd 1169 aebd 31c8 ef3c ba0b 6b3c
00000020: 1598 69bb d2d5 783d a61c 723c 87e3 aa3c
00000030: 3366 96bc d1a0 9fbd f141 01bc 67cc dbbc
00000040: 10c2 96bd e0c8 073c 04e5 d7bc 8c3a 7cbd
00000050: 329b 62bd 6467 86bb d363 36bd d65b 84bd
00000060: f618 583d c52f 213d 4038 083d 7ad2 783d
00000070: 780c c13c 3453 3c3d 090e 7cbd 2f50 f0bd
00000080: ca44 bebc 1eb9 74bd 2865 d8bd 159c 84bc
00000090: b3a9 4f3d 7178 9b3b e843 1c3c 1789 f9bc
000000a0: 5b9b a6bd 22be c8bc 7653 83bc 4e21 4fbd
000000b0: 83a5 1eb8 523e d2bc 81c4 47bd 79fb 74bd
000000c0: 70bb e4ba 0d5e aabc 070f 59bd e817 3b3d
000000d0: ac00 553d 3136 133d d258 eebc 9323 60bd
000000e0: 862b eabc 0a29 383c caa1 94bc 58ff f5bc
000000f0: 9ad2 8e3d 7832 873d 90a6 573d d5a7 843d
00000100: 02d1 203d 231c 823d 04f5 31bd 3784 b1bd
00000110: 30a0 24bb 572d 2bbd 889e 94bd 6a23 643c
00000120: 1f73 d2bc 13b8 96bd a268 69bd bfc7 21bd
00000130: 50f3 bfbd dc77 b6bd 398e a13c 05ec 1abc
00000140: 967e 5fba ad67 c3bc fa7c 3ebd 7f93 76bd
00000150: c16d 3c3d c553 ee3c e82f 99bc f582 a63d
00000160: 911a a73d e665 1b3d bf10 d03d e1bd 813d
00000170: c494 873d 1764 c7bb decd 8abd 9f8f 613a
00000180: 6a75 53bc a707 7bbd fc30 803b 3dbd 393d
00000190: 4861 753c 17fe b63c acc4 61bd 94d5 e9bd
000001a0: 9754 38bd f3be 81bd 1c0c d8bd 17e1 04bd
000001b0: eb3c 16bd 0664 6abd bc7c 83bd eb86 be3c
000001c0: 3e47 593c a54a 08bd 752a 903d 8330 aa3d
000001d0: bc5f 443d 1ada 163d 3a8e 883b 45eb 043d
000001e0: a708 c0bd b082 10be ee55 b7bc 1836 97bd
000001f0: a5ef cfbd f581 58bc 7c51 ba3c 9d0d 1e3c
00000200: f388 de3c d2fa 8fbd 332c b8bd 4943 8abc
00000210: 0246 90bd 4550 a6bd cce0 57bc de5c 9c3c
00000220: 268f 64bc 2695 e33b c467 28bd 59da adbd
00000230: b319 00bd 6056 24bd 8f89 9ebd 178b ecbc
00000240: c523 b1bc 8af8 2ebd 6c36 57bd 5e88 143d
00000250: 420c 943c e3f5 dcbc 567e b53d 90e2 b23d
00000260: da23 473d df77 4e3c a0a7 bd3c a52c 093d
00000270: 96e3 eebc 6384 b7bc 21f3 2a3c a4da 15bd
00000280: ac87 d5bc ca1f 183c b716 883d 2452 a33c
00000290: daf2 123d feea 14bd abc6 d2bd f1d9 7abc
000002a0: 6c4c 2fbd 6719 c5bd 5ac2 83bc 7e75 37bd
000002b0: c4fd 6abd 329c 70bd 4c45 943c 5549 233c
000002c0: 4464 00bd 5c35 8f3d 3a9e a13d d285 403d
000002d0: 86da d4bb 1523 3fbd 5985 05bd 41b9 1dbc
000002e0: e6e0 29bd f5aa 4bbd 992d 433d 2198 453d
000002f0: 73b0 293d 8c90 b5bc 6229 5bbd 2e5b 21bd
00000300: 593f be3b 8b1c c3bc 6425 39bd f4e0 543d
00000310: 2943 3c3d 9657 f03c be22 d0bc c30e 48bd
00000320: 74ae 43bd fd5a a9bc 2a31 30bd cbcd 71bd
00000330: 08cd 313c 8e9b 7d3c 1bd9 2e3c 85e3 0a3d
00000340: cdf7 e23a 60d4 533a 2357 69bc 9e35 46bd
00000350: 657d 69bd 52bc 3abc 31cb 8abc 3374 9cba
00000360: 8252 0fbd 861a 57bd ec1b 84bd c1a6 ac3c
00000370: 9d1a 193c 9dec 18bd 7643 8e3d 74f0 9d3d
00000380: eacb 1b3d ccb6 8d3c 576e af3c e863 2f3d
00000390: 3457 5cbd 3ae7 5ebd 8134 133a 8a6f 81bd
000003a0: ea51 66bd 82e2 efb9 2535 aebc f1a0 3abd
000003b0: 4657 09bd 7194 07bc 0a11 05bd 9450 64bd
000003c0: 7225 c93c a255 dc3c db7a 8a3c d3e0 9d3d
000003d0: 0e58 aa3d 14f8 ac3d b055 953c 9006 9e3b
000003e0: be9d 253d 0e22 a1bc 704a d2bc c40c 803c
000003f0: 2323 19bd d353 a1bd c5ea a1bd 94c4 1abc

scale2.1.1.weight f4 [64]
0.98608094 0.95593333 0.7449427 0.78467345 1.2831675 0.82296306 1.0541022 0.799316
0.7279749 1.022193 0.7449605 1.3576822 0.8698214 0.66297424 0.7491105 0.86338276
1.0642953 0.55606997 1.030491 1.1758302 1.1531612 1.4601469 1.0694324 0.6593645
1.0577615 1.0163649 1.1498337 0.7709023 0.63727134 1.2593958 0.6340492 0.69304156
0.8953986 0.86814827 0.9941066 0.62781966 1.0553057 0.68544537 0.6313053 1.1385444
0.7445122 1.1119152 0.6976378 0.6802232 1.0187376 0.81394005 0.9560302 1.2450473
0.86213607 0.68186545 1.1311735 0.73383564 1.1086284 0.8576842 0.6286215 0.7388434
0.72827685 0.6547066 0.8957039 1.1321207 1.2814723 0.95658267 0.8475003 0.70244807
00000000: cd6f 7c3f 0cb8 743f 91b4 3e3f 5ce0 483f
00000010: d53e a43f b5ad 523f d2ec 863f f99f 4c3f
00000020: 905c 3a3f 38d7 823f bbb5 3e3f 88c8 ad3f
00000030: 9eac 5e3f aeb8 293f b5c5 3f3f a706 5d3f
00000040: d43a 883f 9a5a 0e3f 21e7 833f 9b81 963f
00000050: c99a 933f 18e6 ba3f 29e3 883f 1dcc 283f
00000060: bb64 873f 3f18 823f c02d 933f da59 453f
00000070: 3724 233f e233 a13f 0c51 223f 2c6b 313f
00000080: d838 653f f73e 5e3f c57d 7e3f cab8 203f
00000090: 4214 873f 5979 2f3f 399d 213f d3bb 913f
000000a0: 5a98 3e3f 3d53 8e3f 6498 323f 1c23 2e3f
000000b0: fe65 823f 605e 503f 65be 743f b65d 9f3f
000000c0: f3b4 5c3f bc8e 2e3f 4bca 903f a7dc 3b3f
000000d0: 89e7 8d3f 3191 5b3f 57ed 203f d724 3d3f
000000e0: 5a70 3a3f da9a 273f da4c 653f 55e9 903f
000000f0: 4907 a43f 9ae2 743f c8f5 583f a3d3 333f

scale2.1.1.bias f4 [64]
0.18991642 0.28315789 -0.24274993 -0.092240304 0.21632192 -0.1721444 0.4864101 -0.11561005
-0.12543176 0.18692105 -0.100446515 0.58566666 -0.0075571625 -0.2604588 -0.058280595 -0.092704855
0.36272994 -0.29813313 0.5224138 0.46285322 0.29623356 0.69611067 0.13833109 -0.2935933
0.21333987 0.16553807 0.29451552 0.010404985 -0.2570668 0.28807783 -0.28000104 -0.22891508
-0.25961143 -0.07156373 0.1773357 -0.31033963 -0.027608173 -0.3270113 -0.43117765 0.1339859
-0.2461451 0.009174306 -0.20231037 -0.31241894 -0.15851392 -0.12886097 0.023429517 0.59451884
-0.24765378 -0.26684266 0.4418221 -0.19763596 0.27783206 -0.17385119 -0.45610178 -0.25196525
-0.29332113 -0.2911597 -0.29637784 0.5070334 0.32382795 0.16317464 -0.14441013 -0.33436972
00000000: 7379 423e 12fa 903e 7093 78be 7ce8 bcbd
00000010: 7e83 5d3e 9f46 30be bf0a f93e f6c4 ecbd
00000020: 2f71 00be 3b68 3f3e e7b6 cdbd 40ee 153f
00000030: 13a2 f7bb db5a 85be a2b7 6ebd 0bdc bdbd
00000040: bdb7 b93e e8a4 98be e9bc 053f 19fb ec3e
00000050: edab 973e 4f34 323f aaa6 0d3e dc51 96be
00000060: c475 5a3e d082 293e bdca 963e ac79 2a3c
00000070: 429e 83be f07e 933e 4c5c 8fbe b768 6abe
00000080: caeb 84be 0190 92bd 7d97 353e d6e4 9ebe
00000090: 892a e2bc 066e a7be 51c3 dcbe 9a33 093e
000000a0: 760d 7cbe d44f 163c 732a 4fbe 60f5 9fbe
000000b0: 7951 22be 21f4 03be 42ef bf3c 6332 183f
000000c0: f498 7dbe 9a9f 88be 8236 e23e 1561 4abe
000000d0: 0140 8e3e 0c06 32be 2c86 e9be 9701 81be
000000e0: 302e 96be e212 95be d6be 97be f1cc 013f
000000f0: c7cc a53e 4117 273e 40e0 13be 8232 abbe

scale2.1.1.running_mean f4 [64]
-4.061555 1.1419982 5.6794186 1.4779375 -5.323494 -3.0854974 0.6116582 -2.6264696
-1.9665521 -3.7515993 0.7750983 -1.0757837 -0.47587445 -3.3637004 -1.1889704 -0.6314287
0.039927185 3.6186707 1.0469334 -0.21079731 -2.2836483 -0.6867746 -4.1022296 -6.667134
-4.054951 -1.0636919 0.673355 0.86285204 -2.1007092 -2.3960397 -1.4681913 1.9447198
2.9765995 5.903528 -2.7136333 -4.587233 -5.2702274 2.9421694 1.7186949 -0.22273374
-4.844344 -4.787473 3.0600011 3.406961 -7.9096603 -4.1373076 -3.311139 0.18076873
4.5179343 -0.15625702 -2.9273937 -2.921109 -1.054026 8.376635 2.977859 -1.2296083
4.897887 -5.7440906 -4.354336 -0.19789357 -3.2457757 -1.9474165 0.4508056 4.7104735
00000000: 42f8 81c0 ff2c 923f ccbd b540 0e2d bd3f
00000010: 105a aac0 ca78 45c0 a295 1c3f 1418 28c0
00000020: fbb7 fbbf 341a 70c0 d86c 463f 48b3 89bf
00000030: d1a5 f3be de46 57c0 2f30 98bf 50a5 21bf
00000040: b08a 233d 4d98 6740 ea01 863f 40db 57be
00000050: 4b27 12c0 76d0 2fbf 7745 83c0 2959 d5c0
00000060: 29c2 81c0 0e27 88bf fe60 2c3f dfe3 5c3f
00000070: 0572 06c0 b758 19c0 b1ed bbbf 94ec f83f
00000080: 9b80 3e40 b4e9 bc40 2bac 2dc0 9dca 92c0
00000090: b4a5 a8c0 814c 3c40 32fe db3f 5014 64be
000000a0: de04 9bc0 fb32 99c0 0fd7 4340 a60b 5a40
000000b0: f01b fdc0 d364 84c0 b4e9 53c0 701b 393e
000000c0: eb92 9040 d701 20be 6b5a 3bc0 73f3 3ac0
000000d0: 53ea 86bf b206 0641 3e95 3e40 ce63 9dbf
000000e0: 7ebb 9c40 97cf b7c0 b856 8bc0 9da4 4abe
000000f0: caba 4fc0 f244 f9bf fecf e63e 33bc 9640

scale2.1.1.running_var f4 [64]
3.2297077 0.76680833 7.7621737 3.3029306 2.0946178 1.8694853 0.8048501 1.5873157
6.732974 1.2566868 1.4714096 0.47441995 0.7266417 14.41825 9.114488 2.3831084
0.59660465 12.240219 0.6701027 0.63080716 0.8257563 0.43220347 2.327448 9.678029
5.0676975 1.0482353 0.5827302 3.3347487 5.782553 0.7067515 13.401084 23.400171
7.0322676 3.519005 1.691273 9.086812 5.295514 14.274273 26.253422 0.59666383
6.796219 4.451738 5.853125 10.470769 20.196978 3.3298004 1.9355748 0.6043621
13.476728 10.108289 0.99419427 5.4779043 0.7135964 5.9936357 4.3993144 7.7194
25.369097 16.03324 7.0012574 0.94045764 0.880464 2.308365 9.32325 21.554182
00000000: 88b3 4e40 8d4d 443f ba63 f840 3763 5340
00000010: 380e 0640 4b4b ef3f a80a 4e3f 292d cb3f
00000020: 8674 d740 1ddb a03f 2657 bc3f 2ce7 f23e
00000030: 3105 3a3f 27b1 6641 f1d4 1141 d984 1840
00000040: 15bb 183f f0d7 4341 da8b 2b3f 947c 213f
00000050: c464 533f c649 dd3e e8f4 1440 35d9 1a41
00000060: 942a a240 932c 863f ce2d 153f 866c 5540
00000070: ad0a b940 abed 343f d76a 5641 8d33 bb41
00000080: 5608 e140 6137 6140 a27b d83f 9563 1141
00000090: da74 a940 6c63 6441 0207 d241 f6be 183f
000000a0: a07a d940 a374 8e40 cd4c bb40 4588 2741
000000b0: 6993 a141 731b 5540 eac0 f73f 79b7 1a3f
000000c0: aea0 5741 8dbb 2141 8483 7e3f fe4a af40
000000d0: 41ae 363f ddcb bf40 2fc7 8c40 5305 f740
000000e0: e9f3 ca41 1344 8041 4d0a e040 d5c1 703f
000000f0: 1766 613f 41bc 1340 082c 1541 f76e ac41

scale2.2.0.weight f4 [64, 64, 3, 3]
0.03878681 0.007291299 0.0026100772 0.024143804 -0.024233185 -0.045976415 0.13043277 0.052127548
0.036360037 0.027028272 -0.055757225 -0.12866719 0.046801873 0.021191398 -0.07348179 -0.019631905
0.024674458 0.026947638 -0.013596779 -0.03633462 -0.052843664 5.35823e-05 -0.00857505 -0.038604736
-0.026979072 5.2382427e-05 0.0012503144 -0.0075018927 -0.033029005 -0.014252852 0.04215751 0.04057668
-0.03274277 -0.011414359 0.054860402 0.0155076785 -0.02146709 0.01252295 0.10246364 -0.014412216
-0.06275802 0.023552133 0.07763171 -0.025680207 -0.013238155 0.017801978 -0.065395534 -0.07903745
0.042321444 0.036045853 -0.08192049 -0.012242228 0.040155545 -0.023272684 0.018116927 0.011771198
-0.020123428 -0.03470659 0.009099125 -0.05578636 -0.079568 0.0041471096 -0.008174991 0.047581855
-0.035990074 -0.087630205 0.08505464 0.06753894 -0.0638765 0.00603792 0.069986746 0.039796636
-0.01122959 -0.025731806 -0.046278935 -0.023570342 0.016302768 -0.0072812713 -0.05086473 -0.004726003
0.007844795 -0.020105837 -0.041532777 0.008385238 0.03923087 -0.06821 -0.06677368 0.074241966
-0.0021189048 -0.07640368 0.034275223 -0.021690572 -0.0795907 -0.008249143 0.03842081 -0.035067428
-0.050798323 0.0020700146 0.016589588 -0.076567255 -0.06179965 0.084439434 -0.0037572293 -0.12993532
-0.15776151 0.067403175 0.02247552 -0.06134082 0.04532866 -0.020072747 -0.04087371 0.05535139
0.07594289 -0.021070665 -0.061152365 0.037028592 0.05288347 0.0010277521 -0.024655465 -0.03526259
0.025793914 0.038479585 -0.008762732 -0.00942671 0.021031504 0.020599268 -0.016031183 -0.022058748
-0.045331463 -0.010642456 0.025293812 -0.010498572 -0.06862181 -0.013621838 -0.010044046 0.015682332
0.022027463 -0.007690384 -0.006003018 0.031107897 0.04112013 -0.01606049 -0.02302256 0.048886586
-0.0550864 0.06045816 0.059767123 -0.16111328 -0.04789736 0.095214106 -0.06515575 -0.07456088
-3.04084e-05 0.0005288486 -0.011492846 -0.04222684 -0.04042613 -0.017842727 -0.03228964 -0.039393622
-0.019127233 -0.008362336 0.06383909 -0.018007314 -0.09202103 0.001204147 0.025514504 0.017008893
-0.025214536 -0.020335918 0.020600962 -0.0075815395 0.03586645 0.014768161 -0.08671274 -0.019443577
0.057432294 -0.07041626 -0.07844695 0.013219775 0.07726753 -0.1369869 -0.1232354 0.1418991
-0.046770625 -0.13227971 0.0892991 0.04475214 0.03893227 -0.04204622 0.024731826 0.03571399
-0.0057243607 -0.06422885 0.046976283 0.107703045 -0.07867551 -0.054843515 0.013121796 -0.06964139
-0.046626985 0.11164841 -0.011947705 -0.065131016 0.08150425 0.06604364 -0.0007613484 0.020248264
-0.004237057 -0.024417175 0.04474807 0.060504917 0.009331049 0.02156744 0.040485825 0.020454375
0.084205285 0.06325043 0.008772913 -0.022505859 0.024054427 0.04868764 -0.017010558 -0.033565585
0.040627412 -0.002236299 -0.04617467 -0.025040422 0.0022244665 0.03063353 -0.069514394 -0.08949865
0.019952647 0.0133803645 -0.0038354355 0.032513354 -0.009271141 -0.075067654 0.022392489 0.059598528
-0.12326624 -0.06811536 -0.051145293 0.035943005 -0.10522231 -0.16665286 0.057181325 0.0046947342
-0.07750613 0.0039315973 0.021117684 0.017319355 0.02940119 0.013829481 -0.0008057441 0.028637517
00000000: ebde 1e3d d9eb ee3b d40d 2b3b 3ac9 c53c
00000010: ac84 c6bc c451 3cbd 2b90 053e b283 553d
00000020: 43ee 143d 656a dd3c b061 64bd 55c1 03be
00000030: 52b3 3f3d 9599 ad3c 9f7d 96bd 17d3 a0bc
00000040: 1722 ca3c 4bc1 dc3c 06c5 5ebc 9cd3 14bd
00000050: 9972 58bd 8ebd 6038 5e7e 0cbc 0020 1ebd
00000060: 3703 ddbc 34b5 5b38 97e1 a33a 70d2 f5bb
00000070: 6c49 07bd cb84 69bc 5aad 2c3d bc33 263d
00000080: 481d 06bd 4b03 3bbc 4db5 603d eb13 7e3c
00000090: c0db afbc 0f2d 4d3c 75d8 d13d 3721 6cbc
000000a0: 4787 80bd 67f0 c03c 60fd 9e3d 4c5f d2bc
000000b0: d9e4 58bc 74d5 913c 18ee 85bd 63de a1bd
000000c0: 4059 2d3d d1a4 133d eec5 a7bd a093 48bc
000000d0: 247a 243d 5ba6 bebc f369 943c fcdb 403c
000000e0: e3d9 a4bc 7f28 0ebd 7f14 153c 3d80 64bd
000000f0: 8cf4 a2bd 7ae4 873b 66f0 05bc 31e5 423d
00000100: 546a 13bd 7777 b3bd 2131 ae3d db51 8a3d
00000110: afd1 82bd bed9 c53b 3655 8f3d cc01 233d
00000120: 50fc 37bc 82cb d2bc fb8e 3dbd 9716 c1bc
00000130: 628d 853c bb97 eebb 8957 50bd 96dc 9abb
00000140: 7487 003c ffb4 a4bc 461e 2abd 3d62 093c
00000150: 8cb0 203d afb1 8bbd a4c0 88bd 2c0c 983d
00000160: 53dd 0abb 8879 9cbd 2d64 0c3d 6db0 b1bc
00000170: 7300 a3bd 6a27 07bc 245f 1d3d dda2 0fbd
00000180: e711 50bd 15a9 073b e3e6 873c 4bcf 9cbd
00000190: a121 7dbd 95ee ac3d d93b 76bb c40d 05be
000001a0: 3c8c 21be ad0a 8a3d 951e b83c 8340 7bbd
000001b0: 8caa 393d 9a6f a4bc 316b 27bd 24b8 623d
000001c0: f287 9b3d 639c acbc e77a 7abd 4bab 173d
000001d0: 569c 583d a3b5 863a 42fa c9bc 816f 10bd
000001e0: c24d d33c c59c 1d3d 9091 0fbc 7d72 1abc
000001f0: 434a ac3c ccbf a83c d453 83bc 8cb4 b4bc
00000200: 7cad 39bd b25d 2ebc f834 cf3c 3402 2cbc
00000210: 9789 8cbd 212e 5fbc c88f 24bc 3c78 803c
00000220: f072 b43c 9eff fbbb f7b4 c4bb fdd5 fe3c
00000230: 956d 283d 4a91 83bc cf99 bcbc 4d3d 483d
00000240: 47a2 61bd faa2 773d 5fce 743d e1fa 24be
00000250: 0630 44bd 9dff c23d 6170 85bd 60b3 98bd
00000260: 8b15 ffb7 6ea2 0a3a 7d4c 3cbc 0df6 2cbd
00000270: df95 25bd e92a 92bc 2442 04bd 355b 21bd
00000280: b7b0 9cbc 2e02 09bc 12be 823d 1384 93bc
00000290: 8675 bcbd 78d4 9d3a cb03 d13c 3c56 8b3c
000002a0: b78e cebc 8397 a6bc 59c3 a83c 906e f8bb
000002b0: b3e8 123d 28f6 713c 7396 b1bd 2348 9fbc
000002c0: 203e 6b3d 6636 90bd cba8 a0bd c197 583c
000002d0: 703e 9e3d 4b46 0cbe d762 fcbd ff4d 113e
000002e0: 8e92 3fbd 5574 07be 72e2 b63d 054e 373d
000002f0: 7277 1f3d a838 2cbd 669a ca3c d548 123d
00000300: 6b93 bbbb 6a8a 83bd 346a 403d 6a93 dc3d
00000310: a020 a1bd 98a3 60bd cdfc 563c 25a0 8ebd
00000320: f0fb 3ebd eca7 e43d 4fc0 43bc 6963 85bd
00000330: b3eb a63d e341 873d 3a95 47ba b0df a53c
00000340: 03d7 8abb 8706 c8bc c149 373d 01d4 773d
00000350: 42e1 183c 33ae b03c 77d4 253d ef8f a73c
00000360: d273 ac3d 7189 813d 44bc 0f3c 355e b8bc
00000370: ca0d c53c b16c 473d ba59 8bbc 117c 09bd
00000380: ee68 263d df8e 12bb a721 3dbd 9221 cdbc
00000390: 5bc8 113b 2bf3 fa3c 905d 8ebd 114b b7bd
000003a0: bc73 a33c 5139 5b3c ee5b 7bbb b92c 053d
000003b0: fce5 17bc 12bd 99bd 7470 b73c 961d 743d
000003c0: 0373 fcbd 1180 8bbd ba7d 51bd f938 133d
000003d0: cb7e d7bd 0ca7 2abe f736 6a3d 49d6 993b
000003e0: 89bb 9ebd a1d4 803b fefe ac3c 52e1 8d3c
000003f0: c4da f03c 0c95 623c 9238 53ba 3a99 ea3c

scale2.2.1.weight f4 [64]
0.85557204 0.59241337 0.72643477 0.65230423 0.78615785 0.8686291 0.9018889 0.65231156
0.58909017 0.6661016 0.6228538 0.68458426 0.7842986 0.9694985 0.70030415 0.64025563
0.6521562 0.7680599 1.012257 0.8782394 0.9474148 0.9648049 1.0252765 0.90558517
0.96635395 0.5998625 0.6186889 0.6963117 0.89164525 0.5351127 0.7962432 0.98087275
0.7085987 0.7409065 0.6733568 0.7184254 0.8933006 0.97008055 1.1341043 0.92436
0.7178775 0.7538822 0.6967439 1.0716279 0.994877 0.79899406 0.6969238 0.71336824
0.6629984 0.6297299 0.9672118 0.9237654 0.6387594 0.63953066 1.014906 0.8124233
1.011894 1.0509582 0.7302265 0.99265885 1.0212073 0.824138 1.0380194 0.7203964
00000000: c506 5b3f 67a8 173f a1f7 393f 69fd 263f
00000010: a441 493f 7a5e 5e3f 31e2 663f e4fd 263f
00000020: 9dce 163f a285 2a3f 5973 1f3f ea40 2f3f
00000030: cbc7 483f 0e31 783f 2247 333f cbe7 233f
00000040: b5f3 263f 939f 443f a391 813f 4cd4 603f
00000050: c789 723f 74fd 763f 433c 833f 6ed4 673f
00000060: f962 773f 9790 193f 6562 1e3f 7c41 323f
00000070: dd42 643f 25fd 083f 98d6 4b3f 7a1a 7b3f
00000080: b966 353f 0cac 3d3f 1c61 2c3f baea 373f
00000090: 59af 643f 3357 783f 542a 913f dba2 6c3f
000000a0: d2c6 373f 6dfe 403f cf5d 323f 1a2b 893f
000000b0: 42b0 7e3f e08a 4c3f 9969 323f 4d9f 363f
000000c0: 43ba 293f fb35 213f 319b 773f e47b 6c3f
000000d0: bc85 233f 48b8 233f 71e8 813f f9fa 4f3f
000000e0: be85 813f cc85 863f 20f0 3a3f e41e 7e3f
000000f0: ecb6 823f b5fa 523f d2dd 843f e66b 383f

scale2.2.1.bias f4 [64]
-0.15512799 -0.1432574 -0.3352261 -0.066374525 0.023094356 -0.05210497 -0.087167405 -0.14547649
-0.23199983 -0.13522343 -0.03403374 -0.0434897 0.08172375 -0.056406338 -0.18578473 -0.20350532
-0.3110296 -0.105165064 0.04215099 0.2459003 -0.094964966 0.29616672 -0.050283644 0.13347366
-0.012120878 -0.17059202 -0.20606211 -0.35531244 -0.09576588 -0.1888914 0.044810213 0.082340516
-0.13694085 -0.26242137 -0.16109782 -0.1567765 0.00205151 0.0746548 0.07681276 0.010583784
-0.11496568 -0.1258657 -0.11967751 -0.12945695 0.030728413 -0.060022093 -0.16416213 -0.1470697
-0.12869436 -0.21333995 0.12848955 -0.11968652 -0.21296075 -0.34952635 -0.049649585 0.017810944
0.15331392 -0.09168287 -0.18785968 0.06697627 0.28552085 -0.06973382 0.084747896 -0.07287813
00000000: dfd9 1ebe 11b2 12be c1a2 abbe 5eef 87bd
00000010: 6030 bd3c 056c 55bd d384 b2bd caf7 14be
00000020: 5d91 6dbe 0378 0abe f766 0bbd 4122 32bd
00000030: c85e a73d 550a 67bd 5a3e 3ebe b363 50be
00000040: 463f 9fbe c860 d7bd 84a6 2c3d 4acd 7b3e
00000050: fe7c c2bd 2aa3 973e 39f6 4dbd 52ad 083e
00000060: a696 46bc adaf 2ebe f201 53be 83eb b5be
00000070: e720 c4bd bf6c 41be ea8a 373d 25a2 a83d
00000080: 393a 0cbe 185c 86be d4f6 24be 058a 20be
00000090: a072 063b 9ee4 983d 0250 9d3d 9c67 2d3c
000000a0: 2073 ebbd f0e2 00be 7b19 f5bd 5d90 04be
000000b0: 27ba fb3c bad9 75bd 1e1a 28be 7099 16be
000000c0: 74c8 03be ca75 5abe c492 033e 351e f5bd
000000d0: 6212 5abe 1ef5 b2be 5d5d 4bbd 42e8 913c
000000e0: 53fe 1c3e 3bc4 bbbd 4a5e 40be db2a 893d
000000f0: ca2f 923e 9bd0 8ebd 4e90 ad3d 2141 95bd

scale2.2.1.running_mean f4 [64]
-1.3407954 -0.59251404 -0.94459426 -4.6818357 -0.8717793 -0.94162285 -1.3803738 -2.002455
-2.8758893 -2.3972735 -3.2612813 -1.8742276 -0.54032236 -1.2547394 -3.9493928 -2.2863867
-1.5888422 -2.484167 0.09078254 -0.07420954 -0.9979433 -0.370487 -0.62089187 -0.62527686
-0.9928692 1.8363278 -2.9174097 0.99802774 -0.02481293 -0.6962069 -3.0658722 -0.20190145
-2.1460648 1.4412036 -0.8225193 -1.390282 -1.252056 -0.18008934 -0.6581876 -0.87879884
1.1937803 0.61374325 0.3203096 -1.1227503 0.13202976 -1.5331188 -1.870268 -1.1903026
-2.0971146 -2.6136394 -0.58466053 -0.22546998 2.30597 -3.8818862 -0.17781056 -0.3061676
-0.42830935 -0.7768618 -1.2912011 -0.06116369 0.09479784 -0.28606743 -0.29976633 -1.8210216
00000000: 2f9f abbf 00af 17bf eed0 71bf 99d1 95c0
00000010: ee2c 5fbf 320e 71bf 17b0 b0bf 3928 00c0
00000020: 920e 38c0 ee6c 19c0 d5b8 50c0 b1e6 efbf
00000030: 9152 0abf 4d9b a0bf dac2 7cc0 2954 12c0
00000040: 2e5f cbbf 98fc 1ec0 32ec b93d 2cfb 97bd
00000050: 3679 7fbf 79b0 bdbe c5f2 1ebf 2512 20bf
00000060: ad2c 7ebf ca0c eb3f d7b6 3ac0 bf7e 7f3f
00000070: 7c44 cbbc 9e3a 32bf 4037 44c0 41bf 4ebe
00000080: 2059 09c0 5c79 b83f a090 52bf c3f4 b1bf
00000090: 5f43 a0bf 5769 38be fc7e 28bf f6f8 60bf
000000a0: cbcd 983f 471e 1d3f 9fff a33e 48b6 8fbf
000000b0: cf32 073e 3d3d c4bf f164 efbf d65b 98bf
000000c0: 2037 06c0 de45 27c0 50ac 15bf 9ae1 66be
000000d0: 0395 1340 d370 78c0 f913 36be 00c2 9cbe
000000e0: 5d4b dbbe 6ae0 46bf 1446 a5bf c786 7abd
000000f0: 5f25 c23d 6e77 92be f97a 99be 3c17 e9bf

scale2.2.1.running_var f4 [64]
1.2507651 6.4103303 1.567555 7.26648 4.759884 2.1623094 2.3719957 12.503286
5.3490534 3.2180684 9.093037 12.649459 4.945251 1.683702 10.772023 19.001816
7.738195 3.5465734 2.1416974 3.8415272 2.0489032 1.9832988 2.0672529 2.2605274
2.9582415 8.701514 3.3617854 7.696098 1.3828912 13.080337 16.556814 1.1783913
1.1539098 4.800164 4.922988 4.4645524 1.9257576 2.0858665 1.676497 1.565263
5.3133836 4.437802 16.041895 1.7597342 1.298759 4.982232 13.591679 2.609425
15.642674 6.2352724 1.5938324 1.8128704 5.7003636 6.6499434 3.5262144 5.7243824
1.7446946 0.89525247 1.655509 1.0461686 1.1588708 2.8175654 1.4053644 11.693486
00000000: 1219 a03f 6d21 cd40 a4a5 c83f 0187 e840
00000010: f850 9840 4763 0a40 c7ce 1740 760d 4841
00000020: 722b ab40 d5f4 4d40 147d 1141 2f64 4a41
00000030: 7f3f 9e40 8c83 d73f 355a 2c41 b803 9841
00000040: 4b9f f740 0ffb 6240 9211 0940 95db 7540
00000050: 3b21 0340 bcdc fd3f df4d 0440 7bac 1040
00000060: d453 3d40 6739 0b41 7e27 5740 6f46 f640
00000070: 9402 b13f 0f49 5141 5b74 8441 87d5 963f
00000080: 51b3 933f f29a 9940 1e89 9d40 9ddd 8e40
00000090: 3a7f f63f d67e 0540 7497 d63f 8a5a c83f
000000a0: 3d07 aa40 7902 8e40 cd55 8041 f83e e13f
000000b0: bc3d a63f 726e 9f40 8477 5941 d200 2740
000000c0: 6548 7a41 5a87 c740 b302 cc3f 230c e83f
000000d0: 6169 b640 56cc d440 7fad 6140 242e b740
000000e0: 2752 df3f 442f 653f b8e7 d33f dae8 853f
000000f0: e155 943f fe52 3440 fbe2 b33f 8518 3b41
