Superpixel_methods/SSN_cp/log/newmodels/best_model_170000.pth (torch, 873395 bytes, 32 tensors)

scale1.0.0.weight f4 [64, 5, 3, 3]
000000 75 cc 19 3f bb f1 51 3f 53 6c 0b 3f 9d 83 73 3f
       0.600776 0.82009476 0.54462165 0.951227
000010 0b aa 9b 3f d9 4c 64 3f a7 c2 03 3f 5f 30 39 3f
       1.2161268 0.8917976 0.5146889 0.72339433
000020 ef 56 ef 3e 23 01 52 be 46 7d 74 be 3b 3a 34 be
       0.46746013 -0.20508246 -0.23875913 -0.17600338
000030 5d 53 23 be 7f 1d 47 be df e7 04 be fa 05 6e bd
       -0.1594977 -0.19444846 -0.12979077 -0.05811117
000040 34 d5 b2 bd da b1 1f bd 37 87 75 3e 1b 85 8e 3e
       -0.087320715 -0.03898797 0.23977362 0.27835926
000050 94 fc 68 3e 36 a8 9e 3e 03 61 b2 3e af 08 97 3e
       0.22752601 0.3098771 0.3483964 0.29498813
000060 3e b7 89 3e be ce 9c 3e 23 7e 84 3e f8 44 b0 3b
       0.26897615 0.30626482 0.25877485 0.0053793155
000070 40 cc d6 3b 6b df 34 3c 9d 64 84 3b 4f f1 d0 3b
       0.00655511 0.011039595 0.0040403144 0.0063764225
000080 ee f9 36 3c c4 84 44 3b 0b d9 b5 3b 04 35 28 3c
       0.011167986 0.002998636 0.005549555 0.010266546
000090 7a 39 ab 3b d8 34 91 3b b8 07 2c ba ed bc b5 3b
       0.0052253576 0.0044313483 -0.00065624295 0.0055462033
0000a0 3d 0c 96 3b ef d8 b8 39 de 80 d6 ba 69 13 d1 ba
       0.0045790956 0.00035256843 -0.001636531 -0.0015951219
0000b0 09 ec c3 bb 4b 31 81 3e 28 0c bd 3d 47 e8 e5 bd
       -0.0059790653 0.2523292 0.09230834 -0.11225944
0000c0 ca 96 4e 3e c7 ec be bb 8f 1e 68 be 95 ef 16 3d
       0.20174709 -0.005826566 -0.22667907 0.036849577
0000d0 6a 89 25 be a3 27 aa be e6 a0 4b 3f d0 ef 5d 3f
       -0.161657 -0.33233365 0.79542387 0.8669405
0000e0 6f b7 68 3f f5 8b 5b 3f 07 9a 6e 3f 1e 2c 78 3f
       0.909049 0.8576043 0.9320378 0.9694232
0000f0 8a 9e 54 3f e6 7d 65 3f 10 70 6a 3f 85 e9 1c be
       0.8305441 0.8964523 0.91577244 -0.15323456
000100 f9 6d 32 be 07 e7 53 be 0a 2b cb bd 50 fe 09 be
       -0.17424764 -0.20693599 -0.099203184 -0.13475919
000110 22 e4 35 be e7 ec a2 bd ca 47 f9 bd 74 72 28 be
       -0.17762807 -0.07955342 -0.12171896 -0.1644991
000120 e3 a5 57 3b 6d 61 2d 37 d8 5b 10 b9 19 5e 71 3b
       0.0032905273 1.0334287e-05 -0.00013767125 0.0036829768
000130 1f 0c 2c bb 68 31 8f 39 26 56 e7 ba 8b f6 db bb
       -0.0026252342 0.00027311896 -0.0017649576 -0.00671274
000140 14 74 98 bb 81 39 52 3c c1 86 1b 3c 5b 82 61 3c
       -0.0046525095 0.012831093 0.009492577 0.013763989
000150 21 7e a3 bb a8 bc 39 bb ce 6c 3c bb c9 32 b4 ba
       -0.004989401 -0.0028341208 -0.0028751376 -0.0013748045
000160 7c 3e b3 b9 b6 96 a6 3b c0 00 00 3f 85 37 32 3f
       -0.00034188095 0.005083884 0.50001144 0.69615966
000170 f7 27 d0 3e e0 52 62 3f 79 dc 90 3f 11 93 44 3f
       0.4065549 0.8840771 1.1317283 0.76786906
000180 8e 64 e8 3e af 7c 25 3f 76 47 b7 3e 6c ba cf 3d
       0.45389217 0.6464338 0.35796708 0.10142979
000190 14 11 73 3d 47 36 e7 3d 80 0c fa 3d 5e 5c a9 3d
       0.05934246 0.112896495 0.122094154 0.08269571
0001a0 ab 2f 0f 3e c4 2b 33 3e b7 c4 10 3e 3c 62 41 3e
       0.13983028 0.17497164 0.14137541 0.1888513
0001b0 95 54 1d bf ba d7 14 bf 76 0f 0b bf f3 b8 17 bf
       -0.61457187 -0.5814167 -0.54320467 -0.59266585
0001c0 7a 2c 0c bf 9f cd 03 bf 1d d4 0d bf 8f f7 01 bf
       -0.54755366 -0.5148563 -0.55401784 -0.5076837
0001d0 0d 6e f1 be 26 41 98 ba 36 9d 0e 3b 4c 8a 63 bb
       -0.47154275 -0.0011616095 0.0021761185 -0.0034719883
0001e0 40 24 d8 ba 4d e4 50 3b 29 65 4a bb ba af 30 bb
       -0.0016490296 0.003187436 -0.003088305 -0.002696021
0001f0 78 40 96 ba 12 b4 c9 bb a7 de 0a bb 99 6b 71 ba
       -0.0011463305 -0.0061554993 -0.002118984 -0.0009209454
000200 dc 7f f1 bb 4a 36 c5 bb f2 3d ac bb b6 c4 37 bc
       -0.0073699784 -0.0060184347 -0.005256408 -0.011216333
000210 40 a4 9d bb 41 ac c0 bb 5a f3 d1 bb 60 ae 0e bf
       -0.00481084 -0.0058799093 -0.0064071836 -0.55734825
000220 e7 ca 40 bf ce 68 fc be 0b 68 6e bf 08 42 95 bf
       -0.75309604 -0.4929871 -0.93127507 -1.1660776
000230 ad 3f 58 bf 5c e9 1a bf 08 3c 4c bf bb ea 09 bf
       -0.8447216 -0.6051233 -0.797791 -0.53873795
000240 ac fe 89 be 49 3f 85 be c8 17 a3 be f8 75 98 be
       -0.26952112 -0.26024845 -0.3185408 -0.29777503
000250 fd b8 92 be 01 8a b4 be f9 1d bb be 14 e6 b9 be
       -0.2865676 -0.3526154 -0.36546305 -0.36308348
000260 50 28 d3 be 6c 85 9d 3e 27 a1 8b 3e 64 f6 8c 3e
       -0.41241693 0.30765855 0.27271387 0.2753173
000270 f7 a7 8a 3e 0a 5a 73 3e 91 61 73 3e e5 4b 79 3e
       0.27081272 0.23764816 0.23767687 0.24345358
000280 0c ac 56 3e 39 73 5a 3e 6f 51 2a bb c5 97 2a ba
       0.20964068 0.21333016 -0.002598848 -0.0006507601
000290 9f 04 92 3b b2 76 d9 b8 6a 4e 47 ba 3a f4 45 3b
       0.0044561173 -0.00010369475 -0.0007602932 0.0030205385
0002a0 b4 c5 db bb e6 01 d3 bb 56 92 56 bb ef 87 04 bb
       -0.0067069177 -0.0064394353 -0.0032741032 -0.0020222624
0002b0 3c ed 43 bb 57 8a ba ba 8c 12 05 bb 63 86 8e ba
       -0.0029896041 -0.0014231902 -0.0020305244 -0.0010873791
0002c0 d4 4e 80 b8 22 41 ad ba fd e1 87 ba d9 11 3a b9
       -6.1181985e-05 -0.0013218264 -0.0010367032 -0.00017744991
0002d0 dc ea 8a 3e 28 d5 f4 3e d4 b1 ba 3e 38 63 e8 3e
       0.27132308 0.47818875 0.36463797 0.45388198
0002e0 28 b5 32 3f b9 29 0c 3f 0f 33 04 3e 66 df a3 3e
       0.6980767 0.54751164 0.12910102 0.32006377
0002f0 68 21 53 3e 61 d2 a8 3e e7 8f a3 3e d9 77 b7 3e
       0.20618212 0.32973006 0.31945726 0.35833624
000300 61 75 ae 3e 3f 6d ab 3e f1 9e bf 3e fe 59 c4 3e
       0.34073928 0.33481786 0.3742595 0.3834991
000310 7a 9c c5 3e 73 37 d4 3e d0 76 d4 be f9 da c5 be
       0.38595945 0.41448554 -0.41496897 -0.38643625
000320 ac e7 b2 be c9 32 d4 be 4d b5 c4 be 64 ff b2 be
       -0.34942377 -0.41444996 -0.38419572 -0.34960473
000330 9d 97 d7 be 79 6e c6 be 15 9f b5 be 46 51 f9 bc
       -0.4210786 -0.3875616 -0.35472932 -0.030434262
000340 ad 8d 30 bd 53 80 0b bd a2 1b 0d bd 64 56 31 bd
       -0.043103863 -0.034057926 -0.03445018 -0.04329528
000350 5b 16 16 bd a5 00 11 bd af 1d 46 bd 3a 80 19 bd
       -0.036642414 -0.035401005 -0.048368152 -0.037475802
000360 9c 05 91 3b 1c 4e 6c 3b 41 c9 04 bb 9a b0 78 3b
       0.0044257175 0.00360573 -0.0020261558 0.003794706
000370 e9 01 6d 3b 08 c6 dc ba 04 91 5d 3a 40 45 fd 38
       0.0036164469 -0.0016843686 0.000845209 0.00012076879
000380 a0 8b b2 bb 96 7b 10 bf 03 5f 47 bf f1 e4 f9 be
       -0.0054487735 -0.5643858 -0.7787935 -0.4880748
000390 d2 91 6e bf 25 89 99 bf 9a 3b 59 bf 02 9c ff be
       -0.93191254 -1.1994978 -0.8485657 -0.49923712
0003a0 80 b3 37 bf c3 3a e7 be f7 da 14 bd 9a 9e 93 bb
       -0.7175827 -0.4516202 -0.036341634 -0.0045049908
0003b0 22 07 43 bd 99 e5 76 bd 80 84 e7 bc 16 c2 a9 bd
       -0.047614224 -0.060277555 -0.028261423 -0.08288972
0003c0 bc 54 00 be 58 26 de bd 31 61 23 be 0d 8d 4c 3e
       -0.12532324 -0.10847157 -0.15955044 0.19975682
0003d0 2c 31 20 3e 51 32 27 3e 74 72 10 3e f3 cc d2 3d
       0.15643758 0.16327788 0.1410616 0.10292997
0003e0 0f 8d f0 3d e4 ca f7 3d 11 c0 b9 3d bd 16 d7 3d
       0.11745655 0.12099245 0.09069837 0.10502384
0003f0 fd c3 3a 3c 38 85 f0 3b b5 b1 39 3c 05 51 59 3c
       0.011399266 0.0073400997 0.011333873 0.0132639455

scale1.0.1.weight f4 [64]
000000 c2 72 7c 3f 6b e7 51 3f 89 08 84 3f 77 fb 6c 3f
       0.98612607 0.8199374 1.0315105 0.92571205
000010 ef b6 31 3f 53 e8 6f 3f b9 18 7e 3f b6 7c 87 3f
       0.6941976 0.93713874 0.99256474 1.0584934
000020 3f cd 6c 3f 21 a6 7e 3f d8 1c 68 3f 42 4c 42 3f
       0.9250068 0.9947224 0.9066901 0.7589761
000030 c6 27 82 3f e5 47 42 3f e0 7b 48 3f c0 cd 38 3f
       1.0168388 0.7589095 0.7831402 0.7218895
000040 f8 81 80 3f 45 0e 60 3f bd 8f 7b 3f d6 53 37 3f
       1.0039663 0.87521774 0.982662 0.716123
000050 f3 d3 84 3f 7a a1 6c 3f 7e 48 78 3f 17 5b 33 3f
       1.0377182 0.92433894 0.96985614 0.7006087
000060 bc 77 79 3f 13 ba 83 3f 86 95 70 3f 90 89 7a 3f
       0.97448325 1.029116 0.93978155 0.97866154
000070 22 8d 60 3f 34 9e 78 3f 7a 9d 80 3f 05 ef 73 3f
       0.8771535 0.971164 1.0048058 0.9528659
000080 e9 ef 85 3f 3b 2a 71 3f 0c 89 84 3f 61 4c 7f 3f
       1.046384 0.94205064 1.0354323 0.9972592
000090 e9 62 84 3f c5 df 83 3f c9 a8 77 3f 94 15 7d 3f
       1.0342685 1.0302664 0.9674192 0.9886105
0000a0 a2 9a 7b 3f 49 17 74 3f ee bf 77 3f 72 6a 84 3f
       0.98282826 0.9534803 0.96777236 1.0344985
0000b0 a7 d5 63 3f 92 24 7d 3f db 85 86 3f bf 26 35 3f
       0.8899788 0.98883927 1.05096 0.70762247
0000c0 cc 60 41 3f 95 2e 4f 3f 3f 42 36 3f b1 f1 7c 3f
       0.75538325 0.80930454 0.71194834 0.9880629
0000d0 dd 66 75 3f a8 9f 55 3f 8d 27 84 3f bc fb 27 3f
       0.9586008 0.8344674 1.032457 0.6561849
0000e0 50 76 78 3f eb a7 78 3f 51 bf 3d 3f 33 46 6b 3f
       0.9705553 0.9713122 0.7412005 0.9190399
0000f0 43 8a 8b 3f 3f 5c 5e 3f b9 13 5f 3f 42 76 7d 3f
       1.0901569 0.86859506 0.8713947 0.9900857

scale1.0.1.bias f4 [64]
000000 bb fe 94 bc a3 5c 1a 3d 80 95 dc 3b ce 57 f9 bc
       -0.018187871 0.037686 0.006731689 -0.030437376
000010 b4 5b 0f be 87 de 7a bc a2 64 86 3e 1a d9 31 3c
       -0.13999826 -0.015311844 0.26248652 0.010854984
000020 1b 5c 67 bd 34 7c c1 3c ed b1 6e bd 5b e8 a6 bd
       -0.056484323 0.023618795 -0.058275152 -0.08149787
000030 65 74 d9 bc f9 3d a9 bd 12 b2 1d bd 0f 53 22 be
       -0.026544759 -0.082637735 -0.0384999 -0.15851997
000040 0a 92 08 3d b7 d0 82 bd 39 52 48 3d 7b 22 94 bd
       0.0333424 -0.063874654 0.04890654 -0.07233139
000050 fc 8a 16 3d da 28 4b bd 59 b4 0c bd 06 fb 0b be
       0.03675364 -0.049599506 -0.03435168 -0.13669977
000060 6d 46 c8 ba 90 97 66 3c ba 3e 35 bb 1c 80 01 bd
       -0.0015279778 0.014074221 -0.0027655796 -0.031616315
000070 69 c7 64 bc 03 1b 31 bd 84 a5 0c 3a b0 60 46 3d
       -0.013963559 -0.04323865 0.000536524 0.048432052
000080 2e 32 91 3c 4c ca ae bd 5d 33 ec 3d 84 77 26 3d
       0.017724123 -0.08534679 0.11533234 0.040641323
000090 3c 0d f7 3c 28 cd d0 bc c0 ff ef 3d 2b 1d d3 3b
       0.030157678 -0.025488451 0.11718702 0.006442686
0000a0 34 81 5e bd 25 21 0a 3b 1d 27 a2 bc ab 97 20 3d
       -0.054322436 0.0021076885 -0.019794041 0.03920714
0000b0 e9 31 a7 bd 52 24 08 bd 00 26 77 3b 4f 78 b6 bd
       -0.081638165 -0.033237763 0.0037711859 -0.08909666
0000c0 8f 0c 46 bd 59 97 53 3d 81 86 09 be 1b aa 01 bd
       -0.04835182 0.05165801 -0.13430215 -0.031656366
0000d0 98 3c 16 3b 3f cf 05 bd f5 16 88 3c 15 01 77 be
       0.00229243 -0.03266835 0.01661251 -0.24121507
0000e0 34 39 4a bc a8 08 06 3d 11 81 e4 bd 3a 69 db bc
       -0.01234274 0.0327231 -0.1115743 -0.026783574
0000f0 50 8b 27 3f f2 1c ce 3c 80 12 bb 3e ed b4 33 3d
       0.6544695 0.025160287 0.36537552 0.043873716

scale1.0.1.running_mean f4 [64]
000000 60 32 91 3f b1 91 80 3e bf f1 1f bf d3 d1 09 bf
       1.1343498 0.25111154 -0.6247825 -0.5383579
000010 fd 35 81 c0 f9 c4 9f 3f 2b de 12 be 18 cf 63 3f
       -4.0378404 1.2481986 -0.14342563 0.88987875
000020 c8 c0 de bf a2 52 93 3f e2 bb 88 3e 35 14 5b c0
       -1.7402582 1.1509593 0.26705843 -3.4231083
000030 2d df 96 be 0f 63 35 bf 3e 6b ed bf 7b e8 40 c0
       -0.29467145 -0.70854276 -1.8548353 -3.0141895
000040 4b 55 c1 bf b5 1b 1f 3f 22 cd 96 3e b7 3e 35 bf
       -1.5104154 0.6215165 0.2945338 -0.7079882
000050 83 3d fe be ea 29 88 bd e0 38 11 bf 12 70 33 bf
       -0.49656305 -0.066486195 -0.5672741 -0.7009288
000060 dd 27 27 bf 9d a9 b8 be 82 45 28 3e 8d f8 d1 3e
       -0.652952 -0.36066905 0.16432765 0.41009942
000070 c0 e1 82 bf 21 26 3b bd c8 10 f7 3d 48 a5 9b bf
       -1.0225143 -0.04569066 0.12063748 -1.2159815
000080 4d cc f2 be a4 16 f6 bf 95 ed 07 bf 28 84 db 3e
       -0.47421494 -1.9225659 -0.53096896 0.42874265
000090 0b 54 84 3f 86 79 09 bf 53 90 4c bf 68 d8 96 bf
       1.0338148 -0.53701055 -0.7990772 -1.1784792
0000a0 b9 70 ce be 64 d4 5b 3f 83 bd 72 3f 26 42 78 3f
       -0.40320376 0.8587096 0.9482042 0.96975935
0000b0 b9 03 ff 3a 06 ae 50 3e 78 27 77 3f c7 6d d2 c0
       0.0019456065 0.20378885 0.965446 -6.5759006
0000c0 8a 19 47 bf c1 18 77 40 b5 0a fe bf a1 58 7a 3f
       -0.77773345 3.8608859 -1.9847018 0.97791487
0000d0 fd cd 9a 3d bd 4a 2f 40 ff c1 b7 bd 6d b0 2e bf
       0.075588204 2.7389367 -0.08972549 -0.68237954
0000e0 d8 41 39 3f 70 f0 79 3e 48 75 6e 3f 11 78 01 c0
       0.72366095 0.24408126 0.93147707 -2.0229533
0000f0 ab 46 da bd 72 45 36 3f 14 76 8b 3d 91 16 83 bf
       -0.1065801 0.71199715 0.06809631 -1.0241262

scale1.0.1.running_var f4 [64]
000000 92 9f 6e 3e a3 0d 54 3d 18 97 1a 3e eb b1 03 3d
       0.23303059 0.051770817 0.150967 0.032152098
000010 c7 e8 c1 40 c9 39 da 3e 27 4c 51 3c d7 34 d2 3d
       6.059665 0.42622212 0.012774504 0.10263985
000020 a1 8c 1d 3f a6 c1 8b 3e ee 7c 92 3d c0 59 05 40
       0.6154271 0.2729618 0.07152735 2.083603
000030 c6 1b 5b 3e 40 da c5 3d 61 89 12 3f b8 d7 03 40
       0.21397313 0.096607685 0.57240874 2.0600414
000040 03 1d 4a 3f 71 fb b0 3d b2 e3 4b 3e 7e 7a b1 3e
       0.7895052 0.08641709 0.19911078 0.34663767
000050 60 0d d7 3d 2a 0b 95 3e 92 a1 c7 3d c5 90 a3 3f
       0.10500598 0.2911008 0.09747614 1.2778555
000060 9d 7e 83 3e 02 75 e6 3e 84 4a 82 3e 7b b6 12 3e
       0.25682536 0.45011145 0.25447476 0.14327423
000070 7d 99 0b 3e 2c 3e 41 3e ee 24 36 3e 60 7f 83 3e
       0.1363277 0.18871373 0.17787525 0.25683117
000080 0f a1 17 3e 39 1d 21 3f ca 3c 09 3e 91 e8 d2 3e
       0.14807533 0.62935215 0.13402095 0.4119306
000090 02 3f 06 3e ab f5 0d 3e e7 5a c5 3d 49 b7 e7 3e
       0.13109973 0.13863246 0.09636479 0.45257023
0000a0 06 63 a3 3e aa 8d 4b 3e a1 9e 90 3e 40 41 d2 3e
       0.31911486 0.1987826 0.28246024 0.41065407
0000b0 a8 aa 05 3e 16 ad 4f 3d 52 0f 1e 3e 4c 57 3a 41
       0.13053381 0.050702177 0.15435532 11.646313
0000c0 c1 97 92 3e 3c a8 39 40 da 08 10 40 7b e3 df 3e
       0.28631404 2.9008932 2.2505403 0.4372824
0000d0 4f d8 9a 3e 26 19 a5 3f 12 d6 18 3e 0a 28 e8 3e
       0.30243155 1.28983 0.14925411 0.45343047
0000e0 99 fb 45 3e 24 83 d7 3d 31 7c 1e 3e f1 99 83 3f
       0.19334258 0.1052306 0.15477063 1.0281354
0000f0 bb 99 d6 3c 11 8b 10 3e 13 92 99 3c 87 c5 12 3f
       0.026196351 0.1411555 0.018746411 0.5733265

scale1.1.0.weight f4 [64, 64, 3, 3]
000000 eb fd 17 bb e4 1a 06 bd 36 fb 6f bb 69 5e fd bc
       -0.0023192118 -0.03274049 -0.003661824 -0.030928807
000010 f8 83 8c bd 37 39 1d bd 32 b4 59 3c e2 71 c5 bc
       -0.068611085 -0.038384642 0.013287591 -0.024102155
000020 7e c6 94 3a fe 27 de 3b 6a 3d 8a ba 86 c9 a5 bb
       0.0011350659 0.00677967 -0.0010546867 -0.005059424
000030 9c 0c 5d 3c 7e 3c cb b9 c7 02 76 bb 39 77 d1 3c
       0.013491776 -0.00038764247 -0.0037538277 0.025569545
000040 9f 0a 5c 3c b7 58 10 3c 25 68 06 3d c5 64 ea 3b
       0.013430267 0.008810214 0.032814164 0.007153126
000050 74 ef 14 3d 02 bb ec 3b 8c c0 07 bd db 38 6e 3b
       0.036361173 0.0072244415 -0.03314261 0.0036349806
000060 7e da 15 3d f7 19 69 3b 3a b3 00 3d 50 17 77 bc
       0.036585324 0.0035568455 0.031420924 -0.015081242
000070 33 05 98 3b 01 af 95 bc 64 a5 36 bb cc c3 db 3c
       0.0046392917 -0.018271925 -0.0027869577 0.026826762
000080 7c a0 ef ba e6 b1 f5 bc fc c7 05 bc 09 74 da bc
       -0.0018282081 -0.029992055 -0.008165356 -0.026666658
000090 27 f0 97 3c 3d c4 f8 3b 04 b5 90 3c 42 de e7 3b
       0.01854713 0.007591753 0.01766444 0.0070760557
0000a0 38 9e ac bb 24 0d b3 3b 32 a5 33 3c a5 52 12 bb
       -0.0052678846 0.005464213 0.010964679 -0.0022327092
0000b0 4b b0 12 3c 81 e0 ac 3c d3 27 22 3d 0b 30 91 3c
       0.008953164 0.021103146 0.03958876 0.017723104
0000c0 14 ab 3f 3d 6f 99 97 3d df a2 3b 3d 15 51 11 3c
       0.046794012 0.07402312 0.045809623 0.008869429
0000d0 46 37 06 3d 83 20 7a 3c d2 a7 7b bd 68 14 9c bd
       0.032767557 0.01526654 -0.061439343 -0.0762108
0000e0 c7 6a 8e bd c2 f5 58 bd 13 06 69 bd c6 2d 52 bd
       -0.0695396 -0.052968748 -0.05689056 -0.051313184
0000f0 31 e7 a2 bd 6b 52 a6 bd f1 f0 8d bd 5d d0 4b 3d
       -0.079542525 -0.08121189 -0.069307216 0.049759258
000100 66 5c ce 3c 66 eb 3c 3d 1f f5 ae 3c 46 23 3e bc
       0.025190543 0.04612293 0.021357117 -0.0116050895
000110 50 c6 0d 3c 4e 77 76 3d 6e 20 d8 3c e5 dc 29 3d
       0.008653238 0.06017237 0.026382651 0.041470427
000120 f6 4e 07 bb 45 f9 86 3c 63 1c 37 bc d5 60 db 3c
       -0.002064643 0.016476283 -0.0111762015 0.026779572
000130 15 12 49 3d e3 65 89 3c 8e e3 36 bb a0 85 88 3c
       0.04908951 0.016772216 -0.002790663 0.01666528
000140 1a f7 33 bc 48 92 61 bc 96 87 f6 bc 17 5d 08 bc
       -0.010984207 -0.013767786 -0.03009395 -0.008322976
000150 b7 d7 f4 bc 16 3f 70 bd dd 45 05 bd db cd 8c 3b
       -0.029888017 -0.058653913 -0.03253733 0.004297001
000160 55 77 a9 bc 25 05 fd 39 12 f8 e2 bc 34 3e bd ba
       -0.020686785 0.00048259753 -0.02770618 -0.0014438094
000170 58 40 ad bc fd 2d a1 bc bd 7f 74 3c 7e 96 18 bc
       -0.021148846 -0.01967525 0.014923033 -0.009313224
000180 9b fa 46 bd 5b 6e 51 bc 70 02 d8 bc 4c 5a b2 3c
       -0.04857884 -0.012782658 -0.02636835 0.021771573
000190 c5 e0 e2 3b f6 5e 04 3c 6d 4b 09 3c 3e 8d 02 bc
       0.0069237673 0.008079281 0.008379799 -0.007968245
0001a0 0d 53 ec bb ad c7 44 3c f3 81 29 bb fa 4d 82 bb
       -0.007212049 0.012010497 -0.002586481 -0.0039765807
0001b0 31 6f a8 3a 4c 6a 5d bc 81 93 28 3c c3 01 ab bc
       0.001285052 -0.013514113 0.010289074 -0.020874863
0001c0 28 0f 37 bd 6f 64 8e bc f0 4b e9 3c 27 ed c5 3b
       -0.04469219 -0.017381875 0.028478593 0.0060402337
0001d0 9e 56 dc 3c 4f c6 0f bc 63 40 90 bc 8a 41 d0 bc
       0.026896771 -0.008775308 -0.017608827 -0.025421876
0001e0 63 12 42 bc 44 7e 94 bc 70 92 eb bc 8e c5 78 bc
       -0.011845204 -0.018126614 -0.02875635 -0.015183819
0001f0 21 b1 b5 bc bf 95 f0 bc 2d 18 00 3d 4e 40 ad 3c
       -0.022179188 -0.02936828 0.031273056 0.021148827
000200 47 33 b0 3c 4d 9a d3 3c de 36 7c 3c 04 bc 2e 3c
       0.021508826 0.025830412 0.015393941 0.010664944
000210 ba 04 9e 3c 00 a1 b2 3b ea 8c c6 3b 12 ea 9c 3c
       0.019289363 0.0054513216 0.0060592787 0.019154582
000220 df 4a b5 3c 40 e8 c8 3c 77 4f 26 3c 11 a5 2c 3c
       0.022130428 0.024524808 0.010150782 0.010537402
000230 4e 90 6a 3c f0 d6 11 b9 98 8e 08 3b 48 c8 0b 3b
       0.0143166315 -0.00013908348 0.0020836946 0.0021329094
000240 71 6e 53 3c 74 a7 4a 3d bf d3 4b 3c 16 6e 38 3d
       0.012904749 0.049476102 0.012440621 0.04502686
000250 0d 6f b9 3d 46 e2 4a 3d c2 d9 0c bc 00 c1 06 3d
       0.090543844 0.049532197 -0.008596839 0.032898903
000260 39 de 73 ba cf 33 d4 bc 6f f7 71 bd 00 6d 2d bd
       -0.0009302828 -0.02590361 -0.05907386 -0.04234028
000270 59 74 11 bd a9 82 96 bd ad c1 6d bd 16 14 94 bb
       -0.03551135 -0.0734914 -0.05804603 -0.004518996
000280 f2 e6 24 bd 07 ad c6 bc 3f 6b a7 ba 95 1a 14 3d
       -0.04025931 -0.024252428 -0.0012773051 0.036158163
000290 04 ec 8f ba 91 43 14 3d 88 44 a8 3d 56 e2 06 3d
       -0.0010980372 0.03619725 0.08216196 0.032930695
0002a0 e5 f4 bb bc 1b 68 65 3c ff e9 b5 bc ab 25 34 bb
       -0.022943923 0.014001871 -0.022206305 -0.0027488272
0002b0 ee 29 b6 3b 4a 26 b1 3b f5 18 86 bb d5 1f 92 3b
       0.0055591976 0.0054061757 -0.0040923306 0.004459361
0002c0 44 05 c8 3b 49 50 25 bc 8b db d9 ba 97 96 5e 38
       0.0061041433 -0.010089942 -0.0016621215 5.3069172e-05
0002d0 68 c7 57 3c 90 92 ba bc d1 02 8c 3c 7b 2e ab bc
       0.013170101 -0.022774965 0.017091187 -0.020896187
0002e0 0e ed 88 bd 8b 4c a3 bc bb 44 b7 3c a4 6c b0 bc
       -0.066858396 -0.01993396 0.02237164 -0.021536179
0002f0 8a ba 85 3c 1b be 1c bc 16 de eb 3a 8d fe da bc
       0.0163243 -0.009566809 0.0017995264 -0.026732707
000300 5f df a6 3c e6 48 1c 3d 16 b3 af 3b f3 35 34 bc
       0.020370184 0.03815546 0.005361925 -0.010999191
000310 ad d7 1c 3c ba 7b a0 bc f5 ad 23 3c 7c 3c 22 3d
       0.0095729055 -0.019590247 0.009990205 0.039608464
000320 ac 6b 4b 3c db c2 19 3d 59 05 9f 3d 97 bb 3e 3d
       0.012415808 0.037539344 0.07764692 0.04656562
000330 3b 4f 84 bb 07 ba f8 3c f8 9e 83 3b e4 be 08 3c
       -0.0040377653 0.030362142 0.0040167533 0.008346293
000340 0d ea fb ba 6f 35 05 3c 8c 67 1a bc c5 8b b1 bc
       -0.0019219533 0.008130415 -0.009424102 -0.021673093
000350 87 6e 45 bc da f7 0b bc 82 48 b1 bc 51 98 63 bc
       -0.012050278 -0.008542979 -0.02164102 -0.0138912955
000360 ba 41 bf bc 86 eb 7f bc 3b 67 0d bd 32 31 3f 3a
       -0.02334677 -0.015620118 -0.034522276 0.00072934025
000370 fd 00 a9 3c b1 0c c8 bb 35 14 2f bd bf ad e7 bc
       0.020630354 -0.0061050286 -0.04274388 -0.02828109
000380 6f 0c 39 bd f2 19 0b 3d d8 3b 8f 3b b2 9d 18 3d
       -0.045177873 0.03396029 0.0043711476 0.037259765
000390 ee 97 f0 bb 3a 61 5e bd fe 4d 63 bc 98 2d 4c 3d
       -0.00734233 -0.05429194 -0.013873575 0.04984817
0003a0 69 43 a6 3b a9 54 1a 3d f2 c4 85 3c 60 83 f6 3c
       0.005073954 0.037678394 0.016329262 0.030091941
0003b0 f0 49 7d 3b 99 cf 1d 3d 0c 0f 76 3d 24 6c ec 3c
       0.0038648807 0.03852806 0.060072944 0.02886016
0003c0 bd e1 e6 bb 73 cf 7f 3c e4 20 0b bc a1 8b b7 bc
       -0.007045953 0.015613425 -0.008491728 -0.022405447
0003d0 51 c4 e2 3b e5 71 cb bc c8 cc ad 3b 4d c3 40 3d
       0.0069203754 -0.024834583 0.005303953 0.047061253
0003e0 44 9c 19 3c 23 39 f9 bc 2f 83 2e 3c 17 5b 9f bc
       0.009375636 -0.030422753 0.010651394 -0.019452615
0003f0 3d 4d 7c bb dd 5c 20 bc 02 7c d7 bc 94 e6 c0 3b
       -0.0038498186 -0.009787765 -0.026304249 0.005886862

scale1.1.1.weight f4 [64]
000000 75 ed 6e 3f a1 5e 82 3f 1f 57 6d 3f b5 74 88 3f
       0.9333108 1.0185128 0.9271106 1.0660616
000010 44 16 71 3f 35 2e 54 3f 7e 2f 4b 3f 54 bd 7b 3f
       0.941746 0.82883006 0.7936934 0.98335767
000020 17 e4 67 3f 93 b6 29 3f 91 02 82 3f 5c 46 7a 3f
       0.9058241 0.6629421 1.0157033 0.9776361
000030 c1 62 5d 3f 1c d4 8b 3f c1 af 4b 3f f9 0f 47 3f
       0.8647881 1.0924106 0.79565054 0.7775875
000040 2e 05 51 3f 0b d6 54 3f a4 c2 83 3f cf e6 61 3f
       0.8164853 0.83139104 1.0293775 0.8824281
000050 a9 a1 61 3f ad 87 6e 3f a5 e3 56 3f 28 93 49 3f
       0.881373 0.93175775 0.8394111 0.7874017
000060 4d 93 50 3f 8c 79 5b 3f 34 e8 65 3f d7 c9 4a 3f
       0.81474763 0.8573234 0.8980744 0.79214233
000070 d6 ff 5f 3f b2 c4 60 3f 34 0b 62 3f e9 9e 5f 3f
       0.8749975 0.87800133 0.88298345 0.8735185
000080 10 c6 3a 3f 5b 03 5b 3f f4 17 83 3f fa 91 66 3f
       0.7295847 0.85551995 1.0241685 0.9006649
000090 83 4f 3a 3f c7 af 47 3f ef 06 61 3f 8b 03 73 3f
       0.72777575 0.7800259 0.87901205 0.9492728
0000a0 27 17 5a 3f 3e d9 50 3f 7a 14 8e 3f 12 b1 89 3f
       0.8519158 0.81581485 1.1099999 1.0757163
0000b0 82 cb 7b 3f 06 db 60 3f b7 ac 5c 3f 93 0b 69 3f
       0.98357403 0.87834203 0.8620104 0.91033286
0000c0 2f a6 28 3f 8b a1 66 3f 67 74 33 3f b5 46 35 3f
       0.65878576 0.90090245 0.7009949 0.70811015
0000d0 31 d4 5a 3f 25 53 5b 3f 26 19 53 3f 94 7b 59 3f
       0.8548003 0.85673743 0.8246025 0.8495419
0000e0 19 d4 54 3f 8c 28 58 3f 88 eb 65 3f ed 4a 35 3f
       0.83136135 0.8443687 0.8981252 0.7081745
0000f0 66 f9 67 3f 4d b5 5f 3f 9f d0 48 3f a0 da 7d 3f
       0.90614927 0.8738602 0.7844333 0.9916172

scale1.1.1.bias f4 [64]
000000 89 51 9a 3e b0 e9 bf 3d 6c cc cc 3d 01 8c 86 3e
       0.3014033 0.09370744 0.09999928 0.2627869
000010 13 d6 8e bc de b5 75 bd e7 ce ca 3d d3 d0 57 3d
       -0.017436063 -0.059987895 0.09902745 0.052689385
000020 d5 45 81 3e d8 27 86 be d2 e3 ee 3d da 2a 69 3d
       0.2524859 -0.26202273 0.11664547 0.056925632
000030 b6 a6 72 bd da e3 7d 3e 08 fb 97 bb 4a 67 28 be
       -0.05924102 0.2479395 -0.0046380796 -0.16445652
000040 9f 81 16 be 64 15 9b bd 3b a3 35 3e 3b 12 d1 bd
       -0.14697884 -0.07572439 0.17738049 -0.10208555
000050 1c 54 f2 3d 77 52 f7 3d 8e ef a0 3d d1 34 c3 3d
       0.11832449 0.12076276 0.078581914 0.09531558
000060 56 b7 f9 bd ec 08 0c 3c 77 eb 58 3e 37 0e b4 bd
       -0.12193172 0.008547049 0.21183573 -0.08791774
000070 04 6f 96 3d 76 e7 4e bc 4a 53 1c 3e 50 17 11 3e
       0.07345393 -0.012628427 0.15266147 0.1416905
000080 69 7d c9 bc 6b 3e 10 bc 1f 6d 36 3e a4 84 2e 3d
       -0.024595933 -0.008803944 0.17815064 0.042606965
000090 3d d6 01 be 14 72 33 3d 33 92 10 3e 0d 69 5e 3e
       -0.12679382 0.043809965 0.1411827 0.21719761
0000a0 43 62 b4 3d 47 43 8b bc 24 5a 81 3e b5 2e 6a 3e
       0.088078044 -0.016999854 0.25264084 0.2286938
0000b0 2c 05 b3 3c 6e 22 46 3e 62 91 1c 3e e2 d8 10 3e
       0.021853052 0.19349071 0.15289834 0.14145234
0000c0 4a d1 3d be ad e2 d7 3c d8 06 c9 bd d7 87 94 bd
       -0.18536869 0.026353205 -0.098157585 -0.07252472
0000d0 08 89 f9 3b f2 d7 2e 3e 72 87 79 3d a2 d6 ac 3d
       0.0076152124 0.17074564 0.060920186 0.084393755
0000e0 a6 cf 0b bd 71 b3 4f 3e fa 56 54 3d c1 1a 5a be
       -0.034133576 0.20283295 0.05184076 -0.21299268
0000f0 90 c6 b4 bd d2 79 41 3d 68 41 e7 bd 4d 55 28 3e
       -0.08826935 0.047235318 -0.11291772 0.1643879

scale1.1.1.running_mean f4 [64]
000000 4d 33 aa 3f 34 5f 2f be 5e 97 8c bf 35 9f d0 3d
       1.3296906 -0.17126161 -1.0983694 0.10186616
000010 ec 9f d7 3f a2 e4 e4 3f 19 b3 d5 be 15 4b b4 be
       1.6845679 1.7882273 -0.41738203 -0.35213533
000020 f6 40 62 bf bb 8e cf 3f 47 92 e1 be 60 eb f1 3e
       -0.8838037 1.6215433 -0.44056913 0.4724989
000030 7a 25 80 40 9a 33 81 be 37 96 32 3f 08 7b 95 bf
       4.004575 -0.2523468 0.6976046 -1.1678171
000040 8c 53 34 40 71 d3 ca 3f c6 24 f3 3e 96 58 c5 3f
       2.8175993 1.5845777 0.47488993 1.5417659
000050 53 c3 91 bf 62 2f 90 be 4b 17 67 bf 0b 01 bc bf
       -1.1387733 -0.2816115 -0.9026992 -1.4687818
000060 97 62 08 40 7e 0f 90 3e 91 2a 95 bf 35 82 c2 bf
       2.1310174 0.2813682 -1.1653615 -1.5195986
000070 06 de 56 be 6e 03 85 bd 83 01 6f 3c 4d 77 db 3d
       -0.20983133 -0.06494795 0.014587763 0.10716114
000080 38 04 0e c0 4b 00 2a be 58 b9 84 3f b5 d5 d3 3e
       -2.2190075 -0.16601674 1.0369062 0.41373983
000090 34 4a 04 c0 f3 45 8f bf 76 51 2c 3d 76 d7 76 3e
       -2.067029 -1.1193222 0.042069875 0.2410563
0000a0 bd db f7 bc 2d 21 f5 be 7e 0a da be c8 db e5 3e
       -0.030256147 -0.47876874 -0.4258613 0.44894242
0000b0 4d 57 95 be fb 46 95 bf 9b 11 88 be 02 5f 4e bf
       -0.29168168 -1.1662287 -0.26575932 -0.8061372
0000c0 f4 c2 53 c0 da 18 00 bf a1 b4 14 3d d4 53 8b 40
       -3.308774 -0.5003792 0.036305074 4.353983
0000d0 8e 9e 8f 3f bc 31 87 3c ba ac 58 bf 93 8b bb bf
       1.1220262 0.016503207 -0.8463856 -1.465197
0000e0 81 93 91 bd a2 21 c7 3d 49 86 dc be 67 c5 3a be
       -0.07108212 0.09723212 -0.430712 -0.18239366
0000f0 9e be d3 3c 29 bc 28 bf 55 1f 7e c0 c3 1c 8c 3f
       0.02584773 -0.6591211 -3.9706624 1.0946277

scale1.1.1.running_var f4 [64]
000000 ae 17 2f 40 09 57 20 40 eb 63 9e 3f 56 44 fd 3f
       2.7358203 2.5053122 1.2374243 1.978648
000010 32 39 57 40 92 01 43 40 39 fe a3 3f 1c 1b 31 40
       3.362866 3.0469708 1.2811958 2.7672796
000020 56 3d 30 40 02 d0 ea 40 b8 e4 e1 3f 71 a0 26 40
       2.7537436 7.3378916 1.7647924 2.6035426
000030 6e 32 89 40 ae 14 9d 3f e4 32 65 40 f3 19 77 40
       4.287406 1.2271936 3.581231 3.8609588
000040 56 db 56 40 92 ef b0 40 c6 9a 1a 40 93 92 a4 40
       3.3571372 5.5292444 2.4156966 5.1428924
000050 02 f0 45 3f d3 a2 38 3f ee 29 38 3f 7c 86 43 3f
       0.7731935 0.7212345 0.7193898 0.7637708
000060 db 2a 78 40 d8 a6 84 40 d7 7d 12 40 b8 26 8b 40
       3.8776157 4.1453667 2.2889307 4.3484764
000070 cb 15 2b 40 03 52 69 40 62 4f ce 3f e2 13 02 40
       2.6732051 3.6456306 1.6117976 2.0324636
000080 19 33 ab 40 35 89 48 40 ac 81 1f 40 4d 3b 85 40
       5.3499875 3.1333745 2.4922895 4.163489
000090 e0 81 59 40 4b df 85 40 6b c5 32 40 60 69 45 40
       3.398552 4.1835074 2.7932994 3.0845566
0000a0 fc d5 32 40 b7 01 48 40 b1 41 a4 3f ce 91 07 40
       2.7943106 3.1251047 1.2832547 2.1182742
0000b0 c3 f7 40 40 11 d9 c9 3f 8d 49 ff 3f 79 65 10 3f
       3.0151222 1.5769368 1.9944321 0.56404835
0000c0 8c 7d a1 40 ca bb 75 40 eb ab 4f 40 aa 79 95 40
       5.0465755 3.8395867 3.244868 4.6711016
0000d0 41 99 ae 3f 6f 2e 5c 40 d2 95 3b 40 c6 f3 7f 3f
       1.3640519 3.440334 2.9310193 0.99981344
0000e0 c0 e7 46 40 d8 e3 11 40 15 88 44 40 8e 60 20 40
       3.107895 2.2795315 3.0708058 2.5058932
0000f0 77 03 42 40 b7 65 30 40 8d eb e5 40 09 a1 5a 40
       3.0314615 2.7562082 7.1850038 3.4160788

scale2.1.0.weight f4 [64, 64, 3, 3]
000000 32 43 59 bc 29 46 44 bd d2 33 2e bd 0e 00 75 ba
       -0.0132606495 -0.047918472 -0.04252989 -0.00093460164
000010 7e 07 e0 bc 0a d3 71 bd f3 0c 00 3d 47 c4 cc 3c
       -0.027347323 -0.059039153 0.03126235 0.024995936
000020 8a 85 1c 3c b7 40 fe 3c 48 41 9d bb 76 18 87 bb
       0.009553323 0.031036718 -0.004799042 -0.004122789
000030 34 11 2b bd db b3 ac bd 63 fc e8 bc ec 55 13 bd
       -0.041764453 -0.08432742 -0.02844066 -0.035970613
000040 1b 02 8f bd 65 b3 df bb cf 3d f3 bc b4 ee 44 bd
       -0.069828235 -0.0068268054 -0.029692559 -0.048079208
000050 1b 47 5b bd dc a0 9b 3b e2 c7 60 bc d0 83 36 bd
       -0.05353461 0.0047494005 -0.013719531 -0.0445593
000060 7d 7a 47 3d 75 20 3e 3d 20 7c d5 3c 91 9e c5 3c
       0.0487008 0.046417672 0.026060164 0.024123462
000070 1d f2 1b 3a 5e 62 c0 3c 81 3e 90 bd f0 4d da bd
       0.00059488585 0.023484405 -0.07043172 -0.10659397
000080 a1 8c b6 bc c5 1a 65 bd 3a a5 b5 bd c6 cf 19 bc
       -0.022283854 -0.055933733 -0.08869405 -0.009387916
000090 7d a3 ea 3c f4 f3 eb 3a 37 80 3a 3c 37 07 00 bd
       0.02864241 0.0018001781 0.011383108 -0.03125688
0000a0 0a 51 7d bd 39 d2 07 bc 00 15 b1 bc c4 cc 32 bd
       -0.061844863 -0.008289867 -0.021616459 -0.04365231
0000b0 be c3 22 3b 81 0f af bc 10 ca 17 bd 82 9e 59 bd
       0.002483591 -0.021369698 -0.037057936 -0.05312968
0000c0 57 75 12 3c 4a 21 c2 bb b9 2d 32 bd 38 cb 2c 3d
       0.008939109 -0.0059243785 -0.043500636 0.042185992
0000d0 a2 af 3d 3d d7 74 b2 3c 32 fa b5 bc a5 9b 25 bd
       0.046310075 0.02178423 -0.022214029 -0.040431637
0000e0 d8 e7 0e bd 2c 84 00 3c 9b b8 10 bc b5 ab 0c bd
       -0.034889072 0.007844012 -0.008833076 -0.03434344
0000f0 80 ea 28 3d 56 ea 1e 3d 55 a0 8d 3c 69 1c 64 3d
       0.04123926 0.0387977 0.017288366 0.055691157
000100 cb 29 01 3d a7 49 3a 3d a0 45 06 bd c6 c6 88 bd
       0.031533998 0.045480397 -0.032781243 -0.06678538
000110 db 23 23 bb 82 ad 10 bd ea 2e 7e bd 7c e0 81 3b
       -0.0024893198 -0.03532172 -0.06205646 0.003963528
000120 e2 62 a5 bc 18 2a 40 bd ef 89 36 bd ec bd c4 bc
       -0.020188753 -0.046915144 -0.044565137 -0.024016343
000130 94 9d 52 bd a9 2e 88 bd 5a ce 59 3c 7d 3d 9e 3b
       -0.05141981 -0.06649525 0.013293827 0.0048291073
000140 98 11 d8 bb bf 36 8a bc 29 a9 04 bd 55 c9 1c bd
       -0.006593894 -0.016871808 -0.032387886 -0.038277943
000150 ea c1 fd 3c 86 ea a0 3c dd f8 41 bc 5d b3 7f 3d
       0.030976254 0.01964308 -0.011839119 0.062426914
000160 fb 14 7f 3d 32 b7 0d 3d 51 c3 75 3d ac a2 0c 3d
       0.062275868 0.034598537 0.06000072 0.034334823
000170 db b8 0d 3d 01 a8 e7 bc 4f bc 88 bd ef 7a 24 bc
       0.03460012 -0.028278353 -0.06676542 -0.010039075
000180 01 d5 c7 bc 9f d7 5f bd a8 1a 57 3a d3 55 82 3c
       -0.02439356 -0.05464899 0.0008205571 0.015910065
000190 bd 4b d0 bb 1a 5e 2e 3c 03 fe 89 bd 60 72 de bd
       -0.006356685 0.010642553 -0.06737902 -0.10861659
0001a0 75 f3 1b bd 52 19 8b bd c1 5e ca bd ae f3 ef bc
       -0.038073976 -0.06791939 -0.09881354 -0.029291
0001b0 e2 04 b1 bc 45 e9 20 bd 89 72 3e bd 6e 42 af 3c
       -0.021608774 -0.039284963 -0.046495948 0.02139398
0001c0 e9 57 5c 3c 53 68 dd bc f7 8a 6e 3d 7b 06 87 3d
       0.013448694 -0.027027285 0.058237996 0.06593033
0001d0 e6 7b 15 3d a9 d8 89 3c f3 d2 15 bc 12 90 a2 3c
       0.036495112 0.016826944 -0.0091445325 0.019844089
0001e0 9c b5 a9 bd 79 8a ec bd f1 51 a2 bc 10 41 4b bd
       -0.08286592 -0.11549849 -0.019814463 -0.049622595
0001f0 8e f1 99 bd 1d 2d 83 ba 1a 9e 53 ba 0a c8 4d bc
       -0.07516776 -0.0010007952 -0.000807257 -0.0125599
000200 70 ed d0 3a aa 92 8a bd 2a 5f b2 bd 05 57 f1 bc
       0.0015939903 -0.06766255 -0.08709557 -0.02946044
000210 5b 56 82 bd b3 d9 9c bd 3b 44 c6 bc f1 4b 04 3d
       -0.06364127 -0.0765871 -0.024202457 0.032298986
000220 5e 67 64 3c d6 7c ff 3c 8f c8 d9 bc c5 74 47 bd
       0.01394066 0.031187456 -0.026584892 -0.048695344
000230 ad 3f e7 ba 11 99 3b bd 24 88 77 bd 59 06 7d bc
       -0.0017642878 -0.045800272 -0.06043257 -0.015443408
000240 e6 15 5d bc af 89 0e bd 23 4b 29 bd 7f 76 be 3c
       -0.0134939905 -0.034799274 -0.04133142 0.023249863
000250 f9 7a a1 3b 71 64 08 bd b7 1d 6a 3d b1 36 5b 3d
       0.0049279896 -0.033298913 0.057157245 0.053518955
000260 3a c8 b8 3c f7 79 5f 3c c3 dc a9 3c 3d c0 d7 3c
       0.022556413 0.0136399185 0.02073515 0.026336784
000270 49 2d 11 bc 8d b6 82 bb 86 2c 9d 3c b2 18 25 bc
       -0.0088608945 -0.003989047 0.01918627 -0.010076689
000280 f2 de 88 bb de 6b a9 3c 5c cb 26 3d 6d 3c e4 3b
       -0.004176968 0.020681318 0.040721282 0.006965211
000290 d0 28 ea 3c 1a ed 12 bd 07 fa a9 bd 6e f7 a7 bb
       0.028583914 -0.03587065 -0.08299642 -0.0051259315
0002a0 72 07 0a bd fa f7 92 bd 06 a6 7e bb 44 ed be bc
       -0.033698507 -0.07176204 -0.0038856282 -0.023306496
0002b0 1e 0a 1c bd 67 56 27 bd 53 d7 bb 3c 76 ea 3f 3c
       -0.038095586 -0.040853884 0.022929823 0.011713615
0002c0 74 df cd bc 82 57 7c 3d 87 b3 7d 3d 9a e7 07 3d
       -0.025130965 0.06160689 0.06193879 0.033179857
0002d0 52 53 81 bc ef d0 42 bd ec fa 5f bd 72 30 5d bb
       -0.0157868 -0.047562536 -0.054682657 -0.00337508
0002e0 78 87 f0 bc ed c2 84 bd a3 ea c3 3c e2 d2 8f 3c
       -0.029361472 -0.06482492 0.023915594 0.017556611
0002f0 3d 7c 25 bc 82 60 dc bc 35 5f 3a bd 0c a8 31 bd
       -0.0101004215 -0.026901487 -0.045500953 -0.043373153
000300 e2 48 a1 3a 13 4c 3c bc fe b5 34 bd 5c 14 1f 3d
       0.0012305046 -0.011492747 -0.044118874 0.038837776
000310 02 6b 26 3d d3 43 5f 3c 80 7b 9e bc 62 21 1d bd
       0.040629394 0.01362701 -0.019345999 -0.038361914
000320 3c 1a 51 bd d5 58 08 bc 94 61 b9 bc 91 de 5b bd
       -0.05105041 -0.00832196 -0.022629537 -0.053679053
000330 c0 c6 1b 3c 0b 0c 51 3c f5 2b 78 bb b8 ac df 3b
       0.009507835 0.012759219 -0.0037867997 0.0068260096
000340 17 36 7f bc 06 f5 f6 bc 5c 79 03 bc f1 07 d3 bc
       -0.015576861 -0.030146133 -0.00802454 -0.025760623
000350 cd 1a 58 bd 94 63 f9 b8 4b 52 59 3a 70 2d c1 bb
       -0.052759934 -0.00011891793 0.00082901557 -0.005895309
000360 40 32 00 bd 6b 92 51 bd 58 62 85 bd 2c fe 12 3c
       -0.031297922 -0.051165026 -0.06512898 0.008971732
000370 64 34 aa bb f7 f4 36 bd 56 cc 2f 3d b4 e4 36 3d
       -0.0051942337 -0.04466721 0.04291948 0.044651702
000380 88 18 3a 3c 21 5f 9c 3c 2d 76 74 3c b1 5d 08 3d
       0.011358388 0.01908833 0.014920753 0.033292476
000390 ca 8f fe bc c2 96 1b bd cc bc e4 3b e2 31 0a bd
       -0.031074423 -0.03798557 0.006980514 -0.03373898
0003a0 7c aa 12 bd 44 a2 01 3c fd a4 b4 bc 83 e5 22 bd
       -0.035807118 0.007912222 -0.022051329 -0.03976966
0003b0 ce 11 26 bd 84 00 06 bc 24 25 c7 bc 99 e4 5b bd
       -0.040544324 -0.008178834 -0.024309702 -0.053684805
0003c0 90 cb 96 3c 4b 8f 8f 3c 3c c0 1b 3b 22 b2 4d 3d
       0.018407613 0.017524382 0.0023765704 0.05021871
0003d0 47 96 50 3d 57 38 50 3d e4 10 12 3c 8e b7 bf bb
       0.050924566 0.05083498 0.00891516 -0.005850739
0003e0 7a 30 ab 3c 5c 34 f4 ba a2 84 45 bc cb bf 8f 3c
       0.020897139 -0.0018631327 -0.012055548 0.017547509
0003f0 98 2b e1 bc 15 13 5b bd f4 17 78 bd c0 25 43 3b
       -0.027486607 -0.053484995 -0.06056972 0.002977714

scale2.1.1.weight f4 [64]
000000 71 8d 74 3f 41 b5 81 3f 19 6f 50 3f 03 62 5c 3f
       0.9552832 1.0133439 0.8141952 0.86087054
000010 f6 e2 96 3f dc 86 5c 3f 35 80 8b 3f fc 0a 60 3f
       1.1788013 0.8614328 1.0898501 0.8751676
000020 92 63 3b 3f f0 35 75 3f 41 7f 58 3f b3 ed 9e 3f
       0.7319881 0.9578543 0.84569174 1.241629
000030 d4 15 62 3f b6 67 41 3f cb 61 4d 3f cf 48 6a 3f
       0.8831456 0.75548875 0.80227345 0.9151735
000040 41 17 87 3f 57 44 31 3f 58 c9 84 3f 5a 6b 96 3f
       1.0553972 0.69244903 1.0373945 1.1751511
000050 11 dc 88 3f 1a 9f b1 3f 0c 3c 84 3f b5 1e 3b 3f
       1.0692159 1.3876679 1.0330825 0.7309373
000060 56 e2 87 3f da 6e 83 3f 1e cd 92 3f 42 7b 58 3f
       1.0615947 1.0268204 1.1468847 0.84563076
000070 a4 75 27 3f ad 4a 98 3f 27 36 38 3f 21 85 4a 3f
       0.6541388 1.1897789 0.7195763 0.7910939
000080 67 fb 74 3f 12 14 5c 3f b9 03 7f 3f b2 ae 3a 3f
       0.9569611 0.85968125 0.99615055 0.72922814
000090 c9 dc 89 3f a8 56 3c 3f bf 7f 30 3f b3 fb 89 3f
       1.0770503 0.73569727 0.68944925 1.0779938
0000a0 3f 28 48 3f 21 d7 91 3f 15 75 49 3f d3 6f 48 3f
       0.7818641 1.1393777 0.7869428 0.7829563
0000b0 0b 65 7e 3f c3 87 57 3f 3c d4 7d 3f 9c cf 9e 3f
       0.9937293 0.8419153 0.9915197 1.2407107
0000c0 c8 5c 72 3f 62 7f 43 3f 92 ad 8d 3f 23 f1 45 3f
       0.9467282 0.76366246 1.1068594 0.7732107
0000d0 21 1c 8e 3f 28 95 6b 3f c6 c8 38 3f 59 d6 4c 3f
       1.1102334 0.9202447 0.72181356 0.8001457
0000e0 3f 81 4c 3f 4f 39 34 3f 5b 14 7b 3f f1 21 94 3f
       0.79884714 0.70399946 0.98077935 1.1572858
0000f0 d8 31 93 3f 2b e9 85 3f 48 f8 6b 3f 19 50 46 3f
       1.1499586 1.0461782 0.9217572 0.7746597

scale2.1.1.bias f4 [64]
000000 51 e3 a4 3d e8 6a 42 3e e9 f7 6b be f3 a2 0d bd
       0.0805117 0.18986094 -0.23043789 -0.03457923
000010 fb 32 b7 3d 7e f1 ee bd cc 57 d9 3e 3b 4c be bd
       0.08945271 -0.11667155 0.42449796 -0.092918836
000020 5f 30 0f be f1 5f 22 3d e3 0b 0f bd e8 dc bf 3e
       -0.13983296 0.039642278 -0.034923445 0.37473226
000030 d0 46 cf bc d2 6b 51 be 9a b5 83 bc ea a5 5e bd
       -0.02530232 -0.20451286 -0.016077805 -0.054357447
000040 c3 d1 5b 3e 45 0b 1c be 47 0a a8 3e 92 fd 9e 3e
       0.21466736 -0.15238674 0.3282034 0.31052834
000050 cc fc 14 3e ea 07 00 3f 27 68 9c 3d 37 fe 5f be
       0.1454956 0.50012076 0.07637053 -0.21874319
000060 9f 6f 3b 3e ce 2e 23 3e be 59 41 3e ac 2c 46 3d
       0.18304299 0.15935823 0.1888189 0.048382446
000070 9a 8f 85 be b0 77 33 3e fe 30 70 be 9e 60 1e be
       -0.26086122 0.17526126 -0.23456189 -0.15466544
000080 cc a8 50 be e8 cc be bd f8 fc b0 3d ad 46 70 be
       -0.20376891 -0.093164265 0.08642 -0.2346446
000090 56 f1 06 bd d6 2f 80 be b0 3d a7 be 02 83 01 3d
       -0.032945 -0.25036496 -0.3266425 0.03161908
0000a0 99 e9 6c be 5b ea dd 3c d8 e7 2b be c9 98 73 be
       -0.23135985 0.027089288 -0.1678766 -0.23788752
0000b0 af d9 2d be de 02 05 be 46 7c 1b 3d e4 86 05 3f
       -0.16977571 -0.12989375 0.037960313 0.5215895
0000c0 58 17 52 be c8 f9 35 be 22 27 85 3e 40 a4 21 be
       -0.20516717 -0.17771065 0.26006418 -0.15785313
0000d0 7c fb 32 3e 01 fa 29 be 95 a6 95 be b1 1e 3c be
       0.17478746 -0.16599275 -0.29228655 -0.18371083
0000e0 59 5a 46 be 27 31 81 be c8 09 32 be f3 e7 e2 3e
       -0.19370402 -0.25232813 -0.17386544 0.44317588
0000f0 e8 c1 3b 3e 09 01 f5 3d b4 dc 09 be a2 d9 68 be
       0.18335688 0.11963088 -0.13463098 -0.2273927

scale2.1.1.running_mean f4 [64]
000000 e6 ca 41 c0 d4 06 80 3f e4 53 b4 40 0c 26 85 bf
       -3.028009 1.0002084 5.6352406 -1.0402236
000010 59 96 85 c0 8f b2 01 c0 4f 0e 48 3f 07 55 ca bf
       -4.174603 -2.0265234 0.78146833 -1.5807198
000020 ca cd a2 3e 7a ba 42 c0 3b 24 9b bd 19 06 72 bf
       0.3179763 -3.0426316 -0.0757527 -0.94540554
000030 3e 5d fc be c7 ae 2d bf 82 9f e4 be 9a 19 52 bf
       -0.49289888 -0.67844814 -0.44652945 -0.82070315
000040 bd df 2d bf 61 50 69 40 b3 2b 82 3f 90 d2 a7 3e
       -0.6791952 3.645531 1.0169586 0.32777834
000050 e0 91 f8 bf b1 2b 54 bf f3 a7 3f c0 bf 5b 77 c0
       -1.9419518 -0.8287917 -2.9946258 -3.8649747
000060 2f 37 03 c0 b5 f5 44 bf 9d aa 24 3f 0f 99 95 bd
       -2.0502431 -0.7693742 0.64322835 -0.07304584
000070 61 eb f6 3e e8 c9 ee bf e2 85 b5 3f 1a 09 82 3f
       0.48226455 -1.8655367 1.4181483 1.0159028
000080 ad 34 2d 40 93 7c 5d 40 15 89 0a c0 ec cb 00 c0
       2.70634 3.4607284 -2.1646168 -2.0124464
000090 88 3f 4b c0 9c 66 3f 3f 69 34 2f 40 c5 9d f2 bc
       -3.1757526 0.74765944 2.7375739 -0.029616246
0000a0 9a 27 13 c0 ac 29 1d c0 3b 66 db 3f b2 3b 69 40
       -2.299292 -2.4556684 1.7140573 3.6442685
0000b0 c0 ce a5 c0 d3 00 32 c0 0a b2 0f c0 3e 10 f5 3e
       -5.181488 -2.7813003 -2.2452416 0.47863954
0000c0 fc e7 66 40 fe 6a 10 bd 51 67 18 c0 97 0b 53 bf
       3.6079092 -0.035258286 -2.381306 -0.8243956
0000d0 0d bc 2b bf b2 00 ac 40 6d 6f 31 40 24 66 23 3d
       -0.6708382 5.375085 2.772426 0.03989233
0000e0 b2 9f 8f 40 3c ea 3c c0 87 6e d2 bf 8e e1 cb 3d
       4.488244 -2.9517965 -1.643998 0.099551305
0000f0 c0 98 2d c0 8d 22 a8 be 06 3c d2 3f 2d d3 81 40
       -2.7124481 -0.3283886 1.6424568 4.0570283

scale2.1.1.running_var f4 [64]
000000 15 9e 09 40 a9 cd 09 3f 51 75 36 40 a0 c1 b3 3f
       2.1502736 0.5382944 2.8509104 1.4043465
000010 c2 49 10 40 70 6d af 3f 13 4f 19 3f 9d 85 3c 3f
       2.2545018 1.3705273 0.5988628 0.7364138
000020 2f d1 e5 3f 17 ea 82 3f 66 a1 c6 3e fa e1 ad 3e
       1.7954463 1.0227689 0.38795012 0.3396147
000030 91 cf 1b 3f a6 5a d9 40 7d de 34 40 34 4e b8 3f
       0.60863596 6.7923155 2.8260796 1.4398866
000040 ff 3e c8 3e bd 7e b3 40 e3 7d 09 3f 07 6d f4 3e
       0.39110562 5.609221 0.5370771 0.4773943
000050 93 b4 36 3f d6 5f 9c 3e 9e 41 01 40 6d 17 19 41
       0.71369284 0.30541867 2.01963 9.568219
000060 e5 04 aa 3f e8 41 05 3f 63 92 0c 3f 91 64 80 3f
       1.3282744 0.5205369 0.5491087 1.003069
000070 2a 0e 6c 40 d3 3f 28 3f 69 16 a8 40 bd 3a 88 41
       3.6883645 0.6572239 5.2527356 17.02868
000080 19 7d ab 40 fd d9 98 3f 1b 49 ae 3f 36 fa 2f 40
       5.3590207 1.1941525 1.361606 2.7496467
000090 ac 8e 33 40 79 9f 15 41 5e cf 91 41 05 89 01 3f
       2.805583 9.351434 18.226254 0.505997
0000a0 c6 4f 49 40 fb 11 ad 3f 0c f6 14 40 39 0c ce 40
       3.145494 1.3521112 2.3275175 6.438992
0000b0 5b 23 88 41 48 86 4b 40 40 dc ac 3f 37 e1 e0 3e
       17.017263 3.1800709 1.3504715 0.43921825
0000c0 5a 8f 47 40 84 ff fc 40 8c 91 66 3f 06 bc c9 3f
       3.1181245 7.906191 0.90065837 1.5760505
0000d0 74 64 00 3f 99 1d a9 40 2d 7b af 40 d1 fe 8a 40
       0.5015328 5.284863 5.483786 4.3436055
0000e0 e6 85 86 41 25 08 b6 40 e6 d2 76 40 ee da 0a 3f
       16.81538 5.688494 3.8566222 0.5424031
0000f0 9d ef 31 3f a8 57 40 3f a0 49 5e 40 ad a5 5c 41
       0.69506246 0.7513375 3.4732437 13.790448

scale2.2.0.weight f4 [64, 64, 3, 3]
000000 ae 75 61 3d e9 b0 df 3c 19 06 df 3b 0e f7 ac 3c
       0.05504387 0.027306037 0.006806147 0.021113899
000010 24 2d 94 3b 07 40 08 bc 49 b5 ae 3d 50 59 52 3d
       0.0045219827 -0.008316047 0.08530671 0.051354706
000020 cc 01 5d 3d 2b c8 48 3c 38 08 35 bd 6a f1 ac bd
       0.05395679 0.012254755 -0.04419729 -0.084444836
000030 35 56 ea 3c 57 01 44 3c 77 bb 59 bd ef fa 2e bc
       0.02860556 0.01196321 -0.053157296 -0.010679944
000040 ac 94 b5 3c 98 a7 0d 3c d3 7c ae 3c 0b 1a 98 3b
       0.022165619 0.0086459145 0.021299755 0.0046417764
000050 1c a6 62 bc 75 e8 1a 3d 9c a9 f2 3c 5c 2b 60 b9
       -0.013833549 0.037819345 0.029621892 -0.00021378457
000060 95 75 44 bb fa e1 da 3c aa 00 a3 3c f4 ff e9 bc
       -0.002997731 0.026719082 0.019897778 -0.02856443
000070 bc 17 37 bd 50 10 61 bc fe 93 be 3c 43 7e 88 3c
       -0.04470037 -0.013736799 0.023263928 0.016661769
000080 91 50 27 bd aa aa 69 bb 54 32 28 3d a5 40 69 bc
       -0.04084832 -0.0035654702 0.04106362 -0.014236604
000090 09 19 2c bc 6e d4 ca 3c 60 33 bc 3d ce b6 df bb
       -0.010504016 0.024759497 0.091894865 -0.006827212
0000a0 da bc 37 bd 1f 12 11 3d e8 39 85 3d c0 fa f6 bc
       -0.044857837 0.035417672 0.06505185 -0.030148864
0000b0 cc c0 a8 bb 6a dd 08 3c d2 39 54 bd 43 c6 67 bd
       -0.0051499363 0.0083535705 -0.051812954 -0.05658556
0000c0 cf ee f4 3c 8d ee bc 3c 9a df 6e bd 4d 4f 8e bc
       0.029899029 0.023062969 -0.05831871 -0.017371798
0000d0 87 f4 b4 3c d1 6b 0b bd 8d ba bb 3b 17 aa 45 bc
       0.022089256 -0.03403837 0.0057290257 -0.012064478
0000e0 2b cc ec bc d9 63 3d bd f8 28 d0 bb 74 01 2c bd
       -0.028905949 -0.0462378 -0.00635254 -0.041993573
0000f0 97 90 cb bd a9 78 a8 bc eb ee b3 bc 73 69 12 3d
       -0.09939688 -0.020565348 -0.02196451 0.035745095
000100 f9 10 61 bc 7c ca 1b bd 11 34 af 3d 2f 37 a7 3d
       -0.013736957 -0.0380349 0.08554853 0.08164822
000110 d2 ad 3a bc 7f 05 77 3c 0e 44 8f 3d f0 08 3d 3d
       -0.011393981 0.015076994 0.06995402 0.0461511
000120 ca 1a 2a 3c d1 bc 1f bc dd 26 08 bd b1 65 47 bc
       0.010382364 -0.009749607 -0.033240188 -0.012170241
000130 5f c2 0f 3c c1 c0 a5 bc 96 af 2c bd 1b b7 6b bc
       0.008774369 -0.020233514 -0.04215964 -0.014386917
000140 f8 04 50 bc 66 dc 17 bd 55 ee 17 bd a2 89 a1 3c
       -0.012696497 -0.037075423 -0.037092526 0.019718949
000150 e7 38 6e 3c fe 8a 68 bd 58 86 58 bd 43 f8 85 3d
       0.014539934 -0.05677318 -0.052862495 0.06541493
000160 12 b3 d0 3b 49 84 45 bd 7f 92 22 3d 87 22 91 bb
       0.006369003 -0.04822186 0.03969049 -0.004429165
000170 89 28 14 bd fc 52 ab bb eb af cc 3c 9a 7a 83 bc
       -0.03617147 -0.0052283984 0.024986228 -0.016049672
000180 35 19 87 bd e1 b2 a2 bc 6a 1f ee bb 1e bc dd bc
       -0.06596605 -0.019860687 -0.0072669284 -0.02706724
000190 e9 9a 0d bd 94 62 27 b9 c8 5d 01 bb 6b 29 67 bd
       -0.034571562 -0.00015963084 -0.0019739736 -0.056435984
0001a0 e9 8b fa bd 5e d4 0c 3d f9 fe 5c 3d a8 1e 82 bc
       -0.12233717 0.034382217 0.0539541 -0.015883759
0001b0 e4 4a b8 3c eb f6 16 bd c7 49 b7 bc 0b 92 32 3d
       0.022496648 -0.036856573 -0.022374047 0.04359631
0001c0 98 6a 20 3d f5 f5 91 bc 74 c3 1a bd 8e 9c 93 3c
       0.039164156 -0.017817477 -0.037784055 0.018018987
0001d0 29 eb fa 3c 73 8c f8 3a df b5 4e bc 90 05 93 bc
       0.030629711 0.0018962756 -0.012616604 -0.017946988
0001e0 28 ea f9 3c b5 bc 2e 3d 57 76 81 3b fb d3 83 bc
       0.030507162 0.042660434 0.003950875 -0.016092291
0001f0 39 4f a9 3c 67 4e ae 3c e0 0f 76 bb d2 ca 52 bc
       0.02066766 0.02127762 -0.0037546083 -0.012865739
000200 eb 83 18 bd e7 9f 2a ba 22 29 f1 3c bc 36 8e bb
       -0.03723518 -0.00065088127 0.029438559 -0.004340021
000210 b2 e0 71 bd a8 7b 8d bb ef dd 6e bb 4a 02 ed 3c
       -0.059052177 -0.0043177195 -0.00364482 0.028931756
000220 ed 68 36 bb a7 ae b5 bc 7e 3c dc bb 31 17 9f ba
       -0.0027833537 -0.022178007 -0.0067210784 -0.0012137649
000230 d2 b3 38 3b ce 0a 50 bd af a6 43 bd db 5b 0d 3c
       0.0028183353 -0.050791554 -0.047766384 0.008627857
000240 aa 72 ae bc a2 c8 4f 3d 03 c6 5b 3d db 08 c4 bd
       -0.02129491 0.050728448 0.053655636 -0.095720015
000250 dc 98 a3 bc 18 26 9d 3d db f1 54 bd 87 22 69 bd
       -0.01997035 0.076732814 -0.051988464 -0.056917693
000260 2e 6d ad 3b cd 4e 8a 3c 58 28 34 3b 0c 7b ee bc
       0.0052925562 0.016883278 0.0027489867 -0.029111408
000270 b6 c5 b3 bc 24 0d a6 3a d6 48 5a bc ad c7 11 bd
       -0.021944862 0.0012668711 -0.0133230295 -0.035590816
000280 a7 4d 30 bc 32 b9 a4 3a ed 9e 5f 3d e2 eb da bb
       -0.010760701 0.00125674 0.054594923 -0.0066809515
000290 f5 04 7c bd 20 3b a6 bc 07 70 57 3c cf b9 aa 3b
       -0.061528165 -0.020291865 0.013149268 0.0052101384
0002a0 f1 65 9c bd 50 34 19 bd dd 02 af bb 45 cd 82 bb
       -0.07636631 -0.037403405 -0.0053409175 -0.003991755
0002b0 1d a4 09 3d 38 20 2d 3c ad a3 5a bd 3b 31 b6 ba
       0.033603776 0.010566764 -0.05337875 -0.001390017
0002c0 74 27 96 3d 49 80 75 bd 62 db 80 bd f2 db bd 3c
       0.07331744 -0.059936795 -0.06291844 0.023176167
0002d0 07 0c 8a 3d 7e 5b 98 bd 7b e8 c5 bd 78 14 c9 3d
       0.06740575 -0.07439326 -0.09663483 0.09818357
0002e0 e6 ee b1 bb 29 3e 77 bd 0d 6c 81 3d 68 f6 fd 3c
       -0.0054300902 -0.060362015 0.06319437 0.031001285
0002f0 0e b8 40 3d f4 d4 72 bd 5b 93 29 3c ec e7 01 3d
       0.04705053 -0.05928512 0.010350074 0.03171532
000300 c9 e0 35 bd 8f 55 28 bd 86 e2 97 3d b3 a0 84 3d
       -0.044403825 -0.04109722 0.07416253 0.064759634
000310 b1 d7 8e bd 1d 8c 98 bc fc 2a 1e bc 05 cb 8a bd
       -0.069747336 -0.018621499 -0.009653803 -0.06777004
000320 89 54 4b bd 7a 2f 9c 3d 71 20 b0 bc 2b a7 8b bd
       -0.049641166 0.07626243 -0.021499844 -0.06818994
000330 4b 5d a7 3d 10 13 71 3d 4b 63 34 3c f7 01 02 3c
       0.08172091 0.05885607 0.011010001 0.007935039
000340 cd 28 bf bc be 7f 07 bd ef 87 12 3d ff ce 06 3d
       -0.023334885 -0.03308081 0.035774168 0.03291225
000350 31 fa 0e 39 18 28 81 3c a7 2b d4 3c bd a2 67 3c
       0.00013635379 0.015766189 0.025899721 0.014137921
000360 9a a5 55 3d c1 8c 56 3d d8 7a e5 3b 2e d2 3d bd
       0.052159883 0.052380327 0.0070031695 -0.04634302
000370 4f ee fa 3b cc 95 f4 3c 54 cd 11 bd f5 bd 0f bd
       0.007657803 0.029856585 -0.035596207 -0.035093267
000380 7a ff f3 3c cc 7c 0f bd 16 6a 77 bd 79 6d e2 bc
       0.029784907 -0.035031125 -0.060403906 -0.027640091
000390 db 04 ab 3c 8c c3 a9 3c f7 cb 69 bd c1 14 87 bd
       0.020876339 0.020723127 -0.05707928 -0.06595755
0003a0 c0 63 2c 3c d4 0f 1e bb 39 c6 8b bc 5b 62 78 3c
       0.010521829 -0.002411832 -0.017062293 0.0151601685
0003b0 bd 8b 62 3c e1 b7 55 bd ef 87 d1 3b 68 d4 8f 3d
       0.0138272615 -0.052177314 0.0063943784 0.07022935
0003c0 6a 8d 82 bd 9f 9a 8a bd 8e 2d 5f bd c5 11 11 3d
       -0.06374629 -0.06767773 -0.054486804 0.035417337
0003d0 85 c6 65 bd 4f 2a e2 bd 93 62 25 3d 28 29 dc 3c
       -0.056097526 -0.11043226 0.04037721 0.026875094
0003e0 fb 1c 01 bd ed b6 8b bc 4b be b3 3c ba d0 b5 3c
       -0.03152178 -0.017055 0.021941325 0.022194255
0003f0 e0 79 a2 3b 53 49 19 bc 71 05 a9 bc 11 a0 f2 39
       0.0049583763 -0.009355861 -0.020632477 0.00046277096
