Superpixel_methods/SSN_cp/log/newmodels/model_finetune.pth (torch, 873395 bytes, 32 tensors)

scale1.0.0.weight f4 [64, 5, 3, 3]
0.7458167 1.3334334 0.63182056 1.6910225 2.4013429 1.4679941 0.643609 1.1395928
0.46388304 -0.10284102 -0.20421445 -0.121533096 -0.12974352 -0.23282826 -0.12017709 0.03434693
-0.052009862 0.023626393 0.37291223 0.5109477 0.42732 0.5268454 0.6711888 0.55488634
0.4635659 0.578493 0.46405357 0.025289759 0.026060198 0.026904212 0.023177447 0.025449127
0.026553104 0.016067035 0.018808438 0.019257855 -0.024564289 -0.026336448 -0.04309644 -0.013040471
-0.014448036 -0.028451916 -0.026102591 -0.026562268 -0.03886017 0.26888707 0.016048327 -0.3032278
0.24583633 -0.13295723 -0.4714367 0.0564912 -0.27593184 -0.49403563 2.6547167 3.1253333
2.7480314 3.079532 3.6977065 3.2412288 2.4644094 2.9525297 2.5915968 0.43180165
0.53560406 0.3640788 0.6856836 0.79159665 0.5802071 0.5223103 0.6042395 0.41727668
-0.034282077 -0.03305522 -0.0355113 -0.03412765 -0.035752457 -0.035165835 -0.036582716 -0.035308804
-0.036737368 0.046831314 0.043224927 0.044776604 0.036064122 0.03804174 0.035666842 0.040086444
0.040962584 0.043326136 0.57852477 1.0824828 0.41869196 1.461833 2.194475 1.2823703
0.49833286 1.029444 0.33004498 -0.17666365 -0.3071104 -0.1291601 -0.21608374 -0.3627693
-0.15405688 -0.04721623 -0.17736283 -0.017707042 -1.0041087 -1.0256159 -0.92359227 -1.0702349
-1.0680435 -0.9575078 -0.8994408 -0.897199 -0.7900308 0.042101454 0.03905676 0.02958653
0.04119278 0.03983123 0.029673275 0.031419422 0.024644181 0.014575722 -0.008133238 -0.007263658
-0.016850546 -0.0021502157 -0.0014992082 -0.010357794 0.002446394 0.0012465357 -0.0019515897 -0.84370387
-1.3578796 -0.7000062 -1.7433202 -2.4301658 -1.5401626 -0.9280467 -1.4522622 -0.7605247
-0.2623 -0.18249927 -0.26972023 -0.24002281 -0.1342886 -0.24107647 -0.3788229 -0.2919455
-0.35494703 0.5089178 0.49660695 0.50741065 0.4625847 0.44565055 0.45583117 0.40455598
0.39421305 0.40608034 -0.027945992 -0.025441881 -0.017647425 -0.024861738 -0.025264872 -0.018859128
-0.027288845 -0.02732361 -0.022007514 -0.009698215 -0.010236974 -0.016200183 -0.011146172 -0.010004891
-0.015904484 -0.01568548 -0.015224354 -0.021491278 0.41770387 0.7533847 0.51526874 0.593252
0.9992823 0.6880589 0.036244478 0.32849884 0.12031827 0.29052693 0.20889065 0.27668995
0.33492318 0.24164301 0.3157476 0.5360058 0.46903098 0.515463 -0.72970843 -0.690755
-0.59366876 -0.6834103 -0.64580184 -0.5651074 -0.5769235 -0.5301069 -0.4710147 -0.08623647
-0.17542201 -0.11542493 -0.08652658 -0.17084096 -0.1136655 -0.09386991 -0.18351926 -0.11353379
0.016204018 0.015664697 0.0005374149 -0.02423798 -0.02438796 -0.042251118 -0.028842503 -0.029548803
-0.047039125 -0.9392928 -1.4984574 -0.831492 -1.8033881 -2.5481484 -1.639725 -0.813802
-1.3685615 -0.69322914 0.14389563 0.27264807 0.19957376 0.17431004 0.33113086 0.23756915
0.030844491 0.14636399 0.0676928 0.3743933 0.3342065 0.3482465 0.27811044 0.23238462
0.26794684 0.23173553 0.19041683 0.21941999 -0.020733576 -0.036257952 -0.0405818 -0.018221188
00000000: d8ed 3e3f f2ad aa3f febe 213f 6d73 d83f
00000010: 9aaf 1940 3be7 bb3f 8fc3 243f 2dde 913f
00000020: 1482 ed3e 509e d2bd 981d 51be 58e6 f8bd
00000030: 7cdb 04be 886a 6ebe 681f f6bd 5eaf 0c3d
00000040: 4b08 55bd 238c c13c 5aee be3e 78cd 023f
00000050: b0c9 da3e 57df 063f 07d3 2b3f 080d 0e3f
00000060: 8258 ed3e 1e18 143f 6e98 ed3e 782c cf3c
00000070: 327c d53c 3966 dc3c a1de bd3c b07a d03c
00000080: e585 d93c 049f 833c 2714 9a3c a6c2 9d3c
00000090: 0c3b c9bc 89bf d7bc e585 30bd b3a7 55bc
000000a0: 75b7 6cbc fe13 e9bc 1ad5 d5bc 1d99 d9bc
000000b0: d72b 1fbd 91ab 893e c877 833c ad40 9bbe
000000c0: 85bc 7b3e f125 08be 2760 f1be 5163 673d
000000d0: f046 8dbe 3df2 fcbe e1e6 2940 7605 4840
000000e0: bfdf 2f40 0d17 4540 39a7 6c40 4b70 4f40
000000f0: e2b8 1d40 3ff6 3c40 b9dc 2540 1b15 dd3e
00000100: 591d 093f 8968 ba3e f688 2f3f 14a6 4a3f
00000110: 7488 143f 21b6 053f 71af 1a3f 4aa5 d53e
00000120: 5d6b 0cbd e964 07bd 4c74 11bd 6fc9 0bbd
00000130: 2b71 12bd 0d0a 10bd c2d7 15bd f79f 10bd
00000140: ec79 16bd 31d2 3f3d 9f0c 313d ac67 373d
00000150: f9b7 133d a8d1 1b3d 6517 123d af31 243d
00000160: 62c8 273d bf76 313d 331a 143f cc8e 8a3f
00000170: cb5e d63e 581d bb3f 4772 0c40 b624 a43f
00000180: 7c25 ff3e d2c4 833f a8fb a83e 51e7 34be
00000190: 933d 9dbe 8c42 04be 0e45 5dbe e6bc b9be
000001a0: 16c1 1dbe ce65 41bd 9a9e 35be 5c0e 91bc
000001b0: a286 80bf 6247 83bf 8b70 6cbf 75fd 88bf
000001c0: a6b5 88bf 3b1f 75bf c141 66bf d5ae 65bf
000001d0: 753f 4abf 9372 2c3d fbf9 1f3d 735f f23c
000001e0: c3b9 283d 1226 233d 5e15 f33c a7b1 003d
000001f0: 98e2 c93c 02cf 6e3c 4641 05bc fb03 eebb
00000200: 280a 8abc a2ea 0cbb 1481 c4ba bdb3 29bc
00000210: ae53 203b cc62 a33a 7ccc ffba fafc 57bf
00000220: 00cf adbf 9b33 33bf 1e25 dfbf d687 1bc0
00000230: 0c24 c5bf 7894 6dbf bae3 b9bf bfb1 42bf
00000240: 304c 86be 17e1 3abe c518 8abe 8ac8 75be
00000250: f382 09be c0dc 76be 13f5 c1be e179 95be
00000260: 9ebb b5be 7048 023f 4443 fe3e aae5 013f
00000270: e7d7 ec3e 4f2c e43e b462 e93e f621 cf3e
00000280: 4bd6 c93e c3e9 cf3e feee e4bc 7e6b d0bc
00000290: 5591 90bc d8aa cbbc 47f8 cebc 757e 9abc
000002a0: db8c dfbc c3d5 dfbc 1a49 b4bc 43e5 1ebc
000002b0: fbb8 27bc 3fb6 84bc 6f9e 36bc 8eeb 23bc
000002c0: 1f4a 82bc d67e 80bc 926f 79bc 7a0e b0bc
000002d0: 48dd d53e d2dd 403f a7e8 033f 5ddf 173f
000002e0: f7d0 7f3f a124 303f 1775 143d 0031 a83e
000002f0: 6d69 f63d f2bf 943e 6ee7 553e 4eaa 8d3e
00000300: 0d7b ab3e 4471 773e aba9 a13e ad37 093f
00000310: d424 f03e 62f5 033f 2cce 3abf 52d5 30bf
00000320: adfa 17bf faf3 2ebf 4553 25bf e1aa 10bf
00000330: 42b1 13bf 16b5 07bf d728 f1be bf9c b0bd
00000340: d4a1 33be e863 ecbd d934 b1bd eff0 2ebe
00000350: 75c9 e8bd de3e c0bd 79ec 3bbe 6784 e8bd
00000360: 4abe 843c 4053 803c 4ee1 0c3a ba8e c6bc
00000370: 42c9 c7bc 820f 2dbd 1d47 ecbc 5510 f2bc
00000380: 19ac 40bd 7e75 70bf 74cd bfbf a9dc 54bf
00000390: 6cd5 e6bf dd14 23c0 82e2 d1bf 5455 50bf
000003a0: 062d afbf 7777 31bf 6059 133e 8798 8b3e
000003b0: 105d 4c3e 557e 323e fc89 a93e 5445 733e
000003c0: 96ad fc3c 71e0 153e 86a2 8a3d 7bb0 bf3e
000003d0: 1d1d ab3e 5e4d b23e 7e64 8e3e 3cf6 6d3e
000003e0: 5430 893e 144c 6d3e a1fc 423e a2af 603e
000003f0: 76d9 a9bc 3883 14bd 1a39 26bd 9a44 95bc

scale1.0.1.weight f4 [64]
0.91875917 0.8711748 0.9583058 0.85986865 0.6132084 0.8973225 0.83075583 0.9982635
0.7694801 0.886566 0.8559297 0.71995467 0.9435356 0.6133474 0.68925416 0.5542582
0.8892813 0.843158 0.93964434 0.54730195 0.9816329 0.8530842 0.85548806 0.53707457
0.92314583 1.0126212 0.9121213 0.92081517 0.82923466 0.86039543 0.8998006 0.91046196
0.93840545 0.8290811 0.9435603 0.92771333 0.941264 1.0178642 0.87080574 0.9467824
0.9242725 0.77399105 0.84829414 0.9972951 0.7950384 0.9351561 0.9522887 0.7099763
0.58608305 0.8622451 0.5090319 0.945905 0.9244399 0.67859447 0.9690322 0.6668235
0.9403943 0.86392957 0.8190993 0.78317124 0.89200544 0.72543144 0.76229125 0.9198314
00000000: cd33 6b3f 5005 5f3f 8753 753f 5a20 5c3f
00000010: 3afb 1c3f edb6 653f 6aac 543f 328e 7f3f
00000020: a6fc 443f fdf5 623f 351e 5b3f f34e 383f
00000030: 8d8b 713f 5604 1d3f f672 303f dee3 0d3f
00000040: f0a7 633f 34d9 573f 888c 703f fb1b 0c3f
00000050: 4b4c 7b3f ba63 5a3f 4401 5b3f b87d 093f
00000060: 4953 6c3f 929d 813f c880 693f 8bba 6b3f
00000070: b948 543f e042 5c3f 5559 663f 0914 693f
00000080: 573b 703f a93e 543f 2b8d 713f 9f7e 6d3f
00000090: adf6 703f 6049 823f 20ed 5e3f 5560 723f
000000a0: 1f9d 6c3f 4724 463f ce29 593f bb4e 7f3f
000000b0: a387 4b3f 6466 6f3f 31c9 733f 02c1 353f
000000c0: 8a09 163f 18bc 5c3f ea4f 023f d526 723f
000000d0: 18a8 6c3f 5eb8 2d3f 7f12 783f f2b4 2a3f
000000e0: aebd 703f 7d2a 5d3f 7eb0 513f e97d 483f
000000f0: 785a 643f e0b5 393f 8525 433f 127a 6b3f

scale1.0.1.bias f4 [64]
-0.115749404 0.84281695 0.057669763 -0.08057933 -0.16960531 0.06883837 1.1182166 0.12303297
-0.10824164 0.034784455 0.0554139 -0.01246987 0.032765064 -0.05813804 0.013595937 -0.14720951
0.08224486 -0.01694628 0.24172565 -0.07368999 0.0726131 -0.018056132 0.025839565 -0.24474962
-0.007160678 -0.012320873 0.06416412 0.042644437 0.0008913298 -0.07378842 -0.039863233 0.04360319
0.049787894 -0.028203845 0.3890197 -0.041316718 0.0074415826 0.032826748 0.16403066 -0.006057929
-0.017506817 -0.08212213 -0.039222836 -0.025451606 -0.12867346 -0.03862043 -0.069026075 0.02682489
-0.17475149 0.16458666 -0.15583429 0.014905698 0.09188955 -0.003024821 0.073924966 -0.2021009
-0.0020109261 0.052494578 0.16288209 -0.049346615 1.5283265 0.0077686524 1.0065411 -0.10917432
00000000: 060e edbd dac2 573f 2137 6c3d c706 a5bd
00000010: 04ad 2dbe 22fb 8c3d b921 8f3f b6f8 fb3d
00000020: cbad ddbd 257a 0e3d b0f9 623d 6d4e 4cbc
00000030: a934 063d 2722 6ebd 7ec1 5e3c 17be 16be
00000040: fe6f a83d edd2 8abc ee86 773e c7ea 96bd
00000050: 2db6 943d 74ea 93bc 7fad d33c a59f 7abe
00000060: 1fa4 eabb 7ddd 49bc 7a68 833d efab 2e3d
00000070: 21a8 693a 621e 97bd a147 23bd 4299 323d
00000080: 64ee 4b3d c00b e7bc 972d c73e b83b 29bd
00000090: 85d8 f33b 5775 063d a7f7 273e 9781 c6bb
000000a0: 756a 8fbc a62f a8bd 20a8 20bd e37f d0bc
000000b0: fac2 03be 7530 1ebd 8b5d 8dbd dfbf db3c
000000c0: 0ef2 32be 6889 283e 0693 1fbe 0737 743c
000000d0: 9730 bc3d 133c 46bb f965 973d 8af3 4ebe
000000e0: bec9 03bb 8e04 573d 90ca 263e ad1f 4abd
000000f0: 34a0 c33f 2e90 fe3b 57d6 803f c996 dfbd

scale1.0.1.running_mean f4 [64]
142.55325 -20.846155 85.53377 -132.35489 18.097794 -145.94203 30.09597 101.89839
-138.81546 140.28973 -99.7811 41.21004 141.03273 -49.210526 -37.33679 -76.395615
-143.77426 145.95645 -160.13965 -59.263485 110.52092 -132.67482 -146.7388 86.812256
-114.27806 138.36333 -146.38307 -142.92084 -126.49835 -101.010704 -139.339 -170.44992
98.191124 -120.21011 -163.48817 -147.12057 113.79113 132.96906 -128.60939 -158.83952
137.49944 -83.44869 -127.96423 116.62038 123.71746 -136.63199 105.265 -18.607496
-106.05373 -1.7399842 77.64391 119.43131 -151.94925 113.23377 144.25758 52.07972
-158.8011 -76.88188 87.82547 -124.71026 -111.60705 -35.89457 -39.37248 118.77381
00000000: a28d 0e43 edc4 a6c1 4a11 ab42 da5a 04c3
00000010: 48c8 9041 29f1 11c3 8cc4 f041 facb cb42
00000020: c2d0 0ac3 2c4a 0c43 ec8f c7c2 15d7 2442
00000030: 6108 0d43 94d7 44c2 df58 15c2 8eca 98c2
00000040: 36c6 0fc3 daf4 1143 c023 20c3 cf0d 6dc2
00000050: b60a dd42 c1ac 04c3 22bd 12c3 e09f ad42
00000060: 5e8e e4c2 035d 0a43 1162 12c3 bceb 0ec3
00000070: 28ff fcc2 7b05 cac2 c956 0bc3 2e73 2ac3
00000080: db61 c442 946b f0c2 f97c 23c3 de1e 13c3
00000090: 0f95 e342 14f8 0443 019c 00c3 ebd6 1ec3
000000a0: db7f 0943 bbe5 a6c2 b0ed ffc2 a23d e942
000000b0: 576f f742 caa1 08c3 ae87 d242 27dc 94c1
000000c0: 821b d4c2 cdb7 debf af49 9b42 d5dc ee42
000000d0: 02f3 17c3 b177 e242 f141 1043 a251 5042
000000e0: 15cd 1ec3 86c3 99c2 a4a6 af42 a76b f9c2
000000f0: cf36 dfc2 0a94 0fc2 6b7d 1dc2 318c ed42

scale1.0.1.running_var f4 [64]
4283.2505 5652.7876 3246.8386 4325.383 1121.1248 4676.0513 6421.167 3910.3574
4052.605 4125.7554 3821.365 885.7706 4105.046 2372.3738 2653.5432 2299.1318
4291.3623 5373.3037 5391.9194 2863.3806 4082.7183 3888.5593 4621.9966 2097.3872
3763.4978 4479.6704 4314.2856 4453.593 4287.9355 3622.4963 4196.046 5901.947
3421.146 3738.7615 5881.113 4470.743 3953.4827 4165.5747 4061.8025 5101.973
4094.2288 3224.613 3706.348 3826.3506 3697.4587 4508.5684 3714.2595 186.49548
3518.8389 793.3085 1972.0208 3932.5425 4960.6533 3269.5164 4500.678 3657.246
5103.1836 3507.4968 4253.437 3684.405 8290.438 2959.3315 6670.477 3460.2576
00000000: 01da 8545 4da6 b045 6bed 4a45 102b 8745
00000010: fe23 8c44 6920 9245 56a9 c845 b865 7445
00000020: ae49 7d45 0bee 8045 d7d5 6e45 5271 5d44
00000030: 5e48 8045 fb45 1445 b1d8 2545 1cb2 0f45
00000040: e61a 8645 6eea a745 5b7f a845 17f6 3245
00000050: 7e2b 7f45 f308 7345 f96f 9045 3216 0345
00000060: f737 6b45 5dfd 8b45 49d2 8645 be2c 8b45
00000070: 7cff 8545 f167 6245 5e20 8345 936f b845
00000080: 56d2 5545 2fac 6945 e7c8 b745 f2b5 8b45
00000090: b917 7745 992c 8245 d7dc 7d45 c96f 9f45
000000a0: a9e3 7f45 cf89 4945 91a5 6745 9c25 6f45
000000b0: 5717 6745 8ce4 8c45 2724 6845 d87e 3a43
000000c0: 6ced 5b45 be53 4644 aa80 f644 aec8 7545
000000d0: 3a05 9b45 4358 4c45 6da5 8c45 f093 6445
000000e0: 7879 9f45 f337 5b45 7feb 8445 7b46 6645
000000f0: c189 0146 4ef5 3845 d173 d045 1f44 5845

scale1.1.0.weight f4 [64, 64, 3, 3]
-0.092120394 -0.12689693 -0.062186275 -0.12340587 -0.16266087 -0.0817391 -0.024280299 -0.055098906
0.009064065 0.021658342 -0.020356664 0.0190884 -0.004297485 -0.06418268 -0.022509044 0.071572
0.025972463 0.06529609 0.004227867 -0.024028104 0.012068103 -0.0033208448 -0.055743948 -0.01319586
0.037028994 -0.009814962 0.012786346 -0.039988466 -0.0127954725 -0.050325118 -0.030326556 0.013837105
-0.03021868 -0.030303257 -0.001519237 -0.027532395 0.045690563 0.03516319 0.043465912 0.043213613
0.027907943 0.041620445 0.05664604 0.033961125 0.048063636 0.0058555254 0.030181486 -0.01253861
0.034500044 0.079079695 0.023081284 -0.014024155 0.011967832 -0.01901801 -0.054363683 -0.1131059
-0.089919195 -0.093827724 -0.1376197 -0.11174187 -0.10582911 -0.14098053 -0.088770114 0.012086242
-0.024979975 0.0032902982 -0.00404114 -0.062975846 -0.031001141 0.054460973 -0.006166583 0.016372288
0.028127356 0.0348912 -0.012025565 0.054005183 0.08057252 0.023155553 0.033884536 0.050717093
0.011951062 -0.0790966 -0.09581768 -0.050910138 -0.079351336 -0.10909689 -0.050973944 -0.022458844
-0.040664636 0.0029510583 -0.029988933 0.0057667694 -0.040520545 -0.030140018 0.026102582 -0.025813142
-0.039945364 0.0064171413 -0.018290436 0.021369493 0.018736389 0.037263855 0.013657593 0.006782794
0.03485936 0.02520962 0.010075904 0.0305817 -0.024874078 -0.04589025 -0.0039721527 -0.035701446
-0.0699422 -0.023224153 0.040804867 0.0109185735 0.03866376 0.06469322 0.016732793 -0.0020555968
0.056030747 0.002811957 -0.016752798 0.03898009 -0.0056984397 -0.012531917 0.059238154 0.045126196
0.052532 0.027344484 0.007917872 0.010673318 0.041711595 0.020796467 0.034687668 0.02574878
0.013680706 -0.0027422495 0.013938605 -0.007616906 -0.019681761 0.02103369 0.003335141 -0.0005022603
0.040693756 0.07464266 0.0051659313 0.09416471 0.14988536 0.063105434 0.022001315 0.06818499
0.0047527193 -0.029695148 -0.07073184 0.013261666 -0.059749 -0.11339628 -0.017374633 0.035467643
-0.00673119 0.06708701 0.0067900033 0.04077645 -0.022692688 0.056729514 0.11212615 0.029420005
-0.019837096 0.013152081 -0.039383773 0.034840655 0.03236927 -0.0028121145 0.043291375 0.04440185
0.011122724 0.015879925 0.015744003 -0.012157019 0.031967193 -0.0104739405 0.042343367 0.005437181
-0.06160679 0.0035376488 0.07352108 0.008533149 0.058274776 -0.021253046 -0.0012330696 -0.06816211
0.025292924 0.061344583 -0.012484633 -0.03147146 -0.0010474363 -0.05988884 0.017830802 0.055861916
0.010046498 0.050349556 0.1084014 0.054715477 -0.011782797 0.031853653 -0.0048323837 -0.01763395
-0.019954396 0.014071084 -0.04628232 -0.04556589 -0.0046914956 -0.01883883 -0.020666277 0.015946489
0.007654727 0.030198226 -0.00229238 0.032744758 0.080062956 0.03634155 0.0019077784 0.03319893
0.009623483 -0.023580603 -0.0520874 -0.0018635642 -0.039459784 -0.09335783 -0.028420938 0.03267086
-0.019912317 0.025523072 0.010624957 0.020844676 -0.036849786 0.035762265 0.07019674 -0.0006343976
-0.021447612 0.008729004 -0.046132024 -0.0110943215 0.034299333 -0.028760698 0.028981779 0.10090541
0.026551686 -0.0033382012 0.0587735 0.0026066597 0.018535916 0.006833583 -0.036622852 0.01702096
00000000: 9ea9 bcbd 45f1 01be 09b7 7ebd 37bc fcbd
00000010: 9290 26be d466 a7bd 7ae7 c6bc 64af 61bd
00000020: 7281 143c d66c b13c 05c3 a6bc 475f 9c3c
00000030: ebd1 8cbb 3572 83bd e364 b8bc 5794 923d
00000040: 34c4 d43c f5b9 853d eb89 8a3b 96d6 c4bc
00000050: 4bb9 453c 88a2 59bb c453 64bd 7333 58bc
00000060: b7ab 173d efce 20bc d27d 513c f2ca 23bd
00000070: 1aa4 51bc b621 4ebd 666f f8bc 06b5 623c
00000080: 2a8d f7bc 893e f8bc 2221 c7ba 9e8b e1bc
00000090: 0726 3b3d 4707 103d 5009 323d c200 313d
000000a0: 339f e43c 337a 2a3d ae05 683d d21a 0b3d
000000b0: 60de 443d b5df bf3b 2a3f f73c be6e 4dbc
000000c0: eb4f 0d3d 89f4 a13d f614 bd3c 92c5 65bc
000000d0: ba14 443c a8cb 9bbc 74ac 5ebd 11a4 e7bd
000000e0: 8e27 b8bd c028 c0bd 2eec 0cbe ecd8 e4bd
000000f0: efbc d8bd 335d 10be 1bcd b5bd 6005 463c
00000100: cea2 ccbc 0ba2 573b 8a6b 84bb 7bf9 80bd
00000110: 1bf6 fdbc 7812 5f3d 0c11 cabb 2d1f 863c
00000120: 576b e63c 13ea 0e3d e006 45bc 8a34 5d3d
00000130: 3503 a53d b7b0 bd3c 83ca 0a3d babc 4f3d
00000140: 63ce 433c 66fd a1bd 0f3c c4bd 2687 50bd
00000150: f482 a2bd 316e dfbd 0eca 50bd 9cfb b7bc
00000160: f68f 26bd 8b66 413b 5aab f5bc 2bf7 bc3b
00000170: dff8 25bd 33e8 f6bc 15d5 d53c 1576 d3bc
00000180: c09d 23bd e246 d23b d3d5 95bc 130f af3c
00000190: 0e7d 993c fca1 183d 19c4 5f3c 3342 de3b
000001a0: b0c8 0e3d 6884 ce3c 6815 253c 7986 fa3c
000001b0: b9c4 cbbc 6af7 3bbd d528 82bb ae3b 12bd
000001c0: db3d 8fbd 9440 bebc 0123 273d d1e3 323c
000001d0: e45d 1e3d e17d 843d 3613 893c 31b7 06bb
000001e0: 7f80 653d cf48 383b 2a3d 89bc 96a9 1f3d
000001f0: fab9 babb ab52 4dbc b5a3 723d 3fd6 383d
00000200: cb2b 573d 8a01 e03c f6b9 013c 24df 2e3c
00000210: c7d9 2a3d 5a5d aa3c a814 0e3d 1bef d23c
00000220: 0a25 603c 50b7 33bb bf5e 643c 3d97 f9bb
00000230: a53b a1bc d84e ac3c 6292 5a3b 1eaa 03ba
00000240: 7fae 263d 40de 983d f946 a93b 6dd9 c03d
00000250: 8c7b 193e 6c3d 813d 1a3c b43c 92a4 8b3d
00000260: b3bc 9b3b 3d43 f3bc dbdb 90bd 7547 593c
00000270: 5ebb 74bd 4f3c e8bd 3f55 8ebc 8546 113d
00000280: 5091 dcbb ea64 893d ad7e de3b 3505 273d
00000290: 04e6 b9bc 355d 683d 65a2 e53d 3902 f13c
000002a0: 6881 a2bc d37b 573c e150 21bd 13b5 0e3d
000002b0: a495 043d 744b 38bb 4c52 313d b7de 353d
000002c0: 163c 363c 9e16 823c 91f9 803c 3c2e 47bc
000002d0: 08f0 023d e49a 2bbc 3d70 2d3d 612a b23b
000002e0: 6757 7cbd e6d7 673b 3892 963d 9fce 0b3c
000002f0: 88b1 6e3d de1a aebc f39e a1ba 9498 8bbd
00000300: 1b33 cf3c 7544 7b3d 598c 4cbc 38e8 00bd
00000310: 214a 89ba 004e 75bd e711 923c 77cf 643d
00000320: 119a 243c 563b 4e3d 8e01 de3d 561d 603d
00000330: a20c 41bc fa78 023d f958 9ebb 1375 90bc
00000340: 6777 a3bc 678a 663c 8892 3dbd 4ca3 3abd
00000350: 1ebb 99bb e453 9abc 534c a9bc 36a2 823c
00000360: 81d4 fa3b 4562 f73c c13b 16bb 5e1f 063d
00000370: 0cf8 a33d e1da 143d 6c0e fa3a 9afb 073d
00000380: d0ab 1d3c 1c2c c1bc 9959 55bd d742 f4ba
00000390: 95a0 21bd 6432 bfbd 07d3 e8bc e1d1 053d
000003a0: 281f a3bc c315 d13c 4d14 2e3c 74c2 aa3c
000003b0: cdef 16bd 747b 123d 4fc3 8f3d b44d 26ba
000003c0: e7b2 afbc 1904 0f3c eff4 3cbd f5c4 35bc
000003d0: 757d 0c3d 8e9b ebbc 326b ed3c 7fa7 ce3d
000003e0: ec82 d93c b9c5 5abb 7bbc 703d 7ed4 2a3b
000003f0: a2d8 973c 40ec df3b d801 16bd 8a6f 8b3c

scale1.1.1.weight f4 [64]
0.6471119 0.750806 0.76882887 0.74677163 0.7425677 0.562234 0.6103916 0.69876736
0.7813757 0.5813256 0.7830153 0.7346707 0.6106849 0.7889794 0.51309085 0.59706277
0.6108862 0.6216188 0.73274463 0.5987207 0.71611905 0.60695815 0.6079838 0.6566934
0.57651484 0.58062655 0.58583486 0.5968946 0.6330768 0.6226319 0.5586485 0.6053731
0.56969166 0.56360155 0.66668767 0.6397876 0.49682346 0.594882 0.62991995 0.6838853
0.61296284 0.47269917 0.90857935 0.8405396 0.7921209 0.60307926 0.56835127 0.69997746
0.46866667 0.7079801 0.3716143 0.4191084 0.61286163 0.5466704 0.4962737 0.48712304
0.66833764 0.49542636 0.65657884 0.42722437 0.71480626 0.60869694 0.5670251 0.7268275
00000000: 20a9 253f d234 403f f8d1 443f 6d2c 3f3f
00000010: eb18 3e3f 91ee 0f3f a042 1c3f 6be2 323f
00000020: 3d08 483f c1d1 143f b173 483f 6113 3c3f
00000030: d855 1c3f 8efa 493f ec59 033f 1bd9 183f
00000040: 0a63 1c3f 6922 1f3f 2795 3b3f c345 193f
00000050: 9453 373f 9c61 1b3f d4a4 1b3f 0f1d 283f
00000060: 7a96 133f f1a3 143f 46f9 153f 16ce 183f
00000070: 5211 223f ce64 1f3f 9703 0f3f bbf9 1a3f
00000080: 50d7 113f 3148 103f 0bac 2a3f 1fc9 233f
00000090: a55f fe3e 304a 183f 6f42 213f 1b13 2f3f
000000a0: 22eb 1c3f a005 f23e a898 683f 9a2d 573f
000000b0: 6fc8 4a3f 6763 1a3f 787f 113f b931 333f
000000c0: 14f5 ef3e 2f3e 353f 3b44 be3e 6095 d63e
000000d0: 80e4 1c3f 97f2 0b3f 9617 fe3e 3168 f93e
000000e0: 2d18 2b3f 86a8 fd3e 8d15 283f 27bd da3e
000000f0: 8bfd 363f 90d3 1b3f 8f28 113f 5e11 3a3f

scale1.1.1.bias f4 [64]
0.8346178 0.1900689 0.33590987 0.8067266 -0.031461433 -0.12285479 0.40314782 0.31029072
0.76241904 -0.47722843 0.31161657 0.29469073 -0.3733877 0.9234302 -0.007952763 -0.14235163
-0.36740875 -0.11685457 0.44330397 -0.45568419 0.7362765 0.34414342 0.2825118 0.5901484
-0.47920313 0.04295625 0.6319801 -0.2421045 0.16794623 0.16834952 0.412944 0.52377135
0.07105533 -0.24986501 0.67443186 -0.061478544 0.022058215 0.32039735 0.07338965 0.58595616
0.09900438 -0.038152136 0.8453298 0.50321585 -0.06651002 0.7726685 0.41267893 0.5783176
-0.34682667 0.053356957 -0.21804085 -0.121503554 -0.026432749 0.5528411 0.16053815 0.26945364
-0.10920419 0.5743142 0.36926877 -0.43174866 -0.2887951 0.11193881 -0.11764207 0.29540855
00000000: 83a9 553f 6ca1 423e 61fc ab3e a285 4e3f
00000010: b4dd 00bd 4b9b fbbd 6469 ce3e 6dde 9e3e
00000020: e52d 433f 4957 f4be 358c 9f3e b4e1 963e
00000030: ac2c bfbe ec65 6c3f 4e4c 02bc a0c4 11be
00000040: 001d bcbe 7351 efbd bdf8 e23e 704f e9be
00000050: 9e7c 3c3f 9133 b03e 63a5 903e f713 173f
00000060: 1d5a f5be e5f2 2f3d 73c9 213f 3eea 77be
00000070: 19fa 2b3e d163 2c3e 656d d33e e115 063f
00000080: 7585 913d 9ddc 7fbe 91a7 2c3f edd0 7bbd
00000090: 6eb3 b43c 1f0b a43e 504d 963d 3901 163f
000000a0: cfc2 ca3d 6a45 1cbd 8967 583f c1d2 003f
000000b0: 6836 88bd 9acd 453f a74a d33e 9f0c 143f
000000c0: 4493 b1be d38c 5a3d 1a46 5fbe dbd6 f8bd
000000d0: 7e89 d8bc ff86 0d3f 1d64 243e d4f5 893e
000000e0: 72a6 dfbd 4106 133f cc10 bd3e 290e ddbe
000000f0: f4dc 93be 2d40 e53d 53ee f0bd ca3f 973e

scale1.1.1.running_mean f4 [64]
3.64401 3.3056915 0.027006807 -0.28918225 3.3185878 5.9642735 -0.14173792 -1.575974
0.7799522 1.719688 1.6746559 -0.628161 6.8213515 -0.645306 -4.024782 -0.25146118
8.135715 4.643826 1.6521109 6.616036 -1.1016409 -1.2571821 0.98534775 -1.8424693
6.459991 -3.6805038 -2.9917862 -5.388774 4.425633 1.018914 0.32258177 5.2764597
-4.8291903 7.181484 0.2266686 7.6048145 -1.7850362 -3.456351 1.6113318 4.646736
4.833674 1.1447265 -2.9615698 2.948857 -1.318295 -4.3901052 -1.6207652 -1.4356854
-4.776311 -1.2794545 -5.693496 8.024897 5.375411 4.5533223 3.0103648 1.1789575
3.8874846 2.5956333 -0.5922091 -4.894392 -0.72168064 2.020773 -6.4354873 4.5981374
00000000: 7637 6940 7390 5340 613d dd3c b20f 94be
00000010: be63 5440 54db be40 bf23 11be 84b9 c9bf
00000020: f3aa 473f bd1e dc3f 205b d63f 29cf 20bf
00000030: 8348 da40 c632 25bf 04cb 80c0 85bf 80be
00000040: e32b 0241 399a 9440 5f78 d33f 91b6 d340
00000050: 9202 8dbf 58eb a0bf c03f 7c3f 09d6 ebbf
00000060: 3fb8 ce40 608d 6bc0 6d79 3fc0 d670 acc0
00000070: c99e 8d40 c66b 823f 7029 a53e c2d8 a840
00000080: ba88 9ac0 b8ce e540 d01b 683e a45a f340
00000090: 117c e4bf db34 5dc0 1f40 ce3f 10b2 9440
000000a0: 75ad 9a40 6686 923f 5c8a 3dc0 13ba 3c40
000000b0: e4bd a8bf be7b 8cc0 3c75 cfbf 8ac4 b7bf
000000c0: 8ad7 98c0 2ac5 a3bf 1f31 b6c0 fa65 0041
000000d0: 5e03 ac40 d1b4 9140 d1a9 4040 14e8 963f
000000e0: 8ccc 7840 db1e 2640 049b 17bf dc9e 9cc0
000000f0: 10c0 38bf 5854 0140 83ef cdc0 f123 9340

scale1.1.1.running_var f4 [64]
32.23899 19.868366 45.314545 37.87665 50.609447 31.300783 4.9695888 56.342445
27.220703 137.3593 49.04797 15.982811 74.96972 20.12537 20.71122 38.234997
114.35331 32.49648 25.790684 81.853325 1.713211 30.197327 33.643017 30.690563
86.82588 99.45925 35.910698 138.50897 38.714485 22.500708 19.507591 42.816643
31.209194 58.360497 40.21365 55.10495 18.065008 39.374096 49.607597 38.6811
75.41313 16.162228 15.398886 35.563454 57.238544 24.025078 20.755396 4.4788566
65.10406 53.414455 15.66176 50.66617 24.200405 38.027298 66.36336 13.42516
76.979805 54.888092 28.155811 127.86966 75.31705 64.67676 7.3544497 27.732737
00000000: baf4 0042 6af2 9e41 1842 3542 b181 1742
00000010: 1370 4a42 0168 fa41 df06 9f40 aa5e 6142
00000020: 00c4 d941 fb5b 0943 1f31 4442 98b9 7f41
00000030: 7ff0 9542 c200 a141 94b0 a541 a3f0 1842
00000040: e5b4 e442 65fc 0142 5253 ce41 e7b4 a342
00000050: 804a db3f 2094 f141 7392 0642 4686 f541
00000060: daa6 ad42 23eb c642 8ea4 0f42 4c82 0a43
00000070: a2db 1a42 7301 b441 8c0f 9c41 3e44 2b42
00000080: 6eac f941 2671 6942 c7da 2042 786b 5c42
00000090: 2385 9041 137f 1d42 2e6e 4642 72b9 1a42
000000a0: 86d3 9642 3e4c 8141 d661 7641 fa40 0e42
000000b0: 45f4 6442 5c33 c041 0d0b a641 cb52 8f40
000000c0: 4735 8242 67a8 5542 9296 7a41 28aa 4a42
000000d0: 6e9a c141 f41b 1842 0aba 8442 75cd 5641
000000e0: a9f5 9942 688d 5b42 1a3f e141 44bd ff42
000000f0: 54a2 9642 805a 8142 a757 eb40 a5dc dd41

scale2.1.0.weight f4 [64, 64, 3, 3]
-0.05189661 -0.10802525 -0.0902162 -0.050056513 -0.115682796 -0.13759845 0.010771907 -0.014392259
-0.02405305 0.0767 0.03151085 0.023760201 -8.683431e-05 -0.06728384 0.004775604 -0.018742306
-0.07780522 0.0072476296 -0.05209338 -0.10499087 -0.07683438 -0.037579197 -0.10861385 -0.09320902
0.06460735 0.03205893 0.054841854 0.04151514 -0.021057628 0.017761718 -0.10777578 -0.20389022
-0.07794977 -0.10508774 -0.17320988 -0.059146926 0.045681685 0.0009366673 0.00833646 -0.047077086
-0.09844452 -0.021980066 -0.051266976 -0.08065286 -0.010343354 -0.046219636 -0.073075145 -0.087258086
-0.019874413 -0.04112714 -0.07768587 0.036952384 0.049826555 0.03633754 -0.042163726 -0.085952856
-0.019226855 0.031514607 -0.03228319 -0.025648814 0.1146734 0.09772924 0.07139482 0.065011114
0.026265394 0.05432535 -0.0687612 -0.13451858 -0.028655602 -0.05570829 -0.10960548 -0.011533077
-0.051177885 -0.12470134 -0.09735421 -0.091145016 -0.18069 -0.15405816 -0.0068921004 -0.061820436
-0.029609488 -0.083797075 -0.13343322 -0.15327476 0.022523373 -0.008745115 -0.07903271 0.105726846
0.11180132 0.055769335 0.103149116 0.053633627 0.05553126 -0.04039623 -0.124137916 -0.03911587
-0.065296136 -0.13145374 -0.056180052 0.029142974 -0.023028206 -0.0012071679 -0.07679525 -0.1651634
-0.07700614 -0.09617513 -0.15094694 -0.056857705 -0.0499807 -0.08351697 -0.10963049 0.016225887
-0.0068361694 -0.069698855 0.088627346 0.103358276 0.059952486 0.07186337 0.022210164 0.036568083
-0.07908093 -0.15394 -0.0022211892 -0.08464857 -0.123138614 -0.029698726 0.060265925 0.043141637
0.05425373 -0.059646595 -0.091354325 -0.004228638 -0.06964577 -0.09363693 -0.018609649 0.03969563
0.0054682433 0.042785816 -0.02580624 -0.074838445 0.004033118 -0.013969135 -0.054649577 0.017422311
-0.0688517 -0.09121663 -0.10267299 0.0074369656 -0.007733414 -0.05652947 0.069215454 0.08706669
0.05095389 0.009300307 0.030678233 0.0314145 -0.052653372 -0.03679161 -0.006099496 -0.07742474
-0.055111617 -0.01999069 0.093569845 0.036760043 0.056015685 -0.023235716 -0.11183602 -0.0023626823
-0.022551095 -0.09117598 0.00970052 -0.051183715 -0.07650846 -0.08321262 0.02982267 0.015391537
-0.043021653 0.09219863 0.10880828 0.07083531 -0.021114485 -0.096295774 -0.0817437 -0.048083633
-0.11645218 -0.09617086 0.014781739 0.022698497 0.03993743 -0.032137442 -0.07162602 -0.051323075
-0.008611386 -0.0564886 -0.05701938 0.07350201 0.06425757 0.063706934 -0.048729543 -0.08028557
-0.066356406 -0.05286091 -0.09310161 -0.08277777 -0.0021409728 0.00029459168 0.020786025 0.009616249
-0.031912442 -0.008263479 -0.07264559 -0.13780123 -0.10473727 -0.0435733 -0.061311487 -0.0179692
-0.060051143 -0.09200773 -0.11042676 0.01004399 -0.0057997922 -0.062295724 0.08729982 0.107818425
0.06354637 0.0061535826 0.021586811 0.032495607 -0.08682657 -0.087342724 -0.027810488 -0.10920627
-0.10693502 -0.05051368 -0.052458577 -0.083031625 -0.057284962 -0.022576088 -0.04998816 -0.05577114
0.030428847 0.046140976 0.044899825 0.089787215 0.09714715 0.0860475 0.024441669 0.0021322896
0.035708923 -0.028911697 -0.04941738 -0.009428411 -0.06695784 -0.1278574 -0.12470877 -0.042865176
00000000: 8a91 54bd 583c ddbd 45c3 b8bd 0f08 4dbd
00000010: 1aeb ecbd 9ce6 0cbe a77c 303c 82cd 6bbc
00000020: e70a c5bc e414 9d3d 8511 013d c1a4 c23c
00000030: d11a b6b8 1ccc 89bd ab7c 9c3b 7789 99bc
00000040: 5858 9fbd 867d ed3b de5f 55bd 7405 d7bd
00000050: 585b 9dbd a5ec 19bd f070 debd 5fe4 bebd
00000060: dc50 843d 3950 033d daa1 603d c80b 2a3d
00000070: 0c81 acbc 0681 913c 8cb9 dcbd 99c8 50be
00000080: 21a4 9fbd 3e38 d7bd ee5d 31be 0c44 72bd
00000090: b81c 3b3d ae8a 753a a695 083c e7d3 40bd
000000a0: 489d c9bd 8a0f b4bc 52fd 51bd 542d a5bd
000000b0: 2c77 29bc cd50 3dbd 6ca8 95bd 5eb4 b2bd
000000c0: aacf a2bc ef74 28bd c519 9fbd 625b 173d
000000d0: ee16 4c3d acd6 143d dfb3 2cbd 0d08 b0bd
000000e0: a381 9dbc 7615 013d 613b 04bd 761d d2bc
000000f0: e3d9 ea3d 4526 c83d 7337 923d 8c24 853d
00000100: 862a d73c 4284 5e3d acd2 8cbd 3dbf 09be
00000110: 27bf eabc 602e 64bd d778 e0bd 3bf5 3cbc
00000120: e79f 51bd 6b63 ffbd a561 c7bd 3daa babd
00000130: cd06 39be 6cc1 1dbe 21d7 e1bb 6d37 7dbd
00000140: 998f f2bc cd9d abbd b8a2 08be 0ff4 1cbe
00000150: f082 b83c ac47 0fbc e7db a1bd 5187 d83d
00000160: 17f8 e43d 636e 643d d83f d33d efae 5b3d
00000170: bf74 633d 8476 25bd 053c febd f637 20bd
00000180: fbb9 85bd cf9b 06be 0e1d 66bd 3fbd ee3c
00000190: a6a5 bcbc d539 9eba d446 9dbd 9820 29be
000001a0: 65b5 9dbd 77f7 c4bd d691 1abe a0e3 68bd
000001b0: 90b8 4cbd f20a abbd f385 e0bd 27ec 843c
000001c0: f201 e0bb 46be 8ebd 4182 b53d 81ad d33d
000001d0: bd90 753d 1a2d 933d 17f2 b53c 6ac8 153d
000001e0: 2ff5 a1bd 73a2 1dbe 5f91 11bb 3b5c adbd
000001f0: 1930 fcbd be4a f3bc 67d9 763d 49b5 303d
00000200: 2939 5e3d fd4f 74bd fa17 bbbd 6390 8abb
00000210: 71a2 8ebd b8c4 bfbd 4373 98bc e397 223d
00000220: f32e b33b 2e40 2f3d 9c67 d3bc e644 99bd
00000230: 3f28 843b ccde 64bc 3cd8 5fbd 3cb9 8e3c
00000240: 1f02 8dbd c9cf babd 3746 d2bd cab1 f33b
00000250: 9468 fdbb 728b 67bd d5c0 8d3d 0550 b23d
00000260: 07b5 503d 5160 183c eb50 fb3c 7eac 003d
00000270: 10ab 57bd cdb2 16bd 48de c7bb dd90 9ebd
00000280: b8bc 61bd 84c3 a3bc 8ca1 bf3d b391 163d
00000290: b470 653d d458 bebc 490a e5bd 3bd7 1abb
000002a0: 13bd b8bc 79ba babd eeee 1e3c 04a6 51bd
000002b0: 78b0 9cbd 616b aabd ac4e f43c c92c 7c3c
000002c0: 7937 30bd a3d2 bc3d e0d6 de3d 1a12 913d
000002d0: 49f8 acbc b836 c5bd 3e69 a7bd 58f3 44bd
000002e0: 7b7e eebd 3af5 c4bd 1b2f 723c 33f2 b93c
000002f0: 6e95 233d 8da2 03bd aab0 92bd 2538 52bd
00000300: c516 0dbc 9760 67bd 278d 69bd 3988 963d
00000310: 7999 833d c878 823d a198 47bd c36c a4bd
00000320: dee5 87bd ae84 58bd 0fac bebd 6487 a9bd
00000330: 904f 0cbb 6d73 9a39 7447 aa3c 798d 1d3c
00000340: 9fb6 02bd 8b63 07bc 36c7 94bd c41b 0dbe
00000350: 7e80 d6bd eb79 32bd c121 7bbd 2534 93bc
00000360: 30f8 75bd 8c6e bcbd 6d27 e2bd 8c8f 243c
00000370: 2f0c bebb cd29 7fbd 3fca b23d e8cf dc3d
00000380: 9924 823d fea3 c93b d3d6 b03c 1d1a 053d
00000390: 21d2 b1bd bee0 b2bd d2d2 e3bc 89a7 dfbd
000003a0: bf00 dbbd 6fe7 4ebd cede 56bd 7c0c aabd
000003b0: a3a3 6abd 7df1 b8bc 63c0 4cbd 4770 64bd
000003c0: eb45 f93c 52fe 3c3d e1e8 373d 5ce2 b73d
000003d0: 16f5 c63d ac39 b03d e539 c83c e2bd 0b3b
000003e0: 8543 123d 39d8 ecbc e169 4abd 9f79 1abc
000003f0: 3121 89bd 0ded 02be 5067 ffbd 6593 2fbd

scale2.1.1.weight f4 [64]
1.047997 0.8808585 0.6494332 0.7451084 1.4274266 0.7779119 1.0357265 0.6675717
0.7573996 1.1390094 0.6436965 1.5312992 0.79344606 0.66298425 0.7065793 0.76885676
1.0139306 0.42877665 0.9636272 1.2271271 1.2187673 1.6645712 1.0319254 0.6618258
1.069399 0.9038112 1.0938321 0.75494546 0.59272826 1.3223494 0.5949625 0.64402646
0.771656 0.87597644 0.9876689 0.5530953 1.0908415 0.631891 0.5994264 1.1164376
0.7292745 1.1129305 0.6181527 0.58067393 1.023975 0.77570206 0.9729098 1.2535577
0.70655906 0.5886757 1.2296486 0.75950426 1.0392154 0.6992485 0.57446027 0.6862178
0.67505795 0.6292935 0.8266851 1.0951672 1.4083016 0.8845253 0.78040516 0.65120536
00000000: c424 863f f17f 613f 4141 263f 6dbf 3e3f
00000010: eab5 b63f 3c25 473f b092 843f fbe5 2a3f
00000020: f1e4 413f 0fcb 913f 4bc9 243f 9d01 c43f
00000030: 481f 4b3f 56b9 293f 62e2 343f ccd3 443f
00000040: 7ac8 813f 9d88 db3e 46b0 763f 8012 9d3f
00000050: 9100 9c3f ab10 d53f 2216 843f 6a6d 293f
00000060: 11e2 883f 2c60 673f b102 8c3f 1b44 413f
00000070: 0abd 173f bf42 a93f 764f 183f ebde 243f
00000080: 3f8b 453f fe3f 603f ded7 7c3f a797 0d3f
00000090: b2a0 8b3f 9cc3 213f 0274 193f 6de7 8e3f
000000a0: bcb1 3a3f 8274 8e3f 413f 1e3f 0ca7 143f
000000b0: 9d11 833f 6994 463f 9e10 793f 9474 a03f
000000c0: 0ee1 343f 73b3 163f 2065 9d3f df6e 423f
000000d0: 0305 853f f301 333f d40f 133f f8ab 2f3f
000000e0: 99d0 2c3f 6119 213f a2a1 533f 702e 8c3f
000000f0: 3a43 b43f 4070 623f a2c8 473f 65b5 263f

scale2.1.1.bias f4 [64]
0.30029592 0.24296296 -0.2851341 -0.08034325 0.30302644 -0.21070537 0.50496006 -0.18807587
-0.017404526 0.31523484 -0.16152142 0.92736155 0.026602278 -0.2614722 -0.043634675 -0.115537874
0.51295865 -0.43166408 0.5875194 0.43506354 0.52519745 0.85686135 0.15548992 -0.29617813
0.20249088 0.2733216 0.3802408 0.041522104 -0.2689793 0.4128165 -0.3077061 -0.18898413
-0.34112272 -0.017838346 0.24355677 -0.3368899 -0.038580567 -0.32969618 -0.4515966 0.23145038
-0.24045789 -0.06027075 -0.23579973 -0.3777544 -0.09251106 -0.10954563 0.1535894 0.6218716
-0.351054 -0.2897722 0.651732 -0.15302904 0.34641275 -0.23907028 -0.5578603 -0.22992957
-0.26343602 -0.28858393 -0.37279716 0.5339436 0.51879764 0.10364221 -0.17798446 -0.35908827
00000000: 63c0 993e 48cb 783e 19fd 91be 008b a4bd
00000010: 4826 9b3e 26c3 57be 1045 013f f696 40be
00000020: f093 8ebc 7666 a13e df65 25be 9167 6d3f
00000030: 05ed d93c afdf 85be 46ba 32bd 1f9f ecbd
00000040: 4251 033f 1303 ddbe ac67 163f a6c0 de3e
00000050: 5773 063f 445b 5b3f c038 1f3e a9a4 97be
00000060: c559 4f3e cff0 8b3e ecae c23e 1513 2a3d
00000070: a8b7 89be af5c d33e a78b 9dbe 0e85 41be
00000080: a3a7 aebe b921 92bc f266 793e d57c acbe
00000090: a806 1ebd f0cd a8be ab37 e7be 5401 6d3e
000000a0: 983a 76be 76de 76bd 7c75 71be 0669 c1be
000000b0: 7076 bdbd 7659 e0bd 8a46 1d3e fa32 1f3f
000000c0: 5abd b3be 065d 94be e9d7 263f a5b3 1cbe
000000d0: 035d b13e d7ce 74be efcf 0ebf a872 6bbe
000000e0: 16e1 86be 46c1 93be 45df bebe 87b0 083f
000000f0: eccf 043f 5e42 d43d 8f41 36be 6bda b7be

scale2.1.1.running_mean f4 [64]
-8.336968 2.1823936 7.599809 1.1639426 -6.8086085 -6.4098115 -1.1561533 -5.574263
-4.0884585 -5.485749 0.8022275 -2.8856955 0.29351512 -8.073868 -2.318306 -1.0698301
-0.32001656 5.48855 0.7248547 0.9522474 -2.5774071 -0.7741655 -6.1302567 -10.613033
-7.327421 -0.33280775 -0.107432656 -1.6344806 -5.009184 -4.123351 -2.8438098 2.033064
0.17189626 5.5939107 -7.317663 -6.760496 -7.06185 1.9966629 -0.7987097 1.2342385
-8.405462 -7.2696543 6.8398733 6.6823754 -12.462355 -5.9895735 -4.620975 1.0946374
3.1833434 -2.921441 -4.6432276 -3.827611 -0.20783676 12.306426 0.3249513 -0.45341718
1.5319905 -11.157136 -7.2046456 0.8780603 -6.8756914 -3.0334885 -2.5583708 6.1906624
00000000: 3964 05c1 56ac 0b40 a331 f340 12fc 943f
00000010: 1fe0 d9c0 2d1d cdc0 d5fc 93bf 5d60 b2c0
00000020: a7d4 82c0 418b afc0 c85e 4d3f 3caf 38c0
00000030: 9d47 963e 902e 01c1 205f 14c0 31f0 88bf
00000040: 36d9 a3be 34a2 af40 1490 393f 7cc6 733f
00000050: 3df4 24c0 b62f 46bf 102b c4c0 fcce 29c1
00000060: 3c7a eac0 c765 aabe a705 dcbd a936 d1bf
00000070: 3c4b a0c0 7ef2 83c0 fb00 36c0 b81d 0240
00000080: 9305 303e 5101 b340 4c2a eac0 fc55 d8c0
00000090: adfa e1c0 a692 ff3f 3d78 4cbf 87fb 9d3f
000000a0: c67c 06c1 02a1 e8c0 3ee0 da40 05d6 d540
000000b0: ce65 47c1 96aa bfc0 07df 93c0 141d 8c3f
000000c0: e6bb 4b40 e4f8 3ac0 5295 94c0 94f7 74c0
000000d0: 29d3 54be 1fe7 4441 0460 a63e 4c26 e8be
000000e0: 4418 c43f a183 32c1 758c e6c0 8fc8 603f
000000f0: aa05 dcc0 ad24 42c0 59bc 23c0 e819 c640

scale2.1.1.running_var f4 [64]
3.6985517 4.1144485 9.929682 9.596793 8.184445 6.6412244 5.5963745 5.15648
12.049938 2.3459964 11.053253 1.1330884 9.746842 13.146704 13.576027 3.3193274
3.5662172 6.8335476 2.3493047 6.9899273 4.411114 7.3923326 10.302094 27.669659
5.7109942 3.2996259 3.063338 18.352453 19.13283 3.1106992 35.23093 70.48444
16.136288 9.317079 7.7146277 4.668198 6.1580777 28.596046 82.4427 1.025209
4.36278 4.2615986 8.354461 33.686226 52.33783 16.195757 6.2223725 2.0122447
15.516211 32.31703 14.866963 28.84156 8.888441 7.0972466 35.408913 23.084393
46.428783 31.092373 17.149282 5.1041946 3.905387 6.1429596 13.477574 88.563644
00000000: 12b5 6c40 90a9 8340 fadf 1e41 778c 1941
00000010: 7df3 0241 e984 d440 8015 b340 e201 a540
00000020: 8ccc 4041 ce24 1640 20da 3041 0a09 913f
00000030: 11f3 1b41 e658 5241 6837 5941 dc6f 5440
00000040: e73c 6440 6cac da40 025b 1640 7cad df40
00000050: d927 8d40 fd8d ec40 61d5 2441 765b dd41
00000060: 77c0 b640 122d 5340 bb0d 4440 d3d1 9241
00000070: 0910 9941 b215 4740 79ec 0c42 09f8 8c42
00000080: 1e17 8141 c112 1541 3bde f640 e161 9540
00000090: f90e c540 b4c4 e441 aae2 a442 0c3a 833f
000000a0: e59b 8b40 045f 8840 dfab 0541 b2be 0642
000000b0: f059 5142 e990 8141 ad1d c740 9ec8 0040
000000c0: 6642 7841 a444 0142 15df 6d41 84bb e641
000000d0: 0e37 0e41 a51c e340 baa2 0d42 d6ac b841
000000e0: 13b7 3942 2ebd f841 bb31 8941 9055 a340
000000f0: dcf1 7940 2093 c440 25a4 5741 9620 b142

scale2.2.0.weight f4 [64, 64, 3, 3]
0.019023746 -0.014556688 0.0053398004 0.029023977 -0.04545382 -0.0660186 0.15116459 0.043059245
-0.003178615 0.053198237 -0.028221384 -0.14132206 0.037968043 0.050900947 -0.07597376 -0.053617265
0.0150226895 0.05075925 -0.0044150515 -0.05819777 -0.06378773 0.012917165 -0.02059422 -0.026798792
-0.013486559 -0.015005066 0.01793061 -0.018162362 -0.028617522 -0.02159357 0.055916835 0.07676665
-0.0048756097 -0.02217848 0.06910308 0.044809747 -0.037539423 -0.05480088 0.051235925 0.03979641
-0.088647544 -0.02605423 0.13982685 -0.01959487 -0.05543728 0.023898458 -0.089174725 -0.10117469
0.0556408 0.06035978 -0.090044744 0.012288174 0.08230458 0.014281791 0.002963237 0.025551688
-0.018730732 -0.04231109 0.03522185 -0.059084408 -0.08816306 -0.006028904 -0.036938593 0.057784185
-0.016856235 -0.09281829 0.083265305 0.111360654 -0.055576507 -0.04407083 0.09635104 0.058198933
-0.025153317 -0.05906322 -0.059452325 -0.0018209642 0.010510507 -0.0080602495 -0.012003306 -0.008044414
0.015425799 -0.002767541 -0.058823064 -0.0009270973 0.06110252 -0.101338476 -0.1007459 0.097297765
0.021917777 -0.08810781 0.021368418 -0.033618238 -0.08131548 -0.02062173 0.045243107 -0.031453185
-0.062359042 -0.021812567 0.014193155 -0.1784276 -0.12763888 0.18964161 -0.035972495 -0.25767004
-0.20405397 0.12109042 0.013277869 -0.109620355 0.08490624 0.0030580072 -0.09000981 0.018157056
0.082274735 -0.07667991 -0.08438569 -0.0036313252 0.028448524 -0.031293303 -0.035174556 -0.060083523
-0.0036457526 0.032111943 -0.033222932 -0.04412227 0.008980939 0.0006551794 -0.04729939 -0.05735499
-0.093042344 -0.050561868 -0.0038728015 -0.050281975 -0.09954451 -0.055409797 -0.031821422 0.05905182
0.06710277 -0.0019165678 0.013310203 0.057692476 0.059045173 0.051485103 0.00535343 0.05291255
-0.09504244 0.03556502 0.03341375 -0.21042204 -0.06546056 0.13604131 -0.060278878 -0.10043213
-0.017878028 0.02838948 -0.0058882665 -0.0519582 0.009735616 -0.002246798 -0.04157125 0.011851655
0.0011308199 -0.0075054383 0.029664936 -0.030206295 -0.07406257 -0.02678802 0.030850114 0.046368476
-0.0070510996 -0.006553323 0.044765558 -0.025980424 -0.0030246542 0.0053412756 -0.08836247 -0.04493419
0.033240035 -0.079348914 -0.09820959 -0.027749376 0.11842178 -0.20464289 -0.10254629 0.22279319
-0.07290793 -0.15169491 0.13811135 0.10988135 0.07229532 -0.039970882 -0.027100343 0.0055337977
0.04600654 -0.11861825 -0.022516362 0.16379596 -0.05305868 -0.121062525 0.06720449 -0.06219666
-0.0058638044 0.15522747 -0.0109824855 -0.061065774 0.1437399 0.119762875 0.025172673 0.035590254
-0.005827378 -0.03000648 0.063151814 0.050391484 -0.008721816 0.061328996 0.03223756 0.0128786545
0.07711328 0.038202006 -0.01199496 -0.0017719844 0.004670788 0.04183561 -0.0074732904 -0.073651895
0.010008432 0.04219452 -0.015243524 -0.047084797 -0.002252187 0.07838736 -0.045353692 -0.12222776
0.0035254073 0.028475648 0.04108267 0.09067796 -0.061513644 -0.019990465 0.10061234 0.061316352
-0.11277389 -0.026743054 -0.06222832 0.0145760905 -0.1480341 -0.18241164 0.054079246 -0.004462782
-0.06749943 0.0031434444 0.00442231 0.03820703 0.011255125 -0.034440316 -0.057036858 0.062280398
00000000: b0d7 9b3c 2d7f 6ebc 7ef9 ae3b b1c3 ed3c
00000010: c92d 3abd c234 87bd e4ca 1a3e e45e 303d
00000020: 4f50 50bb 65e6 593d 8830 e7bc bbb6 10be
00000030: 6184 1b3d 837d 503d 2198 9bbd c79d 5bbd
00000040: ba21 763c eee8 4f3d 23ac 90bb c960 6ebd
00000050: 24a3 82bd 84a2 533c 36b5 a8bc 2489 dbbc
00000060: baf6 5cbc cfd7 75bc 37e3 923c 3cc9 94bc
00000070: 4b6f eabc 00e5 b0bc 0d09 653d d537 9d3d
00000080: 94c3 9fbb a5af b5bc ea85 8d3d 6d8a 373d
00000090: f0c2 19bd e376 60bd c3dc 513d 8f01 233d
000000a0: d88c b5bd ae6f d5bc c52e 0f3e 6c85 a0bc
000000b0: 3412 63bd b3c6 c33c 3da1 b6bd ad34 cfbd
000000c0: 9ce7 633d d13b 773d 6169 b8bd 5654 493c
000000d0: 4e8f a83d 2cfe 693c de32 423b c651 d13c
000000e0: 3171 99bc 654e 2dbd c944 103d 7e02 72bd
000000f0: d68e b4bd 1d8e c5bb ec4c 17bd 1caf 6c3d
00000100: 1616 8abc 8417 bebd 0087 aa3d 0e11 e43d
00000110: 31a4 63bd 9d83 34bd b253 c53d 0162 6e3d
00000120: 540e cebc 46ec 71bd 4884 73bd 6bad eeba
00000130: 4334 2c3c 230f 04bc 84a9 44bc b8cc 03bc
00000140: 7ebc 7c3c a25f 35bb 74f0 70bd 7208 73ba
00000150: a346 7a3d 8c8a cfbd de53 cebd 0d44 c73d
00000160: e98c b33c de71 b4bd d20c af3c 47b3 09bd
00000170: bb88 a6bd e7ee a8bc d650 393d 0ed5 00bd
00000180: 326c 7fbd 45b0 b2bc 688a 683c bab5 36be
00000190: c4b3 02be 6931 423e e557 13bd 54ed 83be
000001a0: 86f3 50be 41fe f73d 6b8b 593c a380 e0bd
000001b0: 53e3 ad3d d968 483b 1057 b8bd 1bbe 943c
000001c0: a87f a83d 5b0a 9dbd 68d2 acbd 87fb 6dbb
000001d0: e10c e93c 682d 00bd 3213 10bd 241a 76bd
000001e0: 94ed 6ebb d087 033d c514 08bd 8eb9 34bd
000001f0: ca24 133c 58c0 2b3a 01bd 41bd 11ed 6abd
00000200: fc8c bebd f619 4fbd d4ce 7dbb 79f4 4dbd
00000210: fedd cbbd 62f5 62bd 2e57 02bd 52e0 713d
00000220: 2d6d 893d 5835 fbba 0a13 5a3c f24e 6c3d
00000230: 5ad9 713d 0be2 523d d36b af3b d4ba 583d
00000240: 9ca5 c2bd a0ac 113d dbdc 083d e078 57be
00000250: 3010 86bd 6a4e 0b3e fce6 76bd 5caf cdbd
00000260: f174 92bc 0e91 e83c 5cf2 c0bb 1fd2 54bd
00000270: 2282 1f3c 043f 13bb 9d46 2abd 722d 423c
00000280: 0538 943a 2ef0 f5bb e103 f33c 3173 f7bc
00000290: 1eae 97bd 8d72 dbbc 61b9 fc3c dfec 3d3d
000002a0: e90c e7bb 42bd d6bb 175c 373d e6d4 d4bc
000002b0: 4739 46bb de05 af3b 62f7 b4bd ea0c 38bd
000002c0: b426 083d af81 a2bd 1c22 c9bd a952 e3bc
000002d0: 1e87 f23d e88d 51be ca03 d2bd e623 643e
000002e0: c150 95bd e955 1bbe 106d 0d3e 7909 e13d
000002f0: 920f 943d 82b8 23bd 8a01 debc dc54 b53b
00000300: 5b71 3c3d 20ee f2bd 3c74 b8bc 21ba 273e
00000310: 0f54 59bd a1ef f7bd 82a2 893d edc1 7ebd
00000320: 2825 c0bb f3f3 1e3e e2ef 33bc 1b20 7abd
00000330: 8d30 133e 3d46 f53d ec36 ce3c 16c7 113d
00000340: 97f3 bebb 26d0 f5bc bd55 813d 4d67 4e3d
00000350: f3e5 0ebc 1d34 7b3d 880b 043d fe00 533c
00000360: 91ed 9d3d b579 1c3d 8286 44bc ee41 e8ba
00000370: 690d 993b d15b 2b3d 81e2 f4bb ced6 96bd
00000380: 68fa 233c 29d4 2c3d f9bf 79bc fddb 40bd
00000390: 6e99 13bb 8d89 a03d cbc4 39bd 8c52 fabd
000003a0: 850a 673b c345 e93c 4d46 283d 5eb5 b93d
000003b0: bbf5 7bbd 0bc3 a3bc d80d ce3d db26 7b3d
000003c0: fff5 e6bd 4014 dbbc 1fe3 7ebd 8ed0 6e3c
000003d0: 4096 17be 1eca 3abe 3382 5d3d 873c 92bb
000003e0: 243d 8abd 3f02 4e3b 06e9 903b fa7e 1c3d
000003f0: 6a67 383c 4a11 0dbd 7b9f 69bd bb19 7f3d

scale2.2.1.weight f4 [64]
0.8438325 0.5336348 0.7494149 0.71268004 0.6892586 0.8222734 0.87924266 0.58188105
0.5306926 0.64921045 0.5830076 0.6441289 0.71705943 0.93710214 0.6434846 0.6087502
0.59910583 0.7169558 1.0060257 0.842491 0.920648 0.9170757 0.98958623 0.80165493
0.9587058 0.5626658 0.5882974 0.5851119 0.8755556 0.454709 0.7777512 0.886863
0.70823044 0.6912487 0.66170704 0.6607432 0.8539833 0.91342133 1.1612042 0.8794963
0.6698312 0.72715855 0.6599013 1.056511 0.974833 0.68842685 0.6697792 0.6466919
0.6220767 0.5667612 0.9046302 0.8386781 0.62611073 0.60440075 0.98802906 0.7426345
0.9282279 1.0477223 0.65889716 0.9174599 0.9095371 0.7857613 0.9784601 0.65245306
00000000: 6805 583f 4a9c 083f a8d9 3f3f 3372 363f
00000010: 4073 303f 8280 523f 0c16 613f 28f6 143f
00000020: 78db 073f a832 263f fc3f 153f a2e5 243f
00000030: 3591 373f ede5 6f3f 68bb 243f 0ed7 1b3f
00000040: 005f 193f 6a8a 373f 73c5 803f 7dad 573f
00000050: 96af 6b3f 79c5 6a3f 8655 7d3f 4239 4d3f
00000060: be6d 753f de0a 103f a99a 163f e5c9 153f
00000070: 6924 603f 9ecf e83e b41a 473f 7409 633f
00000080: 974e 353f adf5 303f a265 293f 7726 293f
00000090: a69e 5a3f fbd5 693f 57a2 943f ab26 613f
000000a0: 0f7a 2b3f 1027 3a3f 4bef 283f c13b 873f
000000b0: a88e 793f be3c 303f a676 2b3f 9a8d 253f
000000c0: 6b40 1f3f 4317 113f d895 673f 9cb3 563f
000000d0: cb48 203f 02ba 1a3f 79ef 7c3f 4b1d 3e3f
000000e0: 58a0 6d3f c41b 863f 7cad 283f a7de 6a3f
000000f0: 6cd7 683f a727 493f 5c7c 7a3f 2a07 273f

scale2.2.1.bias f4 [64]
-0.30751047 -0.15155134 -0.34529385 0.002026587 -0.030170118 -0.033082668 -0.15716623 -0.18788292
-0.250942 -0.15750827 0.054591816 0.05215271 0.11886132 -0.20180483 -0.24297298 -0.17078201
-0.35480848 -0.115560494 -0.017299028 0.29048958 -0.17931879 0.34046492 -0.16658841 0.08323887
-0.081382304 -0.05792562 -0.19203268 -0.48138502 -0.18161036 -0.20052692 0.15701048 -0.051464077
-0.2009367 -0.2438176 -0.15675165 -0.16946538 -0.07820598 -0.019863956 0.013014091 -0.024480598
-0.05138332 -0.1109086 -0.04070016 -0.19069983 0.0381945 -0.1200494 -0.08245155 -0.2360787
-0.14214605 -0.26917237 0.16629347 -0.23235263 -0.18167843 -0.41678542 -0.14660777 0.09617244
0.13787185 -0.2544897 -0.21141422 0.03522956 0.2853354 -0.039347682 0.060197596 -0.03369571
00000000: 0372 9dbe 4630 1bbe 5bca b0be 7dd0 043b
00000010: 5327 f7bc b181 07bd 2ff0 20be 6164 40be
00000020: 787b 80be d949 21be ab9b 5f3d 149e 553d
00000030: 906d f33d eda5 4ebe e9cd 78be 7be1 2ebe
00000040: 75a9 b5be fbaa ecbd b1b6 8dbc 0dbb 943e
00000050: 589f 37be 6b51 ae3e 2796 2abe 2479 aa3d
00000060: c4ab a6bd 6a43 6dbd 37a4 44be 1978 f6be
00000070: 11f8 39be ee56 4dbe 5bc7 203e ffcb 52bd
00000080: 5ac2 4dbe 52ab 79be 8183 20be 5588 2dbe
00000090: 752a a0bd bcb9 a2bc 0e39 553c 898b c8bc
000000a0: 5177 52bd 0c24 e3bd 36b5 26bd d146 43be
000000b0: d671 1c3d 76dc f5bd 5cdc a8bd 9dbe 71be
000000c0: bc8e 11be f6d0 89be d648 2a3e d9ed 6dbe
000000d0: e909 3abe e664 d5be 5920 16be 0ef6 c43d
000000e0: 472e 0d3e 794c 82be f87c 58be df4c 103d
000000f0: 7b17 923e 092b 21bd c191 763d 8304 0abd

scale2.2.1.running_mean f4 [64]
-1.8726014 0.7305997 -1.249526 -6.8093214 -1.1039937 -1.9341335 -0.43028703 -1.808882
-3.0138566 -2.93168 -5.237413 0.34654245 -0.52383566 -1.4376495 -5.63734 -0.37483913
-5.2415094 -4.135706 0.060438316 -1.5333726 -2.4116786 0.8477036 -0.67379504 -1.3112391
0.12995858 4.7745724 -3.8992288 -3.7038379 -1.0727414 -0.6814107 -5.1457953 -0.29193395
-2.0640001 2.9267592 -2.6148634 -1.9856385 -2.7433517 0.82267714 -0.99372196 -2.1315913
1.7824132 -2.1577334 0.9493831 -2.0456743 -1.8961024 -2.2637572 -2.5379138 -2.512648
-2.636301 -1.0134188 -1.0386101 -1.3906566 0.43412212 -4.39608 -1.1897411 -2.0827281
-0.97478473 -1.0640047 -1.032267 -0.89305854 0.061778504 -1.6117859 0.20314951 -3.1263304
00000000: 67b1 efbf 9508 3b3f 78f0 9fbf f6e5 d9c0
00000010: aa4f 8dbf b091 f7bf 954e dcbe 7289 e7bf
00000020: 07e3 40c0 a5a0 3bc0 e398 a7c0 036e b13e
00000030: 181a 06bf e604 b8bf 1765 b4c0 eaea bfbe
00000040: 72ba a7c0 b457 84c0 2b8e 773d 8e45 c4bf
00000050: f158 1ac0 1a03 593f d57d 2cbf afd6 a7bf
00000060: dd13 053e 4cc9 9840 f78c 79c0 ae0b 6dc0
00000070: 974f 89bf ee70 2ebf 5baa a4c0 5e78 95be
00000080: 9418 04c0 0650 3b40 ec59 27c0 6729 febf
00000090: 1393 2fc0 f89a 523f 9064 7ebf fe6b 08c0
000000a0: 1e26 e43f 4e18 0ac0 c50a 733f 54ec 02c0
000000b0: 7cb3 f2bf 66e1 10c0 2e6d 22c0 3acf 20c0
000000c0: 28b9 28c0 b5b7 81bf 2df1 84bf 0901 b2bf
000000d0: 4145 de3e b0ac 8cc0 7049 98bf 6b4b 05c0
000000e0: 7e8b 79bf 4e31 88bf 5321 84bf 7c9f 64bf
000000f0: 750b 7d3d 004f cebf 6d06 503e cc15 48c0

scale2.2.1.running_var f4 [64]
2.0020595 9.384396 1.9511101 7.6565413 5.661254 7.6615257 8.624535 9.092577
4.3724785 9.077348 18.399584 23.58306 7.567196 3.1418715 12.728015 30.358522
7.922884 5.6772895 4.536611 8.879886 4.86895 4.2077913 4.3929915 3.2851157
9.791417 19.039494 5.634885 9.565711 5.117296 7.176991 37.704586 6.3485775
1.7516513 21.052992 13.171231 11.443581 2.3467164 2.1568835 3.648575 7.710971
7.8167133 10.804677 17.021492 5.3398533 3.6297061 7.620268 13.257035 8.5709095
19.245085 2.477802 5.141099 7.3534546 15.110022 12.758936 11.586909 14.921566
4.03084 1.5939469 7.1926827 2.6314666 3.362498 6.0576534 3.406573 13.773437
00000000: be21 0040 7c26 1641 fabd f93f 6302 f540
00000010: fe28 b540 382b f540 18fe 0941 327b 1141
00000020: 58eb 8b40 d13c 1141 5932 9341 1baa bc41
00000030: 7826 f240 6c14 4940 f3a5 4b41 41de f241
00000040: 4488 fd40 5bac b540 eb2b 9140 0314 0e41
00000050: 70ce 9b40 3aa6 8640 6393 8c40 563f 5240
00000060: a5a9 1c41 e250 9841 fa50 b440 270d 1941
00000070: e4c0 a340 e9a9 e540 7fd1 1642 8c27 cb40
00000080: 1c36 e03f 876c a841 5dbd 5241 e818 3741
00000090: 9a30 1640 610a 0a40 4182 6940 46c0 f640
000000a0: 8422 fa40 f5df 2c41 042c 8841 14e0 aa40
000000b0: 1b4d 6840 3cd9 f340 d11c 5441 7222 0941
000000c0: eff5 9941 4f94 1e40 e283 a440 804f eb40
000000d0: a6c2 7141 9a24 4c41 fb63 3941 bcbe 6e41
000000e0: a4fc 8040 7406 cc3f 752a e640 f369 2840
000000f0: 2b33 5740 4cd8 c140 4b05 5a40 ff5f 5c41
